TPnet/models/DNNs/PrevGraphs/LinearCNN-15_10-19_15.pth (torch, 161141 bytes, 13 tensors)

dnn.0.weight f4 [128, 33]
00000000: b1f4 4dbc 3167 19be 700f e03d 9ec0 95bd
00000010: 8320 f1bd 06a7 033e 7684 f6bd 91a5 71bd
00000020: a952 7abd f497 243e a24d be3d bc97 3d3d
00000030: ec94 8f3d 45d5 0e3e 69ca fb3d 6423 2235
00000040: 96a6 9f3d 7579 febd cd0f 22be 9821 8dbc
00000050: feb6 aa3c 0642 3d3d b446 533d d710 003e
00000060: d28a 9d3d 1ed1 01be 44b4 03bd 1e34 9ebd
00000070: 1ae9 0b3e bdd2 a93d d463 983d fe71 b7bd
00000080: d86b 41bd a95f 2cbd 87d9 bc3d 7ee4 eabd
00000090: 8cc0 c0bc 7308 ae3d 1aca 2abe e485 1dbd
000000a0: 022d 90bd ed18 ea3d 0575 1a3e 8f3a 8c3d
000000b0: 8a91 d93c bc47 0b3c e2a1 ca3c e930 19b5
000000c0: a6f6 073e 1136 333c 57ed 05be b6a2 a83d
000000d0: 8c2a c63d afaf 00be 2735 0fbe 80a6 103d
000000e0: e2d0 bf3d bd4b 78bd f6ae e53d 3faa 9d3d
000000f0: 2664 d03d efca 303b 1c54 a33d fc7b bf3c
00000100: d2f2 01bb eb54 7f3d 3903 8f3d f5ca ac3d
00000110: 3aed c0bd 2b7e 263d 91ca 16be 5c89 243e
00000120: e11a 953c 5eae 02be a3dc bcbd 1977 1ebe
00000130: 0f79 24be c71e 51bd f673 01be 5e3c 983d
00000140: 47e5 c1bb 60a5 4ebd 0d99 f5bc 1f39 4d3b
00000150: 74c2 21be 39b6 bdbd 4123 0f3d 375d a4bd
00000160: 1d34 fe3c 162f a13c a396 473d 4283 073e
00000170: c398 0b3e 3d51 663b 107d 533c 605b 3b3d
00000180: 98ab ddbd 1d67 d9bd a320 203e b8cd ddbd
00000190: d0dc 033e cfde 8f3c 6692 fd3d 0aad 0ebe
000001a0: cb66 05be c7b7 f03d 0f8a b93d 2d17 853c
000001b0: 569e b33d 4e90 993d 2147 09be 7407 a63d
000001c0: c8bf 28bd 9270 e83d fd10 10be 7c00 ee3b
000001d0: b33f 8f3d 8a49 1dbe e1b1 d4bd 3e51 7bbd
000001e0: ac72 07bd 6480 703d e921 94bd d393 c3bd
000001f0: 9ffa 653d 0319 ec3d e1d1 0c3e 25cf 12be
00000200: b255 ffbd c145 cf3d 7a8f d2bd 940d 213e
00000210: b6c8 0e3c 847d c63c f504 88bd a1c1 0a3d
00000220: 353d 793d 2a07 a4bd 7b65 bebd 9bee f6bc
00000230: 5774 fc3d 65e6 61bd 4890 03be 2dd0 ddbd
00000240: 560b 803d cae6 c2bc 3499 653d 527a 103e
00000250: 6c36 fb3d 4f64 f0bd 1850 4f3d 43fc a73d
00000260: db58 f2bd 617f 953d 040d f0bc 6e83 24be
00000270: 15b4 8abd bf9c 983d 24a4 773d a81e d63d
00000280: f2d3 42ba 0584 fa3b f0ac 28bd c413 9bbd
00000290: 6ab2 1ebe ed1e 7cbc 0775 ecbd 3048 883d
000002a0: 5c3c 70ba 299e 133e 3c16 be3c e47c 28be
000002b0: 7093 ac3d 8582 c03d 6769 ecbd 377f 8abd
000002c0: 4756 593d 5a89 133d 0a5f 303d 9f47 103e
000002d0: ba83 20bd 905c 0a3e 5e12 c83d 2d35 08be
000002e0: d909 f53d 4fef 08be b2bd fe3d cdd8 9cbd
000002f0: 89c6 e2bb bbf2 903d d296 83bc 8149 91bd
00000300: cae9 f2bd 5aaa 0bbe 4843 143b 7e79 fabd
00000310: 1785 233d 1b9e 293e d2d8 533d a8ae 133e
00000320: 6028 b1bd 2b14 43bd 6e6c cc3d ff2f 003e
00000330: e7e7 b53c 9210 bcbd ec6f 923d 6746 703d
00000340: 9715 eb3c fd04 323e 4ff5 41bd 74fd 0e38
00000350: 4bea 09be 2b48 3d3d daae 10b8 dd30 f63d
00000360: 0dc8 83bc 37bd 0ebe f545 e8bd c982 ee3d
00000370: c339 2fbe 58d2 5dbc 6761 ed3d 565c dc3d
00000380: 61af 023e b1a1 1ebd df72 943a 6afb 493d
00000390: 1dab f43d d24e 8e3d cb6a 73bd 6872 f0bd
000003a0: 7fbe 6dbc 9f5b da3d 0b8a f93d 7b65 07bd
000003b0: 2c4b 1cbd 20a1 e53d e40d 06be 0c43 c7bd
000003c0: d880 91bd 72ba bfbd 3737 743d d9b3 c8bd
000003d0: 783f 9d39 d68e 5bbd 73fc 563d 26d8 d3bc
000003e0: f004 c93d 2586 013e bf9e 27bd 6761 e3bc
000003f0: 3863 293d 6a27 a8bd a8a9 b1bd 140b a73c
-0.012570546 -0.1498077 0.109404445 -0.073121294 -0.11773779 0.12856683 -0.12036984 -0.058995787
-0.061113987 0.1607359 0.09292151 0.046287283 0.070108265 0.13948543 0.12294466 6.0401203e-07
0.077954456 -0.1242551 -0.1582634 -0.017227933 0.02083921 0.046205543 0.0515811 0.12506424
0.076924935 -0.12677428 -0.032154337 -0.07724784 0.1366314 0.08292148 0.07440916 -0.08957289
-0.04722199 -0.042083416 0.092211775 -0.11469363 -0.023529314 0.08497705 -0.16678658 -0.038457766
-0.070398346 0.114305355 0.15083702 0.06847107 0.026558656 0.0085009895 0.024735395 -5.7068115e-07
0.13277683 0.010938183 -0.13078819 0.0823416 0.09676084 -0.12567018 -0.1398512 0.035315037
0.09366013 -0.060619105 0.11215012 0.076984875 0.10175352 0.0026976427 0.07975027 0.02337455
-0.001982857 0.062336843 0.069830365 0.084371485 -0.094202474 0.040647667 -0.1472571 0.16068023
0.018201293 -0.12761828 -0.092217706 -0.1547512 -0.16061805 -0.051054742 -0.12641892 0.07433389
-0.0059172246 -0.050450683 -0.029980207 0.0031314564 -0.15796834 -0.09263272 0.03494573 -0.08025592
0.031030709 0.019675773 0.048727643 0.13233665 0.13632493 0.0035143637 0.012908235 0.04574144
-0.108237445 -0.106153704 0.1563745 -0.10830253 0.12877202 0.017562298 0.12381439 -0.13933197
-0.13027494 0.11753803 0.09059536 0.016246403 0.087704346 0.07498227 -0.1340604 0.0810689
-0.04119852 0.11349596 -0.1406898 0.0072632413 0.069945715 -0.15360084 -0.1038549 -0.061356775
-0.033068344 0.058716193 -0.0723303 -0.095496796 0.056147214 0.11528208 0.13751937 -0.14336832
-0.12467517 0.101207264 -0.10281272 0.15727836 0.008714845 0.024229772 -0.066415705 0.033876065
0.060849387 -0.08009179 -0.092966996 -0.030143073 0.123268776 -0.055151362 -0.12848008 -0.10830722
0.06252162 -0.02379169 0.05605431 0.14109161 0.122662395 -0.11737882 0.050613493 0.08202412
-0.11833354 0.07299686 -0.029303081 -0.16065761 -0.06772629 0.07451772 0.06045927 0.10455066
-0.0007432095 0.0076451325 -0.04118055 -0.07572129 -0.15497747 -0.015388233 -0.11545759 0.06654394
-0.00091642677 0.14415802 0.023203962 -0.16453892 0.08426559 0.093998946 -0.115435414 -0.067625456
0.053060796 0.03601966 0.043059386 0.14089821 -0.039188124 0.13511872 0.09769128 -0.13301535
0.11964769 -0.13372539 0.12438525 -0.07658539 -0.00692064 0.07077547 -0.016063128 -0.07094098
-0.11860998 -0.13639203 0.002262311 -0.12230204 0.039921846 0.16564219 0.051720448 0.14422095
-0.08650279 -0.047626656 0.09981619 0.12518309 0.022205306 -0.09182848 0.07150254 0.05866089
0.028696818 0.17384715 -0.047353085 3.4091485e-05 -0.13468282 0.046211403 -3.449512e-05 0.12021039
-0.016086603 -0.13939367 -0.11341468 0.11646039 -0.17111878 -0.013538919 0.11590844 0.10759799
0.12762214 -0.03872842 0.0011325738 0.049312033 0.119467 0.069486275 -0.059428018 -0.11740571
-0.01451075 0.106620066 0.12184533 -0.033055764 -0.038157627 0.11212373 -0.13091236 -0.09729585
-0.07104653 -0.093617335 0.05962297 -0.09799928 0.0002999266 -0.053603016 0.052486848 -0.025859904
0.09815395 0.12648828 -0.040922876 -0.027756406 0.041354388 -0.08210643 -0.086749375 0.020391025

dnn.0.bias f4 [128]
00000000: 05cb 013d 2116 17be afd9 8bbd 9429 14b6
00000010: aa16 04be dae2 ac3b 9f1a 903d d475 603d
00000020: a12a 8d36 91b1 aebd 2979 633d 52aa d03d
00000030: 73c1 f8b4 1aac 56bd 4ada 063e 0a2e 42b5
00000040: 8cbd 86bd 80ab 4ab6 9c7c bf3d 75a4 2c36
00000050: d370 233d d44e f434 6246 cebd bca7 0a3e
00000060: ce56 4636 6de2 0d3e 6674 ccbc f5d5 be34
00000070: 27a7 a3bd fc92 e4ba cd89 8ebd f270 b5bd
00000080: f510 52bd fcc3 e4bd 7b00 46bd d0c3 a3bd
00000090: b572 583d e048 b1bd 6c9b 873d 3fe0 3eb6
000000a0: d5d4 5bbd 26b7 89bd 7d93 fdbd 160a 13be
000000b0: 24f2 e0bd d7e4 e13d 2493 f9bd 50fa c43d
000000c0: d15c 20b5 1c17 47bb 3b89 62bd d5a2 22bc
000000d0: f233 103c b892 cb3d a826 0c3e 2ce4 cc3d
000000e0: 2d52 dab5 52ae 88bd d07b dc3d f5d4 edbd
000000f0: 268f b4bd 5a3e 053e 4c31 083e ae97 13b5
00000100: ef02 4a3d 9539 dfbd 62d4 e2bd 7752 08be
00000110: f067 01b5 e7d7 c43d 4c7f 583d 745d 513d
00000120: e65b ddbd 70f8 98bd e9ca 2ebc e6c7 df3d
00000130: 009a 833d da28 733d daeb 10be 1bff fb3d
00000140: ddfa e5bc 67b3 39bd 4bdc e6bd fe2b e0bd
00000150: eb3a 96bd 6af3 113e a94c e6bc 38a7 d9b4
00000160: 4721 843b 93e7 103b 12dd 123e bad5 37bd
00000170: 8f3c 91bd 7e75 8fbc 2deb afbc d956 f6bd
00000180: c73e 9bbd a761 f2bd 09a2 2bb7 3619 0dbd
00000190: 1ba1 f7bc 7b34 8ebd 18cc e53d eaf4 1336
000001a0: 83f6 5fbd 34f0 c63d 353b e73d 65e9 fdb5
000001b0: bd39 8b3d 4fdb 37bd 13f6 01be d8fa 01bd
000001c0: 241a 643d 2dae 7c34 900a 143e 6104 c0bd
000001d0: dad4 4536 7a2d 073e 375f e4bc 5118 c335
000001e0: 5c33 9a3d 1bae 7abd 52f2 003e 5a63 d7bd
000001f0: 24ca e3bd 1b9d da3d eb8c 7d3a 43d9 42bd
0.031687755 -0.14754535 -0.06828629 -2.207792e-06 -0.1289927 0.0052760663 0.070363276 0.05479987
4.20709e-06 -0.08529962 0.05553547 0.10188736 -4.6334353e-07 -0.052410223 0.13169208 -7.233763e-07
-0.06579122 -3.0200172e-06 0.09349939 2.5725724e-06 0.03990252 4.5505897e-07 -0.10072018 0.13540548
2.9554826e-06 0.13855906 -0.024957847 3.5545932e-07 -0.07990866 -0.0017438824 -0.06959877 -0.08859433
-0.051285703 -0.111701936 -0.048340302 -0.07996333 0.05284377 -0.08656478 0.06621441 -2.8442735e-06
-0.05366977 -0.06724386 -0.12381647 -0.14359316 -0.10983685 0.11029976 -0.12186268 0.09618056
-5.973971e-07 -0.0030378764 -0.055306654 -0.0099265175 0.008801447 0.09940094 0.13686621 0.10004458
-1.6266182e-06 -0.06673874 0.10765803 -0.11612884 -0.08816366 0.13012066 0.13300055 -5.498249e-07
0.049319204 -0.10899655 -0.11075665 -0.13312708 -4.8207494e-07 0.096114926 0.052855775 0.051114514
-0.10808544 -0.07469261 -0.010668495 0.109267995 0.064258575 0.05936513 -0.1415247 0.12304517
-0.028073722 -0.045337107 -0.11272486 -0.10945891 -0.073354565 0.14253011 -0.028112726 -4.0541067e-07
0.0040322873 0.0022110685 0.14342144 -0.04488156 -0.07091629 -0.01751208 -0.021474445 -0.120282836
-0.07580333 -0.11835032 -1.0230121e-05 -0.03444787 -0.030228188 -0.069436036 0.112205684 2.2047266e-06
-0.05467845 0.09713784 0.1129059 -1.8917896e-06 0.06798122 -0.044886883 -0.12691526 -0.031733364
0.055688992 2.3532694e-07 0.14457154 -0.09375835 2.9479183e-06 0.13200942 -0.027877433 1.4535709e-06
0.07529327 -0.061201196 0.12592438 -0.10516997 -0.1112254 0.10674497 0.00096721825 -0.04757048

dnn.1.weight f4 [128]
00000000: 2bb7 7f3f 7df5 7f3f 9340 7f3f a410 803f
00000010: 93c4 7f3f ef95 7f3f 2db3 7f3f 2ebe 7f3f
00000020: bde9 7f3f c65b 7f3f a987 7f3f 1cb8 7f3f
00000030: 0372 7f3f b5ce 7f3f e6bf 7f3f d09c 7f3f
00000040: eeac 7f3f 7bf8 7f3f a870 7f3f 9996 7f3f
00000050: b584 7f3f 6dd1 7f3f 5fc4 7f3f b8f1 7f3f
00000060: cec2 7f3f 0c91 7f3f 98b1 7f3f 8fad 7f3f
00000070: 86a5 7f3f 2e81 7f3f f510 803f b500 803f
00000080: b8c7 7f3f d9bb 7f3f 6bf1 7f3f 3dd0 7f3f
00000090: 3a0a 803f 190c 803f 55c7 7f3f dfd0 7f3f
000000a0: 4d09 803f aa7c 7f3f db8d 7f3f ee5f 7f3f
000000b0: 4ba7 7f3f 3fc6 7f3f 1edf 7f3f 2b06 803f
000000c0: a989 7f3f e69f 7f3f 39ab 7f3f e3bf 7f3f
000000d0: 9ea1 7f3f c8c8 7f3f ca8f 7f3f 51ae 7f3f
000000e0: ca00 803f c1ae 7f3f 659e 7f3f 0ab9 7f3f
000000f0: 6af5 7f3f 406b 7f3f 02ec 7f3f 3802 803f
00000100: 7fc2 7f3f b048 7f3f 4fb7 7f3f 396c 7f3f
00000110: c8ae 7f3f 6e99 7f3f 2aaa 7f3f a3a7 7f3f
00000120: 228e 7f3f a475 7f3f a800 803f 4e09 803f
00000130: 89f2 7f3f 658a 7f3f 6896 7f3f c27e 7f3f
00000140: 6272 7f3f 4a95 7f3f 5a04 803f f7ba 7f3f
00000150: 3a02 803f 0f07 803f 25b9 7f3f 440d 803f
00000160: 03bb 7f3f 5cd9 7f3f c702 803f 3485 7f3f
00000170: 0d02 803f dce6 7f3f 249f 7f3f cba9 7f3f
00000180: 5cb9 7f3f 9fc6 7f3f 7c63 7f3f 0bbc 7f3f
00000190: a38f 7f3f 7cdd 7f3f 0604 803f 45e3 7f3f
000001a0: 680c 803f 8012 803f 3d58 7f3f 69a3 7f3f
000001b0: eaf4 7f3f ffc1 7f3f 06aa 7f3f a7d8 7f3f
000001c0: b4dd 7f3f 97de 7f3f f3bb 7f3f 7fa5 7f3f
000001d0: 91ae 7f3f 0fb5 7f3f 01a1 7f3f 99cf 7f3f
000001e0: 34e0 7f3f e691 7f3f 68a9 7f3f f5ac 7f3f
000001f0: 5b8a 7f3f 520c 803f 2984 7f3f 22cb 7f3f
0.9988887 0.9998396 0.9970791 1.0005078 0.99909323 0.99838156 0.99882776 0.99899566
0.9996603 0.9974941 0.99816376 0.99890304 0.99783343 0.99924785 0.9990219 0.9984865
0.99873245 0.99988526 0.99781275 0.9983917 0.9981187 0.99928933 0.99909014 0.9997821
0.99906623 0.998307 0.9988036 0.99874204 0.99861944 0.9980649 1.0005175 1.0000216
0.9991412 0.9989601 0.9997775 0.9992712 1.0003121 1.0003692 0.9991353 0.99928087
1.0002838 0.997996 0.9982583 0.9975575 0.99864644 0.99911875 0.99949825 1.0001882
0.9981943 0.9985336 0.9987064 0.9990217 0.99855983 0.9991574 0.9982878 0.9987536
1.0000241 0.9987603 0.99851066 0.9989172 0.9998385 0.99773026 0.99969494 1.0000677
0.9990615 0.9972029 0.9988908 0.9977451 0.9987607 0.9984349 0.99869025 0.9986517
0.9982625 0.9978888 1.00002 1.000284 0.99979454 0.9982055 0.99838877 0.9980279
0.9978391 0.9983717 1.0001328 0.9989466 1.000068 1.0002154 0.99891883 1.0004048
0.9989473 0.9994104 1.0000848 0.99812627 1.0000626 0.9996164 0.99852204 0.9986846
0.9989221 0.99912447 0.99761176 0.99896306 0.9982855 0.99947333 1.0001228 0.9995616
1.0003786 1.0005646 0.99744016 0.9985872 0.99983084 0.9990539 0.9986881 0.9993996
0.9994767 0.9994902 0.9989616 0.998619 0.9987574 0.9988565 0.9985505 0.99926144
0.9995148 0.99832 0.9986787 0.99873286 0.9982049 1.000376 0.99811035 0.9991933

dnn.1.bias f4 [128]
00000000: 7abd fe39 bed1 c439 424b 00bb fd7a 093b
00000010: 2ebd aeb6 cbbb 62b9 8818 513a 6565 1c3a
00000020: b8e8 cd39 2ed9 bdba a150 8eb8 da27 ecb9
00000030: 805b 0cb9 01a0 993a b43c 00ba 8a5b beb9
00000040: b1eb c3b9 47da bd3a 0140 b2ba ea4b 28ba
00000050: 2ac3 f8b9 123c 0f3a 40d6 4a3a 4042 8539
00000060: dbe8 cfb9 52cd 17ba e951 2c38 cbb5 cbba
00000070: 5896 8bb9 1589 55ba 6c33 de3a 7899 8b3a
00000080: 4c2e b139 5624 c539 b0d2 9a3a 2da3 a139
00000090: d075 033b cacb 6a3a 1e0e 253a 868d 6d3a
000000a0: 842d f33a 0c2b 6bba 3723 30ba e749 d7ba
000000b0: 61a9 60b9 82e5 703a 279a 563a 87c9 a43a
000000c0: 74ab 7139 4270 d5b9 9731 c3b9 1cf1 02ba
000000d0: 1cc7 cbba e023 1b3b d885 27ba 0b7f 0d3a
000000e0: 1809 6039 97d6 1fba c809 86b8 f828 d339
000000f0: d9f6 f039 11bf 68ba a854 c539 7dae 2b39
00000100: 1320 833a 88cb 72ba 0fca 97ba 93d5 bcba
00000110: db7e f8b9 2269 0bba b205 55b9 a539 c9b9
00000120: 44c1 55ba e59c 92ba 0508 813a ca04 db3a
00000130: b262 9c3a a814 53ba d059 3139 ae49 2aba
00000140: 4d62 0fba bc55 88ba 29d8 133a 9c9b c138
00000150: e543 d73a 5850 103b 3d7e 543a 746c de3a
00000160: 5ef8 763a 2600 c938 5192 4d3a bd28 e5ba
00000170: fea1 7b3a 1dcd a23a dc02 f939 ff13 38ba
00000180: 409a 58ba d0ef bd39 a1a0 a3ba ca0d 8d3a
00000190: 9194 9fb8 425f 4939 5d7c 313a 5f83 8739
000001a0: ebc8 7b3a 6542 bd3a 8a8c e7ba 2242 83b8
000001b0: d9aa 923a bc3e ae38 06d5 2a38 9063 ca39
000001c0: 77a9 cb3a 8d16 9039 778a a839 eddc 23ba
000001d0: fa3b 1fba 8110 f5b9 f171 1237 a70f b439
000001e0: 7806 c536 2f26 02bb b540 2c38 30ec 153a
000001f0: 1c0a 81b9 bb6a be3a c1ca e0b9 19dd 5539
0.00048587826 0.00037540303 -0.0019576107 0.0020977848 -5.2076275e-06 -0.00021622998 0.0007976373 0.00059660367
0.00039274036 -0.001448428 -6.786106e-05 -0.0004504312 -0.00013385527 0.0011720659 -0.0004891858 -0.00036307826
-0.00037368902 0.0014484607 -0.0013599397 -0.00064200035 -0.00047447655 0.0005463968 0.0007737614 0.00025417097
-0.00039655608 -0.0005790788 4.108428e-05 -0.001554185 -0.0002662416 -0.0008145732 0.0016952581 0.0010650596
0.00033794565 0.0003760184 0.0011812057 0.00030829888 0.0020059235 0.00089567585 0.0006296354 0.0009061921
0.0018552993 -0.0008970953 -0.00067191146 -0.0016425223 -0.00021425403 0.0009189473 0.00081864226 0.0012572267
0.00023047422 -0.00040710164 -0.00037230246 -0.00049950345 -0.001554701 0.0023672506 -0.00063904887 0.0005397654
0.00021365692 -0.0006097345 -6.39144e-05 0.0004027558 0.00045960283 -0.0008878569 0.00037637842 0.00016372833
0.0010004066 -0.0009261896 -0.0011580604 -0.0014406912 -0.0004739676 -0.0005318095 -0.00020315385 -0.00038380656
-0.0008154104 -0.0011185674 0.0009844309 0.0016709801 0.0011931269 -0.0008052089 0.00016913493 -0.00064959645
-0.0005469665 -0.0010401527 0.00056398154 9.231942e-05 0.0016423432 0.0022020545 0.0008105969 0.0016969577
0.0009421165 9.5844545e-05 0.0007841932 -0.0017483454 0.0009599029 0.0012420748 0.0004749511 -0.00070220226
-0.0008262731 0.00036227563 -0.0012483784 0.0010761556 -7.6093835e-05 0.0001920434 0.0006770546 0.00025847086
0.0009604829 0.0014439343 -0.0017665785 -6.258885e-05 0.0011189833 8.308652e-05 4.0729552e-05 0.00038602622
0.0015538175 0.00027482622 0.0003214662 -0.0006250877 -0.0006074306 -0.00046742338 8.728807e-06 0.00034343937
5.8718106e-06 -0.0019859185 4.106826e-05 0.00057190936 -0.0002461233 0.0014527658 -0.00042875673 0.00020395628

dnn.1.running_mean f4 [128]
00000000: 9ec7 b0c6 3a13 e346 6224 8a47 3693 8a47
00000010: 7568 8ac7 5180 9247 50cd d4c6 6e93 2646
00000020: 7e08 85c7 b4e0 7947 4a6a 8647 9739 46c6
00000030: 1129 ca43 5090 8f47 f959 c545 727d b2c6
00000040: 82ce 2747 126f 2047 3c46 cfc6 96e8 8447
00000050: 4edf 38c7 df42 a846 365b 8747 9911 41c7
00000060: 20bf 8947 1675 fbc6 0302 6fc5 017f e3c5
00000070: 9f9a 6ac6 fc63 81c5 ebff 9847 f14f 45c7
00000080: 8faf 87c7 f94c bd46 4531 96c7 36ab 2ec7
00000090: 6e55 8046 2369 9347 942a 8346 522f 82c7
000000a0: 904a 3b46 fe22 7045 8389 8b47 52fb 24c7
000000b0: c4bc 91c7 1f1a 69c7 f248 1647 a6f9 a6c5
000000c0: 31ef 1747 b643 0d46 7cb2 35c7 5e8d 64c6
000000d0: 61c7 66c7 b554 7fc7 2204 64c7 e06c f8c6
000000e0: a8de 1cc7 a5a1 23c6 2976 1e47 72ff 43c6
000000f0: 8334 fac6 3713 3a47 597c 6447 5802 2746
00000100: 73f4 2ec6 0f1c 32c7 5151 33c7 bd11 3bc7
00000110: 891c 8bc7 f83e 83c7 591e 7847 76ad d0c6
00000120: 9bee 5ec7 9fbb 3a47 7e0b b345 4840 57c7
00000130: f61c c545 ff09 7bc7 effd 0d47 ba95 6446
00000140: de87 2b46 b6d4 8f47 6395 28c7 9231 c6c6
00000150: bb07 8647 f21f f746 2581 e346 3dfe 8347
00000160: 7264 8dc7 6e85 3b47 38ff 11c7 a5c6 2f45
00000170: 4525 8447 e774 5847 d173 91c7 9a60 fcc6
00000180: 026f 48c7 a4ab 9847 e41a 46c7 1cc0 55c7
00000190: 3c86 29c5 d6fe 02c7 b2e3 f9c6 a2f8 d6c6
000001a0: 2e8e 6347 1481 0246 1b74 0847 1409 6746
000001b0: 4209 5947 9a96 8dc7 d508 a645 5d97 48c6
000001c0: 8d2c c046 8c52 3bc6 0f7e 83c7 2488 14c7
000001d0: 17d9 4c47 71a5 1647 fe98 c446 c395 9847
000001e0: 25bc 83c6 18f3 0bc7 3635 64c7 39be 0ac6
000001f0: 0326 0547 9761 6fc7 4e41 dfc6 9d8b 0847
-22627.809 29065.613 70728.766 70950.42 -70864.914 75008.63 -27238.656 10660.857
-68112.984 63968.703 68820.58 -12686.397 404.32083 73504.625 6315.2466 -22846.723
42958.508 41071.07 -26531.117 68049.17 -47327.305 21537.436 69302.42 -49425.598
70526.25 -32186.543 -3824.1257 -7279.8755 -15014.655 -4140.498 78335.836 -50511.94
-69471.12 24230.486 -76898.54 -44715.21 16426.715 75474.27 16789.29 -66654.64
11986.641 3842.187 71443.02 -42235.32 -74617.53 -59674.12 38472.945 -5343.206
38895.19 9040.928 -46514.484 -14627.342 -59079.38 -65364.707 -58372.133 -31798.438
-40158.656 -10472.411 40566.16 -12543.861 -32026.256 47635.215 58492.348 10688.586
-11197.112 -45596.06 -45905.316 -47889.74 -71225.07 -67197.94 63518.348 -26710.73
-57070.605 47803.62 5729.4365 -55104.28 6307.62 -64265.996 36349.934 14629.432
10977.967 73641.42 -43157.387 -25368.785 68623.46 31631.973 29120.572 67580.48
-72392.89 48005.43 -37375.22 2812.4153 67658.54 55412.902 -74471.63 -32304.3
-51311.008 78167.28 -50714.89 -54720.11 -2712.3896 -33534.836 -31985.848 -27516.316
58254.18 8352.27 34932.105 14786.27 55561.258 -72493.2 5313.104 -12837.841
24598.275 -11988.637 -67324.12 -38024.14 52441.09 38565.44 25164.496 78123.52
-16862.072 -35827.094 -58421.21 -8879.556 34086.01 -61281.59 -28576.652 34955.613

dnn.1.running_var f4 [128]
00000000: d3b1 6a49 efa8 a048 3119 9149 3c8a 9449
00000010: 5210 ad48 e1b4 6749 5d58 a147 49db 1949
00000020: 0171 3849 db3e 7849 feab 0749 3f0a 3a48
00000030: acc7 6247 d65e fd48 6b2a 3948 b52c 2847
00000040: ebfc 7d49 327a e247 6d99 6647 f6e7 9348
00000050: 065b 0349 b59a 9748 4f90 5649 c824 2448
00000060: ca0d 3249 7a6d c448 ac7a 4849 5ac0 b448
00000070: a1b3 9b49 fe26 9247 b27a 7848 f307 2648
00000080: 0329 3648 cf13 1049 7736 f948 9be2 9648
00000090: 69ea 1249 8897 6949 2d9b f447 28ac 2348
000000a0: 1216 9047 2a00 b747 2612 1f49 6af7 7d49
000000b0: e25e 5448 f1bb 4d49 3dd4 2648 a055 5349
000000c0: 88ed 9049 2c72 3c48 224e 6c49 2a1b 8348
000000d0: 838e 5649 37dc a249 80b6 0249 426a c248
000000e0: ad54 3249 d0ac 8048 dbc9 0048 35e3 0148
000000f0: dc19 3948 e433 2048 be98 f447 1d5d d648
00000100: ac4c d248 9c5f 7648 d7c9 4548 7af8 9b49
00000110: a16e 8349 d423 3248 e228 9649 7d54 8048
00000120: 26e9 0748 9f5f 5949 609d d047 1b02 cf48
00000130: 9ac7 5a48 1376 3048 ca8f 3149 b5ad 9849
00000140: a5df 7949 ae44 a848 4fbe 8b49 9cdd 8349
00000150: e4c5 a448 88fc f648 1a1f 8749 4665 d248
00000160: c45a 6648 a131 1449 4423 e348 15f0 7a45
00000170: 28e3 a049 eab7 6148 516b a249 0fc2 6249
00000180: 007b aa49 8ae6 9549 82ed 6a49 aabd 4a49
00000190: b666 fc48 1a30 c447 f4c7 e448 2f7e 8e48
000001a0: 9672 9349 643f 1e49 c804 9249 06cd 1349
000001b0: af5a 8748 2ab1 cf48 fbd3 8c48 9948 1849
000001c0: c1fe 3b49 faac 3149 f73b 9f48 f5f0 7f49
000001d0: 4d4b 7a49 26a5 3f49 65b6 2949 d93d 9848
000001e0: 8af6 9249 797a 3c49 ad81 8649 94c5 b948
000001f0: 35ff f247 8b14 3448 52e5 cc48 1e74 0349
961309.2 329031.47 1.1886461e+06 1.2168395e+06 354434.56 949070.06 82608.73 630196.56
755472.06 1.0168137e+06 555711.9 190504.98 58055.67 518902.7 189609.67 43052.707
1.0403347e+06 115956.39 59033.426 302911.7 538032.4 310485.66 878852.94 168083.12
729308.6 402283.8 821162.75 370178.8 1.2755081e+06 74829.984 254442.78 170015.8
186532.05 590140.94 510387.72 309012.84 601766.56 956792.5 125238.35 167600.62
73772.14 93696.33 651554.4 1.0402466e+06 217467.53 842687.06 170832.95 865626.0
1.187249e+06 192968.69 967906.1 268505.3 878824.2 1.3341509e+06 535400.0 398162.06
730442.8 263526.5 131879.42 133004.83 189543.44 164047.56 125233.484 439016.9
430693.38 252286.44 202535.36 1.2777112e+06 1.0766921e+06 182415.31 1.2301082e+06 262819.9
139172.6 890361.94 106810.75 423952.84 224030.4 180696.3 727292.6 1.2507426e+06
1.0234823e+06 344613.44 1.1447779e+06 1.0802435e+06 337455.12 505828.25 1.1069152e+06 430890.2
235883.06 607002.06 465178.12 4015.0051 1.317989e+06 231135.66 1.3305381e+06 928800.94
1.396576e+06 1.2279852e+06 962264.1 830426.6 516917.7 100448.2 468543.62 291825.47
1.2078908e+06 648182.25 1.196185e+06 605392.4 277205.47 425353.3 288415.84 623753.56
770028.06 727759.6 326111.72 1.0483353e+06 1.0252048e+06 784978.4 695142.3 311790.78
1.2039212e+06 772007.56 1.1018776e+06 380460.62 124414.414 184402.17 419626.56 538433.9

dnn.4.weight f4 [256, 128]
00000000: 81a4 913d 988c 0cba cdf4 113c df87 923c
00000010: 9165 58bd 803f 4e3d e6f1 3bbb 54f0 15bd
00000020: 9930 71bd 5751 2cbd 1d91 3abd f310 983d
00000030: f154 88bc 5ce0 a03d 691c 843d 3e89 c4bc
00000040: 8177 79bc 687c b0bb d4b6 f23c 0f06 193d
00000050: 833e 0abd b363 24bd db66 57bd bcee fb3c
00000060: bbf1 993b ece8 19bd f93b bdba f081 383d
00000070: 58e9 92bd e764 8a3d aeed bdbc 482e 6b3d
00000080: d309 7f3b 2bd6 49bd ea7e 87bc c4ea 6a3d
00000090: f415 c8bc 5c48 373d 965c 3ebc 5cc2 e73c
000000a0: ab59 c8bc 211a 853d ce8a 0dbd b162 2d3d
000000b0: 9afe acbd 0ad3 50bd 249f 773d 9e50 61bd
000000c0: c0ad 8ebc 3f05 ab3d b7ab a1bc 0779 45bc
000000d0: ee01 053d 1c61 5b3d 5dd6 933d 16f7 2b3c
000000e0: bd74 0ebd 3956 033d 11a8 abbd 025d 913a
000000f0: afa2 1639 d13c 8bbd f1dc 32bd 24b1 483c
00000100: c26e ea3c cb50 d23c 71b7 a13d 1e92 22b8
00000110: ed83 a8bb 68a3 933d bcdb 523c f68e a9bb
00000120: a0d0 963d dcad 5a3d f341 8a3d f3d9 6dbd
00000130: 797b 15bd e2ad fabb 0415 86bd 07d6 fe3b
00000140: e401 893d eb2f 933c 5a91 9fbd 1acc 4c3d
00000150: baae afbc ce11 233c c604 a9bd e7dd 80bd
00000160: 25c4 14bc 0714 b53c 0a4e ad3d 72d3 61bd
00000170: 1b7e 0d3c c906 a13d 4ba1 f7bc 733d 843d
00000180: ddf9 b13b eb27 843d 3819 0e3d c5c7 c8bc
00000190: b9aa a53d 2933 813c 4e54 84bd 4032 6ebd
000001a0: 5c16 50bd 26f6 953a 560c 663d 7648 e43c
000001b0: 6113 7dbd 1181 91bd 0bc9 663d 87f4 213d
000001c0: e12d 3d3d 52e7 8abc 783c 4b3d 05b1 9dbd
000001d0: 3ea8 b53c 040d 92bd e3df acbd 896b 43bb
000001e0: edfd 353d fbd1 eb3c 0c5e ff3c e0c0 c03c
000001f0: a7b7 91bd bcee 51bd 1fb6 163d 0f4d 04bd
00000200: fe9c 2cbd d58c af3d f340 113d 4c2b 45bd
00000210: a97f 123d 5a87 b4bd 946f 6c3d a045 523d
00000220: f09b 1dbd 2084 86bc 4530 7d3d ddb6 843c
00000230: 9563 6cbc 9650 6ebd 6385 2cbd 8502 21bd
00000240: 8278 44bd 0f61 50bd 8615 46bd 9f95 10bd
00000250: da7a f33b 14fb 34bd bc4b 143d 0ac0 8f3d
00000260: 21cd 57bd 23a6 01bc a511 8d3d b46f 50bd
00000270: cfc0 06bd 08c1 993c c87b 823d 4999 0d3b
00000280: 01b3 5d3d a621 06bc 5eab 83bd e55f bc3c
00000290: 54c6 6fbd 4dd2 db3b 26bd 913d 7617 6dbc
000002a0: e43c 24bd 32b6 813d 58fc 193d 8265 a9bd
000002b0: 8cee 16bd 1e5b 863d ed01 143c 5ca0 853d
000002c0: 2e0e 213c b64c 6dbb 7d39 8bbd a286 413c
000002d0: f2ea 97bd 12b4 4cbd 0a2c a5bc a494 97bd
000002e0: bad4 9b3d 8394 d83b 5d07 513d 396b 53bd
000002f0: 8111 bd3c 0500 dabc 9377 8d3d 07be af3d
00000300: 2ecb b1bb 9c35 e9bc 49cb a9bc 99ce 1cbd
00000310: db41 663d 95fe 933d f6c8 70bd 48cb 9c3d
00000320: 7c90 dc3c 374f 253d 8806 0c3d 9017 50bd
00000330: cbef 873d f080 853c 3dd7 a83d 67f8 66bd
00000340: 40fb c7bc ffa6 06bd e5d7 ab3c b31e 36bd
00000350: 0398 6cbc 00ac bb3c 2ee1 80bc 7744 a33d
00000360: 7af4 803d 78e1 a83d 8afb c93c a994 843d
00000370: c2c3 ca3c dce4 883d 4a35 48bc 6e8b 3abd
00000380: b2ce e1bb a21a d9bc dc3a 40bd cec7 993d
00000390: ab11 8d3d c0c7 db3c 5e0f 883c 6c7a b4bc
000003a0: 35e7 31bd a203 49bd 04b5 873d 9866 77bd
000003b0: 9e84 873d 5161 95ba 40df c33a 64aa 3ebd
000003c0: fb7e 9fbd 85bf 16bc d0d1 03bd 3f87 15bd
000003d0: 3fb2 8b39 fcc1 f9bc 8e8c fe3c 24ea 003d
000003e0: 1295 7e3d a64b 21bd d702 843d 7f82 a0bd
000003f0: da93 9b3c e2cd afbd 0a18 85bd ce99 8fbd
0.07111455 -0.0005361526 0.008908463 0.017887054 -0.052831236 0.050353527 -0.0028678118 -0.036606148
-0.058884237 -0.04206976 -0.045548547 0.07425108 -0.016642066 0.07855293 0.06450731 -0.023991223
-0.015226246 -0.005385924 0.029628195 0.037359294 -0.033751022 -0.040134143 -0.052588325 0.030753486
0.004698006 -0.037575647 -0.0014437429 0.045045793 -0.07173413 0.06757527 -0.023184624 0.057417184
0.0038915768 -0.049276512 -0.01654001 0.057352796 -0.02442453 0.04474674 -0.011618754 0.02829092
-0.02445682 0.06499124 -0.034556203 0.042330448 -0.08446999 -0.050982513 0.060454503 -0.055008523
-0.017416835 0.0835061 -0.0197352 -0.012052781 0.032472543 0.053559408 0.07218621 0.010495922
-0.0347793 0.03206465 -0.083816655 0.001109034 0.00014365719 -0.06798709 -0.043667737 0.012249265
0.028617267 0.02567329 0.07896317 -3.8759892e-05 -0.00514268 0.07208902 0.012869772 -0.005174513
0.07364011 0.05338846 0.0675086 -0.05806918 -0.036494706 -0.007650123 -0.06546977 0.007776979
0.06689814 0.017967185 -0.077913955 0.049999334 -0.02144562 0.009952975 -0.082528636 -0.062923245
-0.009079968 0.022104276 0.084621504 -0.05513329 0.008636023 0.07862622 -0.030228278 0.06457033
0.0054313974 0.06452926 0.03469202 -0.02450932 0.080892034 0.015771465 -0.06461392 -0.05815339
-0.050802574 0.0011441156 0.05616411 0.027866583 -0.06178606 -0.071046956 0.056344073 0.03953984
0.04618633 -0.016956005 0.049618214 -0.076997794 0.02217495 -0.07131389 -0.084411405 -0.0029818735
0.044431616 0.02878665 0.031172775 0.02352947 -0.07115107 -0.051253065 0.036794778 -0.03230005
-0.042141907 0.085717835 0.03546233 -0.048136994 0.035766277 -0.08814879 0.057723597 0.05133593
-0.03847879 -0.016420424 0.06181361 0.016200477 -0.014428039 -0.05818232 -0.042119395 -0.039309043
-0.047966488 -0.050873812 -0.04836037 -0.03529894 0.0074304165 -0.04418476 0.03620504 0.070190504
-0.05268586 -0.007913145 0.06888131 -0.05088778 -0.03289872 0.018768802 0.06371266 0.0021606258
0.05412579 -0.008186733 -0.0642917 0.022994945 -0.05853875 0.0067084194 0.07116155 -0.014470926
-0.040097132 0.06333579 0.03759417 -0.08271314 -0.03684859 0.06560348 0.009033662 0.06524727
0.009830041 -0.0036209053 -0.067980744 0.011811884 -0.07417859 -0.049976416 -0.020162601 -0.07401398
0.07608934 0.006609501 0.051032413 -0.051615927 0.023079636 -0.026611337 0.069075726 0.08581167
-0.0054258322 -0.028467946 -0.020726817 -0.038282964 0.05621515 0.07226292 -0.0587854 0.0765596
0.026924364 0.04035875 0.034185916 -0.05080372 0.06637534 0.016296834 0.082441784 -0.05638924
-0.024411798 -0.032874104 0.02097697 -0.04446287 -0.014440539 0.022909164 -0.015732374 0.07972043
0.0629663 0.0824613 0.024656076 0.06473667 0.024751548 0.066842765 -0.012219736 -0.045543127
-0.006891095 -0.026501957 -0.046931133 0.07508813 0.068881355 0.026828647 0.01660889 -0.022031032
-0.043433387 -0.04907573 0.06626323 -0.060400575 0.066170916 -0.00113968 0.0014943853 -0.046549216
-0.077878915 -0.009200935 -0.032182515 -0.036505934 0.0002664495 -0.030488007 0.031072881 0.031473294
0.062153883 -0.039378785 0.06445854 -0.0783739 0.0189914 -0.08584191 -0.06498726 -0.07011758

dnn.4.bias f4 [256]
00000000: 0fa7 beb1 7601 553b b301 35bd 8343 7bbc
00000010: f5fe 11bc 6ec0 87b4 9d24 2cbd 05d3 97bc
00000020: 1603 99b2 7d1a 3fbd 95fc 7034 1a46 abbc
00000030: c639 13b3 a736 68b2 2979 263d 506f c23c
00000040: 3af9 0dbd 0994 4b33 b917 0bb3 fd88 f03c
00000050: e42e 223d 8361 30bd 72f6 8f34 caa3 a13b
00000060: 7a53 d9b3 9cb0 f03c 0640 693d 9458 3cbd
00000070: 4972 39bc d865 69bd eadf 3abd d563 7f3d
00000080: 7f9b 713d 8cdc 353c 808e b7b0 bcb3 d933
00000090: 69cc 083c 289e dfbc 8d2d 2dbd d86d 4fb8
000000a0: 0fa4 4ab3 fc1a a7bc cdce 9034 fb4c c73c
000000b0: 3f94 653c b522 813d a95b 1e3c dce2 1a3d
000000c0: 6b8c 783d ee14 423d baef ceb3 9e2e 7c3d
000000d0: f620 24bc 97a4 e533 f9ec 47bd 641e ef32
000000e0: e396 ac32 88d1 5a3d e636 5834 5fa6 27bd
000000f0: e2ea 09bd 1fed 84b2 01db 233c a603 063d
00000100: 374c 25bb 43e0 94bc 2daf f23c e0f3 33bc
00000110: 02b1 47ba 10ad 4834 7ee5 79b3 b499 73bd
00000120: 9c46 36bd 64ad 473d 58f1 423d 1376 993c
00000130: 59dd a8b1 6c71 0db4 fcb2 383d 1098 cfbc
00000140: a8f8 d9bc a2aa b93c 8be6 303d 6092 ba3c
00000150: fe29 8bb4 ba39 9d33 5121 c8bc b3eb 3c3d
00000160: d1b5 09b4 54ed 3cbd ffd9 2ebd cea9 313b
00000170: 15f4 223d 685a b23b 03a9 663d 00d9 6e3d
00000180: 441f 84bc ba3d 2a3d 6ce2 4ebc ed25 8ebc
00000190: b0c7 d93c e391 8233 f24a 16b4 e808 73bc
000001a0: 7963 f3ba 6be5 0f32 7c66 7631 1a18 05b2
000001b0: ee52 4b3c cc47 983b 9c36 5ebd 62c2 c5bc
000001c0: 6485 0db3 1c8b 453d 3466 30bd 8260 3bbd
000001d0: cd23 9e32 d636 003d 1610 01bd 2c06 3e33
000001e0: a529 1432 0ff4 17bd e6f2 80bd a7f7 35bd
000001f0: 5847 5bbc 5584 e33c c6c0 e6bc 1238 b7bc
00000200: 3045 c63b 50eb ca3c 0d35 c9bc 041e eb3c
00000210: 9868 ed3c a543 6d3d 20fa 953b a521 e93c
00000220: dde6 49bd 2534 2dbc 215f 5bbc dd88 b834
00000230: cffc f9bc ae72 ce3c 46b8 beb2 c33f 79bd
00000240: 273c 2ebd 3c5d 67bd a47a 0dbd 4a87 65bd
00000250: 7983 a03c 78b4 4b35 8954 e7bc 707c afb3
00000260: d61c 05bd d93b aa3c 31c0 4b3b bef1 41bd
00000270: d295 453d 2508 55b4 e9be d332 d81e 373d
00000280: ca2e 44bd a07e 2cbd 3f53 cfbc 169e c3bc
00000290: d6cd d6b3 3702 ac3c 24d8 6334 c853 70bd
000002a0: 4a92 55bd a07b bd32 0744 2e3d 96a7 05bd
000002b0: 2ca8 62bd 6f87 03bd 92f3 0fbd a266 deb4
000002c0: 5988 4532 aade 173d d092 313d dc7e 82bb
000002d0: 250b d6bc f85a 65bc b997 8cbc f12f 543d
000002e0: 6a4c 063d e4ec fb3a e24d 623d 52db d93c
000002f0: 1ad3 e333 d073 64b2 126a 2cb4 527b 6c34
00000300: 0246 2cba 7ab0 0d3d e2b3 3e3a 69d3 6ebc
00000310: d0e0 5cb4 83f3 8339 4f91 65b3 9e15 0b3d
00000320: 7eb0 82b9 3003 2abc a10f 23bd 19da 72bc
00000330: 0c6d 3e3d 1c2c 07bd f607 0e3d 1ea7 023d
00000340: b99d 45bd ba50 5e34 5a33 523d 562a c5b3
00000350: ad6d 5bbd 198c 1bbd 0e3e c6b3 d1b7 ec33
00000360: 9344 723b 3f54 463d 1eb6 873b f2da 7dbb
00000370: 3f2b 5dbd 300c b2bc 2a8f 1eb1 82b0 9a3c
00000380: 066e 763c 9250 4e3d f171 6d3c 4c00 603d
00000390: 5415 8531 734e 4d3d 744d 78b4 8849 3bbd
000003a0: acdf 5abd 8d97 4432 d938 77bd 4a1f c9b2
000003b0: d176 bc33 af81 eb3c e89d 613c ba45 9eb0
000003c0: 1c61 f43a 0c7e 5033 35c6 e034 5ed3 903b
000003d0: fcfd 4034 b443 71b4 aab3 713c a937 63bd
000003e0: 064a 023d 919f 9abc ae5c 86b4 c996 d4b3
000003f0: fc85 e232 8d5b 71bd 2fd4 c733 e887 823b
-5.54872e-09 0.0032502091 -0.044191074 -0.01533592 -0.008910884 -2.528572e-07 -0.042027105 -0.01853324
-1.7812948e-08 -0.04665612 2.244363e-07 -0.02090745 -3.427865e-08 -1.3516604e-08 0.04064289 0.023734719
-0.03466151 4.7399258e-08 -3.2385035e-08 0.029362196 0.0395955 -0.043061744 2.6815138e-07 0.0049328553
-1.0120034e-07 0.029381089 0.056945823 -0.045982912 -0.011318752 -0.05698189 -0.045623697 0.062351067
0.058986183 0.011099946 -1.3355503e-09 1.01375434e-07 0.008349516 -0.027297094 -0.04227977 -4.9454946e-05
-4.7181e-08 -0.02039861 2.6972558e-07 0.0243287 0.014012395 0.06305448 0.009665408 0.037814006
0.060680788 0.04738324 -9.6362285e-08 0.061567895 -0.010017624 1.0693582e-07 -0.04880998 2.7837082e-08
2.009205e-08 0.05342248 2.013654e-07 -0.04093015 -0.033671267 -1.5474653e-08 0.010000945 0.032718323
-0.002522243 -0.018173343 0.029624546 -0.010983437 -0.0007617624 1.8689411e-07 -5.8183552e-08 -0.059472755
-0.044500932 0.048749343 0.047593445 0.01873306 -4.914608e-09 -1.3172911e-07 0.045092568 -0.025341064
-0.026607826 0.022664372 0.043188613 0.022774875 -2.592132e-07 7.3213826e-08 -0.024429949 0.046123218
-1.2825264e-07 -0.04612477 -0.042688366 0.0027109268 0.039783556 0.005442906 0.056313526 0.058312416
-0.01612819 0.041562773 -0.012627225 -0.017352069 0.026584476 6.0801334e-08 -1.3997104e-07 -0.014833666
-0.0018569074 8.375859e-09 3.5855967e-09 -7.747099e-09 0.012409909 0.0046472307 -0.0542513 -0.02414054
-3.295044e-08 0.04822837 -0.04306622 -0.045746334 1.8409901e-08 0.031302296 -0.03150948 4.4243436e-08
8.624203e-09 -0.037097987 -0.06296329 -0.044425633 -0.013383709 0.027773062 -0.028168093 -0.022365604
0.0060507283 0.024770409 -0.02456143 0.028700836 0.028980538 0.05792584 0.0045769364 0.028458426
-0.049292434 -0.010571514 -0.01338938 3.4372252e-07 -0.030516056 0.025201168 -2.2202709e-08 -0.060851824
-0.042537834 -0.0564854 -0.034540787 -0.056037225 0.019593941 7.588601e-07 -0.028238552 -8.1717076e-08
-0.032498203 0.02078049 0.0031089897 -0.047349684 0.048238583 -1.9840134e-07 2.4650449e-08 0.04470715
-0.047896184 -0.042112947 -0.02530825 -0.023879092 -1.0002593e-07 0.02099715 2.1219654e-07 -0.05867365
-0.052141465 2.2058714e-08 0.042545345 -0.032630526 -0.055336162 -0.03211158 -0.035144396 -4.1425398e-07
1.1497911e-08 0.037077583 0.043352902 -0.003982408 -0.026128361 -0.013998739 -0.01716219 0.051803533
0.032787718 0.0019220379 0.055250056 0.026593838 1.06089104e-07 -1.3297679e-08 -1.6057336e-07 2.2024076e-07
-0.0006571711 0.03459213 0.00072747294 -0.014576771 -2.0570883e-07 0.00025167697 -5.3450375e-08 0.033956163
-0.0002492703 -0.0103767365 -0.039809827 -0.014822506 0.046490714 -0.03300105 0.03467556 0.031897657
-0.04824612 2.070473e-07 0.051318504 -9.181228e-08 -0.05357139 -0.037975404 -9.231381e-08 1.10230424e-07
0.0036967143 0.048420187 0.004141583 -0.0038735238 -0.05399632 -0.021734327 -2.3073405e-09 0.018882994
0.01504088 0.050369807 0.014492498 0.054687783 3.873234e-09 0.050123643 -2.3124977e-07 -0.04572442
-0.053435966 1.144316e-08 -0.06035695 -2.3413708e-08 8.776045e-08 0.028748361 0.013770558 -1.151583e-09
0.0018644664 4.8543413e-08 4.1867466e-07 0.004419728 1.7973792e-07 -2.2469504e-07 0.014752308 -0.055473004
0.031808876 -0.018874915 -2.5026878e-07 -9.899447e-08 2.6370792e-08 -0.0589252 9.3052556e-08 0.0039834864

dnn.5.weight f4 [256]
00000000: 4996 7b3f 93d0 803f 3279 7c3f fd7e 7c3f
00000010: 267f 7c3f 36f9 803f 01de 803f cff5 7c3f
00000020: 4100 7b3f f960 7a3f 7ce0 7c3f 9d06 813f
00000030: 3fd7 7c3f aff4 803f 2ffe 803f 270b 7c3f
00000040: 3b09 7d3f e75b 7c3f 3b68 803f 15d9 803f
00000050: 55cb 7c3f 20c3 7c3f a4f6 803f b985 7c3f
00000060: 4a27 813f 7fef 7c3f 6011 7d3f 7897 7e3f
00000070: a3d7 7c3f 4dfc 803f bbf3 803f 397c 803f
00000080: 07fc 803f 1deb 803f 6bc8 7c3f 1dfb 803f
00000090: 7be7 7c3f bf0f 813f 0ae8 803f 92e1 7f3f
000000a0: 16d3 803f a996 7c3f 65a6 7c3f ed0e 7d3f
000000b0: 365e 7c3f 990a 813f 80e3 803f 8ec0 7c3f
000000c0: b874 7b3f 1921 7e3f 8596 803f 2394 7c3f
000000d0: c72d 7c3f 0ac0 803f 811b 803f 19d2 7c3f
000000e0: 6f8d 7c3f c985 7a3f d4eb 803f eef8 803f
000000f0: 8888 7c3f 986b 7c3f 47d3 803f bae5 803f
00000100: 3bc0 7c3f 27db 7c3f 7cfd 803f 3fa3 7c3f
00000110: dd6a 803f c9b4 803f 07e5 803f a1ca 803f
00000120: b70c 813f b6eb 803f 0e70 7a3f f5e3 803f
00000130: 31e0 7a3f 17e8 803f 1088 803f 9bf9 803f
00000140: fffc 803f c7e3 7c3f e2fb 803f c90a 813f
00000150: d114 813f 61f4 803f 6cba 803f e8e5 7c3f
00000160: a6d4 7c3f bbca 803f 064a 7a3f a978 803f
00000170: 8760 7c3f 0860 7a3f 4eb5 803f 94fb 803f
00000180: 1108 7d3f 8375 7a3f baf0 803f 09be 7c3f
00000190: 42fa 803f 45a8 803f 9be9 7c3f b5ac 7b3f
000001a0: 8ecf 7b3f 01ef 7c3f 250e 7b3f ef48 7a3f
000001b0: f7f0 803f 2ac9 7c3f e270 7c3f 2ff1 7c3f
000001c0: 82c9 7c3f e710 813f 1cd2 803f aff6 7b3f
000001d0: 1a22 7b3f 8c04 813f a9b5 7c3f d7d0 7c3f
000001e0: 4378 7a3f 7e01 813f bfb1 803f 300b 7d3f
000001f0: 46f0 7d3f 5bec 7b3f e9af 803f dbda 803f
00000200: ee04 7c3f 03cb 7e3f bcde 7c3f a6fe 7c3f
00000210: 2a2a 7d3f 433d 7c3f 45c7 7c3f 1aa7 7c3f
00000220: 4b6c 7a3f 19ef 803f 92f8 7c3f 4ef3 803f
00000230: 5a02 813f 91f2 7c3f 2dfd 803f bfd6 7c3f
00000240: 4677 7c3f bcf1 803f bd1a 803f 8efd 7c3f
00000250: 5c01 813f 9802 813f e9ba 803f 7dcb 803f
00000260: 669f 803f a6e5 803f adc7 803f 6efb 803f
00000270: b284 7c3f 7002 7d3f 07c1 7c3f af0a 813f
00000280: 03af 803f 87f4 7c3f 76f1 803f 87de 803f
00000290: f8b1 803f abbf 7c3f a21a 813f 5597 803f
000002a0: 8bba 7b3f 64e6 7c3f 3fd6 803f cec8 7c3f
000002b0: 1cd9 803f 47fa 803f 7601 813f 7a09 813f
000002c0: 7230 7a3f 10e3 7c3f aae4 7c3f 6dc7 803f
000002d0: 152a 7c3f aa5c 7c3f b9e4 803f 55ba 803f
000002e0: 484d 803f 85ac 7c3f 3eb8 7c3f cefe 803f
000002f0: bf9c 7c3f 31ab 7b3f fbeb 803f 75f3 803f
00000300: a833 7c3f 8edd 7c3f 9f0e 813f b530 803f
00000310: e7bc 7c3f 3e4a 7b3f 65b3 7c3f 79d4 7c3f
00000320: dbf6 803f 9a56 7a3f 459f 7a3f 2304 7d3f
00000330: 5ec1 7b3f f0ef 803f 7c7e 7c3f 67d7 7c3f
00000340: 9abb 7c3f 70e5 7c3f 44e0 7c3f 23d9 803f
00000350: 45de 803f 41b5 7c3f d902 813f 1749 7c3f
00000360: b0f2 7a3f e20d 7c3f bdb4 7d3f abd8 7c3f
00000370: 5d99 803f 1bd3 7c3f e643 7a3f 032f 7f3f
00000380: fbf6 803f 298d 7c3f 08d8 7c3f 80e6 803f
00000390: a6a2 7c3f 5a25 813f adfc 803f 74b0 7c3f
000003a0: 8410 7c3f 435f 7c3f 1db3 803f d3d9 7b3f
000003b0: d342 7c3f bba3 803f f4d6 7a3f 5345 7a3f
000003c0: c75a 803f 6047 7a3f b014 813f b0e2 7c3f
000003d0: d3dc 803f ffca 7c3f 8bc6 7c3f 18d4 7c3f
000003e0: 62e2 7c3f 28cb 7c3f 8df6 803f 7cec 7b3f
000003f0: ca53 7e3f ed72 803f b3e0 7c3f bc10 813f
0.9827619 1.0063652 0.9862243 0.9863127 0.98631513 1.0076053 1.006775 0.98812574
0.9804726 0.9780422 0.98780036 1.0080143 0.9876594 1.0074672 1.0077571 0.9845452
0.9884221 0.9857773 1.0031809 1.0066248 0.9874776 0.9873524 1.0075269 0.98641545
1.0090115 0.9880294 0.9885464 0.9944987 0.98766536 1.0076996 1.0074381 1.003791
1.0076913 1.0071751 0.98743314 1.0076634 0.9879071 1.008293 1.0070813 0.9995357
1.0064418 0.9866739 0.986914 0.988509 0.98581254 1.0081359 1.0069427 0.98731315
0.98224974 0.99269253 1.0045935 0.9866354 0.9850735 1.0058606 1.0008394 0.98758084
0.9865331 0.9786039 1.0071969 1.0075967 0.9864583 0.98601675 1.0064477 1.0070107
0.9873082 0.987719 1.0077357 0.98686594 1.0032612 1.0055171 1.0069894 1.0061837
1.0082005 1.0071933 0.9782723 1.0069567 0.9799834 1.0070828 1.0041523 1.0076174
1.0077208 0.9878506 1.0076869 1.0081416 1.0084478 1.0074579 1.0056891 0.9878831
0.98761976 1.0061868 0.977692 1.0036823 0.9858479 0.9780278 1.005533 1.0076776
0.98840433 0.9783556 1.0073464 0.9872747 1.0076373 1.0051352 0.98793954 0.98310405
0.9836358 0.9880219 0.9806846 0.9776754 1.0073537 0.9874445 0.98609746 0.98805517
0.98744977 1.0083283 1.006412 0.98423284 0.9809891 1.0079513 0.9871469 0.98756164
0.97839755 1.007858 1.0054244 0.98845196 0.99194753 0.98407525 1.0053684 1.0066789
0.9844502 0.9952852 0.98777366 0.9882606 0.9889246 0.9853098 0.9874156 0.98692477
0.9782149 1.0072967 0.9881679 1.0074251 1.0078843 0.98807627 1.0077263 0.98765177
0.98619497 1.0073771 1.000816 0.98824394 1.007854 1.0078917 1.005704 1.00621
1.0048645 1.0070083 1.0060936 1.007673 0.98639977 0.98831844 0.98732036 1.0081385
1.0053409 0.9881062 1.0073688 1.006791 1.0054312 0.9872996 1.0086253 1.0046183
0.98331517 0.9878905 1.0065383 0.98743904 1.0066257 1.0076379 1.0078571 1.0081017
0.9773017 0.9878397 0.98786414 1.006086 0.9850171 0.98578894 1.0069801 1.0056864
1.0023584 0.98700744 0.9871863 1.007776 0.98676676 0.9830809 1.0072016 1.0074297
0.9851632 0.98775566 1.0082587 1.0014864 0.9872574 0.9816016 0.98711234 0.9876171
1.0075334 0.97788393 0.97899276 0.9883444 0.9834193 1.0073223 0.986305 0.9876618
0.9872376 0.98787594 0.987797 1.0066265 1.0067831 0.9871407 1.0078994 0.98549026
0.9802656 0.98458683 0.9910391 0.9876811 1.0046803 0.9875962 0.97759855 0.9968111
1.0075372 0.98652893 0.9876714 1.0070343 0.9868568 1.0089524 1.007711 0.98706746
0.984627 0.9858286 1.0054661 0.9837925 0.98539466 1.0049967 0.9798424 0.9776203
1.0027703 0.9776516 1.0084438 0.987834 1.006739 0.9874725 0.9874045 0.9876113
0.9878293 0.9874749 1.0075241 0.9840772 0.993466 1.0035073 0.98780364 1.0083232

dnn.5.bias f4 [256]
00000000: 8809 033b 3bda 363c 9197 4bbc b08a 3bbc
00000010: 003e 43bc b6f9 3f3c 9e6a 393c b537 41bc
00000020: eae3 83ba 6fa9 20bc 14a9 3abc edd5 433c
00000030: e669 3fbc 96e7 423c a556 3e3c 827f 3bbc
00000040: a167 36bc 3801 3fbc e56f 363c 4771 343c
00000050: 887a 40bc 8435 47bc c560 3b3c 9916 42bc
00000060: cb7c 473c 4909 41bc 0b62 35bc 0faa 3e3c
00000070: be9e 3fbc 0f0c 413c 1bc4 403c 0910 433c
00000080: 5e7d 3e3c 028b 323c cebd 37bc 9554 373c
00000090: 1fc9 44bc 5aa5 423c 8117 3a3c 534d 413c
000000a0: 812c 3c3c 171d 44bc 7a7c 49bc 24bd 38bc
000000b0: 4cac 3bbc 34cd 4a3c 992b 313c b199 40bc
000000c0: a14d e93a 2a70 1a3c 60bc 403c d020 41bc
000000d0: 3a5d 49bc d52f 303c 174f 403c 26fa 34bc
000000e0: 2b8d 853b cc4a 36bb b5ec 393c 820a 3f3c
000000f0: c392 4abc c044 44bc d3fb 2e3c aee3 373c
00000100: 3e37 49bc 77a0 39bc 6fb2 433c 4445 4abc
00000110: 9fba 453c 2a9a 4b3c 1fa0 363c 7523 303c
00000120: 3a35 403c 7953 363c d407 36bb f32a 393c
00000130: 8544 3cbc d5be 363c 143c 3f3c 53bd 3c3c
00000140: e44c 3b3c 4044 3abc 69cd 423c 4e4b 433c
00000150: b3bc 3e3c e935 463c f7af 343c ae57 39bc
00000160: 3efa 44bc 522f 393c ff0f 06bc 1456 3b3c
00000170: 78ad 49bc 834d 99bb 9631 3a3c 622d 3b3c
00000180: 6876 37bc c098 51bb b032 373c da00 41bc
00000190: e482 413c b833 403c 2f9f 41bc 357c 44bc
000001a0: b2ce 48bc 8656 38bc 33f3 34bc 92a5 e5bb
000001b0: 53ba 393c d2b3 3ebc 0ea6 47bc 8c17 3bbc
000001c0: fac4 44bc 200d 3e3c 7ba7 3a3c 0f94 3bbc
000001d0: 18db 46bc ff80 423c 120b 3fbc 2165 3cbc
000001e0: 0970 21bc d36c 403c 8536 3f3c 5923 32bc
000001f0: 5517 1f3c 6c3a 4cbc 7e9e 3a3c 13ac 3a3c
00000200: 3df9 44bc 582f 3a3c 3453 42bc 84c1 2ebc
00000210: 061d 38bc ddc8 45bc 5fee 40bc 1f2d 3cbc
00000220: 311d 55bb cb38 333c ba0a 39bc d434 363c
00000230: 73e9 393c 72bf 41bc f6b0 393c 6604 40bc
00000240: e229 a93b 0b0e 3a3c 63e1 403c 9c8c 39bc
00000250: a449 3f3c a1ad 373c 6e22 413c 131a 2d3c
00000260: ccf8 303c 96a4 413c 5883 403c e813 413c
00000270: 374e 41bc ca2c 3bbc 5c83 3cbc 4a8a 403c
00000280: 5e0a 3c3c 6f82 42bc 9298 353c 289f 413c
00000290: 3797 433c 53e8 3fbc 4e28 473c a89c 453c
000002a0: 56d8 33bc 6665 3abc 3cef 303c 2d3c 3bbc
000002b0: 5a68 3f3c 73af 3a3c 9695 3c3c fe54 433c
000002c0: ed99 bcbb f761 3bbc 149e 3dbc 3692 383c
000002d0: 827a 7e3b 6bce b13b ef5d 343c 86d5 3a3c
000002e0: 2865 453c 8150 44bc 1631 45bc baca 3f3c
000002f0: 3238 45bc 23e7 35bc a328 383c 17d4 423c
00000300: 75cd 37bc bbc3 39bc 697a 413c 58e9 3d3c
00000310: 3ee1 46bc a656 40bc 849b 4cbc 73e3 43bc
00000320: 2b4d 3a3c 4fc4 15bc 3a05 35bc 4ef7 3cbc
00000330: 87b1 30bc da90 373c 902a 40bc 231d 38bc
00000340: 58c6 40bc 5043 3dbc 948f 3bbc 5f36 333c
00000350: e85c 3f3c 6059 3bbc 5c6a 443c e828 43bc
00000360: f232 10ba 1fd8 3ebc 5624 143c 106e 3abc
00000370: 428b 393c 577f 41bc b53b ecbb 3db6 363c
00000380: c7e0 3c3c 4077 3fbc 93f3 38bc 6b41 3e3c
00000390: 82d5 46bc 03d7 483c 55db 423c 9b1e 47bc
000003a0: f9d0 42bc c20b 38bc 5bc1 453c 7913 34bc
000003b0: 532d 43bc 16e2 403c 87b3 37bc 0b7a d8bb
000003c0: bc1a 453c 7baf a9bb 5471 453c 4428 43bc
000003d0: ea12 2f3c 8316 48bc 35dd 3bbc 3760 42bc
000003e0: 86bf 3dbc 4a95 43bc 67bd 363c a18a 3cbc
000003f0: 816d 313c 4e1a 373c 364b 40bc 7af1 413c
0.0019994695 0.011160429 -0.012426273 -0.01144664 -0.011916637 0.011717251 0.011316923 -0.011793067
-0.001006243 -0.009806021 -0.01139285 0.011952859 -0.011682963 0.011896035 0.011617337 -0.011443974
-0.0111331055 -0.011658005 0.011135076 0.011013336 -0.011747964 -0.012158755 0.011436646 -0.011846208
0.012175749 -0.011781999 -0.011070739 0.011637225 -0.011695562 0.01178266 0.011765505 0.011905679
0.01162657 0.0108974 -0.011214687 0.0111895995 -0.012010842 0.011880243 0.011358143 0.011798221
0.01148522 -0.011969826 -0.012297744 -0.011275563 -0.011454653 0.012378026 0.010813617 -0.011755393
0.0017799624 0.009426156 0.011763662 -0.011787608 -0.012290293 0.010753592 0.0117376065 -0.011045968
0.0040756664 -0.0027815579 0.011347939 0.01166022 -0.012364092 -0.011979282 0.010680157 0.011223717
-0.012281237 -0.011329762 0.011944397 -0.012345616 0.01206842 0.012426892 0.011146574 0.010750641
0.01173144 0.0111283 -0.0027775662 0.011301744 -0.011490946 0.011153896 0.011672039 0.011519748
0.011431906 -0.011368811 0.011889794 0.0119198095 0.011641669 0.012097814 0.011028281 -0.011312408
-0.012022553 0.011302786 -0.008182525 0.011434097 -0.012309425 -0.0046784296 0.011364361 0.011424394
-0.011197664 -0.0031981915 0.011181518 -0.011779988 0.011810992 0.011731081 -0.0118177375 -0.011992504
-0.012256311 -0.011251098 -0.011044311 -0.007008263 0.011335927 -0.011639552 -0.012185587 -0.011419188
-0.0120098535 0.011599809 0.0113924695 -0.011448874 -0.012137197 0.011871575 -0.011660354 -0.01149872
-0.009853371 0.011744696 0.011670713 -0.010872685 0.009710153 -0.012465101 0.011390327 0.011393565
-0.012022314 0.011363827 -0.0118606575 -0.010666255 -0.0112373885 -0.012071815 -0.011775582 -0.011485367
-0.003251862 0.0109388335 -0.011294061 0.011120994 0.011347163 -0.011825429 0.011333695 -0.011719799
0.0051624635 0.011355887 0.011772486 -0.011325028 0.011675272 0.01121083 0.011787994 0.010565299
0.010801505 0.0118190255 0.011750065 0.011784531 -0.011798433 -0.011424253 -0.011505928 0.011751721
0.011477081 -0.011871918 0.011083739 0.011817731 0.011937908 -0.011713105 0.0121556055 0.012061276
-0.0109768715 -0.011376714 0.010799225 -0.011427921 0.011682594 0.011394369 0.011510273 0.011922119
-0.005755654 -0.011436931 -0.011573333 0.011265328 0.0038830345 0.0054262183 0.011008724 0.011403447
0.012048043 -0.011982084 -0.012035629 0.011706049 -0.012037324 -0.011102471 0.011240157 0.0118913865
-0.011218418 -0.01133817 0.01180897 0.011591278 -0.012138663 -0.011739409 -0.01248825 -0.011956084
0.011370937 -0.009141042 -0.011048609 -0.011533571 -0.010784513 0.011203969 -0.011728898 -0.0112374155
-0.011766039 -0.011551693 -0.011447806 0.010938256 0.011679865 -0.011434883 0.011988249 -0.011911608
-0.00055007555 -0.011648207 0.009041866 -0.01137878 0.011324706 -0.011810145 -0.007209266 0.011151847
0.0115282005 -0.011686146 -0.011288541 0.011612277 -0.012135865 0.012258294 0.011893113 -0.012153293
-0.011890643 -0.011233272 0.012070025 -0.010990971 -0.011912662 0.011772653 -0.011212236 -0.0066063455
0.0120303 -0.0051783896 0.012050945 -0.011911456 0.010685662 -0.012212398 -0.011466314 -0.01186376
-0.011581307 -0.011937449 0.0111535555 -0.011507661 0.01082933 0.011175705 -0.011736682 0.011837358
