TPnet/models/DNNs/PrevGraphs/VanillaRNN-15_10-10_45.pth (torch, 431549 bytes, 513 tensors)

fc.weight f4 [1, 16]
0	0xbdcc9881	-0.09990025
1	0xbe425cfe	-0.18980786
2	0xbdc14dba	-0.09438653
3	0x3e337ad4	0.17527324
4	0x3e43c688	0.19118702
5	0x3e0880fc	0.13330454
6	0x3d663979	0.056207154
7	0x3c83c886	0.016086828
8	0xbe0ad589	-0.1355802
9	0x3c8d2475	0.017229298
10	0xbd4c3842	-0.04985834
11	0xbd0619af	-0.032739338
12	0x3d93487d	0.071915604
13	0x3e308dd2	0.172416
14	0x3db3c09d	0.087769724
15	0xbe0237d6	-0.12716612

rnn.weight_ih_l0 f4 [16, 86]
0	0xb9c8ac6d	-0.0003827544
1	0x82952b14	-2.1918308e-37
2	0x36134e2b	2.1950207e-06
3	0x028934c2	2.0160622e-37
4	0x38a7634a	7.9816746e-05
5	0xbb66318c	-0.0035124747
6	0xb3e9f057	-1.08936256e-07
7	0xb80465d8	-3.1566102e-05
8	0x3ab5ae07	0.0013861068
9	0xbb3f804c	-0.0029220758
10	0x32b430da	2.0976973e-08
11	0xab90b61e	-1.0282363e-12
12	0x2783c373	3.657171e-15
13	0xb78fff0e	-1.7165697e-05
14	0x30d99189	1.5830192e-09
15	0x34546eed	1.9784393e-07
16	0x03570722	6.319101e-37
17	0x39dd3c39	0.00042197274
18	0xbaf0c9cf	-0.001837069
19	0xb045d9bd	-7.1977607e-10
20	0x03211c58	4.7346185e-37
21	0xb95da4a1	-0.00021137531
22	0xb420e296	-1.4983593e-07
23	0x2a313471	1.5738952e-13
24	0xb818474a	-3.6306017e-05
25	0xb900826d	-0.00012255619
26	0x2cc15e32	5.4958477e-12
27	0x830fa4d8	-4.2213154e-37
28	0x30b45c4e	1.3122958e-09
29	0x3b15638a	0.0022794926
30	0xbb6cae67	-0.0036114694
31	0xb803ae53	-3.1395186e-05
32	0x3860dac8	5.3609518e-05
33	0xbb232758	-0.0024895277
34	0x3813d0de	3.5242054e-05
35	0xbabe7173	-0.001452966
36	0x83338100	-5.2751457e-37
37	0x2ea0fa26	7.320393e-11
38	0x029ed758	2.3339615e-37
39	0x2b9c6466	1.1112333e-12
40	0x3696e835	4.497381e-06
41	0x0317bc40	4.459101e-37
42	0xb30769c0	-3.1528316e-08
43	0x1465f72f	1.1610294e-26
44	0x032ef8d0	5.1419627e-37
45	0x1977dd82	1.2814334e-23
46	0xb7a303ac	-1.9432824e-05
47	0x3a3d0fda	0.000721214
48	0xbb6bcf08	-0.0035981555
49	0x9403946a	-6.643079e-27
50	0x2f80c626	2.3423857e-10
51	0xaaa3731b	-2.9034487e-13
52	0xbb7e31f4	-0.0038787099
53	0x034f72b4	6.0963505e-37
54	0x399053a3	0.00027528135
55	0x2ea44b98	7.471285e-11
56	0xb79f191f	-1.8965975e-05
57	0xb66a40bc	-3.4906398e-06
58	0xa9f05a1c	-1.06737725e-13
59	0x369b3bf6	4.6263403e-06
60	0xa3a6322e	-1.8019008e-17
61	0x3a4fa01b	0.0007920281
62	0x83060631	-3.938617e-37
63	0x3600ccdd	1.9192732e-06
64	0xbae1436d	-0.0017186232
65	0x3371a97a	5.6266323e-08
66	0x35979b55	1.1295584e-06
67	0x82131902	-1.0807031e-37
68	0x095e4f9f	2.6759716e-33
69	0x3b2b0225	0.0026093808
70	0xb9d8dcf1	-0.00041363345
71	0x3609c993	2.0531922e-06
72	0xac6c5291	-3.358345e-12
73	0xb7283108	-1.0024996e-05
74	0xb89a129a	-7.346757e-05
75	0x3a8d451c	0.0010778042
76	0xb981e807	-0.0002477767
77	0xb9b734a8	-0.00034943712
78	0x82243d33	-1.206638e-37
79	0xb3c6f871	-9.265285e-08
80	0x32865836	1.5639767e-08
81	0xb7586b92	-1.2899649e-05
82	0x373e23ba	1.1333201e-05
83	0xb8c065c5	-9.1742295e-05
84	0x3b0213fd	0.001984834
85	0x36efb4d6	7.143807e-06
86	0xb90875c4	-0.00013013842
87	0xad996f80	-1.7443602e-11
88	0x360072de	1.9140348e-06
89	0xbb93cc08	-0.0045104064
90	0xba4aa2ca	-0.0007729946
91	0xb9970063	-0.00028801252
92	0xbb255f7e	-0.002523392
93	0x3006656a	4.8893034e-10
94	0x399f3276	0.0003036444
95	0x39f64799	0.0004697412
96	0xaf1b308c	-1.4114415e-10
97	0xb87d535d	-6.039754e-05
98	0xb6053173	-1.9847328e-06
99	0xb9caf82f	-0.00038713354
100	0x8304aae8	-3.8987504e-37
101	0x3b694710	0.0035595335
102	0x02823ca1	1.9136582e-37
103	0xa8d89257	-2.4044282e-14
104	0x834b9498	-5.9826916e-37
105	0xb1d2e129	-6.137402e-09
106	0xb8ec99a8	-0.00011281978
107	0xa933e266	-3.9942354e-14
108	0xb8352a22	-4.3193002e-05
109	0x82702634	-1.7643379e-37
110	0x031efa2c	4.671921e-37
111	0x304326db	7.0995804e-10
112	0x0eeff9fd	5.915878e-30
113	0xa4883af6	-5.908048e-17
114	0xb7d3f2fa	-2.5266305e-05
115	0x3b5f7275	0.0034095321
116	0x38b531f7	8.640059e-05
117	0xb909573e	-0.00013097838
118	0x33957237	6.959129e-08
119	0xb7de6252	-2.6510246e-05
120	0x032a16e7	4.99848e-37
121	0xbb179230	-0.0023127906
122	0x398b9d5d	0.0002662939
123	0x90017406	-2.5530145e-29
124	0x3989bc96	0.00026271184
125	0xb9217ad4	-0.00015399914
126	0xb5a97cff	-1.262786e-06
127	0xb14eba51	-3.0082854e-09
128	0xba8b99b0	-0.0010650661
129	0x3087b9f4	9.875394e-10
130	0x3670aef7	3.586463e-06
131	0x35b0106a	1.3117799e-06
132	0xb00ef406	-5.2006077e-10
133	0x1fa98cd3	7.180726e-20
134	0x141bb44a	7.861056e-27
135	0xaec5c111	-8.992818e-11
136	0x34f2a255	4.5194125e-07
137	0x9bbd622c	-3.133087e-22
138	0xa4e1f532	-9.799357e-17
139	0xa0fb528d	-4.2575681e-19
140	0xbab576c3	-0.0013844598
141	0x0323bdc4	4.8119235e-37
142	0x9d4af9bf	-2.6863593e-21
143	0xba4fbdb8	-0.00079246936
144	0x0328601a	4.948108e-37
145	0x024a4354	1.4859938e-37
146	0x251aaba5	1.3415526e-16
147	0x2d76b7d9	1.4024303e-11
148	0x9a177100	-3.131735e-23
149	0x1800a6ae	1.6627764e-24
150	0x8316d645	-4.4327008e-37
151	0x1db08c44	4.6731843e-21
152	0x830b2a1b	-4.0896763e-37
153	0xba5f168a	-0.00085101335
154	0x389fe85d	7.624992e-05
155	0x242851dd	3.6498534e-17
156	0x8340a823	-5.661674e-37
157	0xbab63fec	-0.0013904548
158	0xba1a33cd	-0.00058823527
159	0x0359721c	6.390156e-37
160	0xb99cea58	-0.00029929238
161	0xbae52712	-0.0017482957
162	0x0335e508	5.3454034e-37
163	0xb7a48f3a	-1.9617019e-05
164	0x3607c28e	2.0229813e-06
165	0xb876661d	-5.874607e-05
166	0xb63b24c6	-2.7886576e-06
167	0x9ed43f5c	-2.2472578e-20
168	0xb642583c	-2.8959612e-06
169	0x290ccafe	3.1262312e-14
170	0x38a3e953	7.815906e-05
171	0x36c8c132	5.9829554e-06
172	0xb7023289	-7.76037e-06
173	0x3810124d	3.434932e-05
174	0x37b83023	2.1956925e-05
175	0xbb5e63c5	-0.003393398
176	0x32da0023	2.5378602e-08
177	0x9797c300	-9.807371e-25
178	0x32d3f314	2.4674172e-08
179	0x37ae60d1	2.07875e-05
180	0x39dc5b8c	0.00042029878
181	0x39d925d7	0.00041417658
182	0xbb871f79	-0.004123625
183	0xafd6f5fb	-3.9101153e-10
184	0x2106fabf	4.5732826e-19
185	0xb3638cd7	-5.298065e-08
186	0xb6f7db98	-7.3867377e-06
187	0x344d6fcc	1.9132784e-07
188	0xaaaaacf6	-3.0318082e-13
189	0x37067847	8.015027e-06
190	0x3a86ffbb	0.0010299602
191	0x3b807f09	0.003921394
192	0x82fa3174	-3.6762583e-37
193	0xba8067fa	-0.0009796612
194	0x0867c90b	6.975036e-34
195	0xb65ebf09	-3.3191775e-06
196	0x032813d6	4.9393533e-37
197	0xb7d808a2	-2.5753227e-05
198	0x3ac7f934	0.0015256763
199	0xb571dd4d	-9.010153e-07
200	0x3aa1c13a	0.0012340911
201	0x032302a8	4.7904444e-37
202	0x38c3c4d6	9.334988e-05
203	0x83b8a610	-1.0852674e-36
204	0x3b0c9045	0.0021448296
205	0x32137e12	8.585191e-09
206	0xbb761620	-0.0037549809
207	0x39f12a4d	0.0004599862
208	0xb95961ba	-0.00020731139
209	0x3b98245d	0.0046430067
210	0xb77fe0b2	-1.52515e-05
211	0xb4a5001c	-3.0733725e-07
212	0xb483d018	-2.455206e-07
213	0x0393070f	8.641504e-37
214	0x30ec7acc	1.7206161e-09
215	0xb44ed683	-1.9263284e-07
216	0x03b8a3f2	1.0852188e-36
217	0x23011bde	6.999005e-18
218	0x349c01a4	2.9058458e-07
219	0x0b478d7e	3.8432453e-32
220	0xbb90aa6a	-0.004414846
221	0x395b2efe	0.00020902973
222	0x82b69bd8	-2.6831946e-37
223	0x83041658	-3.8816963e-37
224	0x1fde5ac1	9.41708e-20
225	0x9fa698cb	-7.055651e-20
226	0x02c3ec86	2.8788433e-37
227	0x26bb711d	1.3006391e-15
228	0x8314b2c0	-4.3698486e-37
229	0x3793ae64	1.7604973e-05
230	0xb6c4ecea	-5.8688356e-06
231	0x1aab35af	7.081067e-23
232	0xa122c262	-5.5145e-19
233	0x033c80df	5.539617e-37
234	0x2504cc4e	1.1518396e-16
235	0x332c3c76	4.010186e-08
236	0x2eb07c65	8.02565e-11
237	0x38807141	6.124611e-05
238	0x2e6a5485	5.328051e-11
239	0xb712bbfb	-8.746046e-06
240	0x38d651c1	0.00010219543
241	0xbb1f767e	-0.0024332101
242	0x03c54ff5	1.1596977e-36
243	0x379c296c	1.8615938e-05
244	0x2ff214e3	4.4034384e-10
245	0x2b39018b	6.5727344e-13
246	0xbae30e78	-0.0017323038
247	0xa608d01f	-4.7466535e-16
248	0x1308790f	1.72253e-27
249	0x9d96dd2d	-3.993336e-21
250	0xb69f2b5a	-4.743616e-06
251	0x3b0a0b3f	0.0021063832
252	0xb99b352c	-0.0002960352
253	0xb94499ce	-0.00018749313
254	0x3a660c6f	0.00087756565
255	0x0341035d	5.6721463e-37

rnn.weight_hh_l0 f4 [16, 16]
0	0x374b927c	1.2133849e-05
1	0xb68b3f3d	-4.1498847e-06
2	0x399f5c14	0.00030395447
3	0xb1c6e4f3	-5.788587e-09
4	0xa8983bf3	-1.6901389e-14
5	0xb7fa28d3	-2.9821333e-05
6	0x8317aca2	-4.4573084e-37
7	0xb1bda8bb	-5.5198064e-09
8	0xaddd2df7	-2.5145204e-11
9	0x358077cb	9.571608e-07
10	0x35648e71	8.51439e-07
11	0xba07b9d9	-0.0005177535
12	0x3ac383ba	0.0014916577
13	0x2faad972	3.1077324e-10
14	0xb52b55c2	-6.382726e-07
15	0xb5e04efa	-1.6712286e-06
16	0xb7ceb732	-2.464242e-05
17	0xb1298071	-2.4665747e-09
18	0xb91a2992	-0.0001470207
19	0x148a1d47	1.3945987e-26
20	0xb873a963	-5.809347e-05
21	0x370506f9	7.929041e-06
22	0x361c4bec	2.3290004e-06
23	0x27f60a31	6.8289766e-15
24	0xb889b4de	-6.566358e-05
25	0xba975183	-0.0011544678
26	0x03811bae	7.5882935e-37
27	0x33a2fc2d	7.5895834e-08
28	0x38dae249	0.00010437199
29	0x375e9a28	1.3268123e-05
30	0x3918f466	0.00014586895
31	0x8339a5dc	-5.455701e-37
32	0xbb28318a	-0.0025664293
33	0xbad7b165	-0.0016456066
34	0xbb943806	-0.00452328
35	0x39833297	0.0002502396
36	0x31a78a92	4.8760933e-09
37	0x918cc151	-2.2207246e-28
38	0x038180bc	7.6114945e-37
39	0x355974e0	8.1008875e-07
40	0x3ae16555	0.0017196337
41	0xa75cdf5d	-3.0652219e-15
42	0x033bc903	5.518511e-37
43	0x930a0db1	-1.74248e-27
44	0x8d815bb0	-7.972312e-31
45	0x3648d60f	2.992692e-06
46	0x36a5de3d	4.943255e-06
47	0xb386c3e9	-6.275497e-08
48	0xaa8ab688	-2.464038e-13
49	0x83653ee2	-6.7369238e-37
50	0xa74089ab	-2.6719983e-15
51	0x3b161af1	0.0022904242
52	0xb303d0a3	-3.069057e-08
53	0x365e9446	3.3166884e-06
54	0x10965625	5.9297295e-29
55	0x223df678	2.5744756e-18
56	0xab08c38d	-4.8588287e-13
57	0x24037492	2.8504836e-17
58	0x3b2e1e4c	0.0026568351
59	0x3291dd99	1.6980993e-08
60	0xb6968bef	-4.4866388e-06
61	0xb3269a70	-3.8790347e-08
62	0x34c0d588	3.591815e-07
63	0xb7ad7e14	-2.0681917e-05
64	0x387c773b	6.0192524e-05
65	0xbb7b79db	-0.0038372192
66	0x39244e14	0.00015669345
67	0xbad8f45b	-0.0016552316
68	0xb1971073	-4.3965485e-09
69	0x3ac3f566	0.0014950454
70	0xbb608c5a	-0.0034263344
71	0x2c8b4b63	3.9589872e-12
72	0x36c4df3a	5.867242e-06
73	0xaea096c9	-7.3027424e-11
74	0x3b95c41e	0.004570498
75	0x1e90e806	1.5342556e-20
76	0x1f83f5e0	5.5887424e-20
77	0xbb15e5f8	-0.0022872668
78	0x39f6bf5a	0.00047063344
79	0x2f4f0b12	1.8830473e-10
80	0x3a165a98	0.00057355454
81	0x365560fb	3.1795923e-06
82	0x18cfc20d	5.3704187e-24
83	0x33ff7eb8	1.1897413e-07
84	0x3a84e33a	0.001013852
85	0xb1bb2649	-5.446769e-09
86	0x9c19cb8e	-5.088654e-22
87	0xafcf996d	-3.7762096e-10
88	0xbb80aed4	-0.003927091
89	0x021de71e	1.1600866e-37
90	0x321e5adc	9.2174695e-09
91	0xb95a5833	-0.00020822957
92	0x93dba606	-5.5447084e-27
93	0x3b005c22	0.0019586165
94	0x32928174	1.7055505e-08
95	0x394e7cd3	0.00019692192
96	0x35570a64	8.010886e-07
97	0x2fd585f3	3.883965e-10
98	0x3ab6bfde	0.0013942679
99	0xb9adc17f	-0.00033141297
100	0x2cb70d6f	5.2026643e-12
101	0x13f027eb	6.062388e-27
102	0xb9e2dc83	-0.00043270373
103	0x0325aac6	4.868518e-37
104	0xae5659cb	-4.873772e-11
105	0x2a7e974f	2.2612228e-13
106	0x03484a29	5.885985e-37
107	0xb972f4b1	-0.00023170073
108	0xb996dd67	-0.00028775187
109	0xb97ee24b	-0.00024307628
110	0x3b2acae0	0.0026060864
111	0xa35b75a2	-1.18969235e-17
112	0xb90651e1	-0.00012809738
113	0x2bbff9f7	1.3640745e-12
114	0x05084af3	6.408455e-36
115	0xb695fadb	-4.4697495e-06
116	0xb1598dbc	-3.1658223e-09
117	0x30f787a5	1.8010168e-09
118	0x32812327	1.5033562e-08
119	0x2f3592e2	1.6514037e-10
120	0x829b1bbf	-2.2791129e-37
121	0x39b221c5	0.00033975966
122	0x37c7baa1	2.3809554e-05
123	0x3b402c2a	0.0029323199
124	0x2f2fe031	1.5995806e-10
125	0x033c1cc8	5.5281274e-37
126	0x20198897	1.3004798e-19
127	0x3adc3772	0.0016801192
128	0x02742eed	1.7939756e-37
129	0x166da062	1.9195315e-25
130	0x3b84ea14	0.0040562246
131	0xba2484b4	-0.0006275878
132	0x83092aa0	-4.0309613e-37
133	0x8353e421	-6.2269206e-37
134	0xbb760bdf	-0.0037543697
135	0x3a730c3c	0.00092715374
136	0xbad26c67	-0.0016054035
137	0x3ad0a7bc	0.0015919129
138	0xb070eee5	-8.765098e-10
139	0xb9bf96a1	-0.00036542586
140	0x09d5b56d	5.1448497e-33
141	0x3a0e7d69	0.00054355577
142	0xb94b73e1	-0.00019402757
143	0xa023b5d9	-1.3866805e-19
144	0x83376de0	-5.3904997e-37
145	0x028324ec	1.9269912e-37
146	0xb92dee71	-0.00016587392
147	0xb40de763	-1.3215826e-07
148	0xbabbf8dd	-0.0014341135
149	0xb4e22401	-4.2121977e-07
150	0x3b8ba001	0.0042610173
151	0xbb650015	-0.0034942676
152	0xaafdcf74	-4.5085778e-13
153	0x380ac57e	3.3085693e-05
154	0xb34e9e4f	-4.8107093e-08
155	0xb9cc6aec	-0.00038989575
156	0x3b04488b	0.002018484
157	0xb7ec63f8	-2.8179944e-05
158	0xa2a2e0a5	-4.414804e-18
159	0x340b8a1b	1.2995626e-07
160	0x30804066	9.331529e-10
161	0xb80a2c24	-3.2942873e-05
162	0x38e9a0f7	0.00011140288
163	0xb198fa73	-4.452255e-09
164	0x8371ce59	-7.106041e-37
165	0xb406a176	-1.2538462e-07
166	0xb99060fe	-0.00027538085
167	0xb5df74ee	-1.6648826e-06
168	0xbb8ea98d	-0.004353708
169	0x39ce0c53	0.00039300564
170	0xbaee008b	-0.0018158121
171	0x3af6973f	0.0018813385
172	0x36c3a6fa	5.8308915e-06
173	0x3b4f9c95	0.0031679024
174	0x0105cc64	2.4574885e-38
175	0x2efa8602	1.1392488e-10
176	0x3b80e894	0.0039339755
177	0xb262c724	-1.3200211e-08
178	0x3b859c03	0.004077436
179	0x01d45073	7.799194e-38
180	0x3a8029ca	0.0009778079
181	0xb20e36d3	-8.277953e-09
182	0x3185136b	3.873017e-09
183	0x07a5a8c8	2.4925641e-34
184	0xb6ed264e	-7.0676097e-06
185	0xb687e7bb	-4.0502905e-06
186	0x8378564d	-7.297972e-37
187	0x83778593	-7.274011e-37
188	0x8337ef21	-5.4053373e-37
189	0x93866b38	-3.393208e-27
190	0x834a11ea	-5.938303e-37
191	0xa27f8bfe	-3.4633055e-18
192	0x33d4db47	9.9119056e-08
193	0x3328045b	3.911951e-08
194	0x3803b8b3	3.140485e-05
195	0xa813894b	-8.18991e-15
196	0x3b99283e	0.0046739867
197	0xbb07e90c	-0.0020738272
198	0xb752677e	-1.2541072e-05
199	0xb87d88b2	-6.0447208e-05
200	0x03300266	5.1724505e-37
201	0xb9f36a5c	-0.00046427816
202	0x318e854b	4.1478976e-09
203	0x39cb4ca6	0.00038776285
204	0x839db3e5	-9.268932e-37
205	0xb84f9149	-4.9487953e-05
206	0x3b171d29	0.0023058152
207	0x2b9bfba7	1.108326e-12
208	0x025b1830	1.609652e-37
209	0x15e81d3e	9.375019e-26
210	0x3996c185	0.00028754413
211	0x034f82b9	6.0981895e-37
212	0x2b9da431	1.1201093e-12
213	0xa0816b44	-2.1924432e-19
214	0xa0018398	-1.0970266e-19
215	0xb6f05d5a	-7.163425e-06
216	0x0cb880ae	2.8427135e-31
217	0x344ec577	1.9257082e-07
218	0xa6f703bf	-1.7140083e-15
219	0xba8d0b2b	-0.0010760775
220	0xb8da012a	-0.00010395267
221	0xb7d3a61c	-2.523051e-05
222	0xbabecb3c	-0.0014556418
223	0xbb59f780	-0.0033259094
224	0x3b5ece26	0.0033997386
225	0x3286ef27	1.5708407e-08
226	0x366c545c	3.5215844e-06
227	0xb56b1d43	-8.7586903e-07
228	0x39ac8be3	0.0003291062
229	0x32162a94	8.74083e-09
230	0x1c7fadab	8.4596883e-22
231	0xb9d7c625	-0.00041155625
232	0x82f03d0a	-3.5299865e-37
233	0xaff20b82	-4.402772e-10
234	0x3864f4d0	5.4587435e-05
235	0x39eff3fb	0.00045767412
236	0x3b9dfdc4	0.004821511
237	0xa77204e1	-3.3586891e-15
238	0x831f6c00	-4.684988e-37
239	0x3a83b278	0.0010047695
240	0x330ece08	3.3249336e-08
241	0x8333a030	-5.278726e-37
242	0x37bd57ed	2.25715e-05
243	0x2cd2cb02	5.9910974e-12
244	0x2fc2fc74	3.5467773e-10
245	0xbae377de	-0.0017354449
246	0xb1b65ab6	-5.30721e-09
247	0x9f0ff721	-3.0485848e-20
248	0x293d1583	4.198509e-14
249	0xbb967ecc	-0.004592752
250	0xb58f0230	-1.0654967e-06
251	0xbb8acb1a	-0.0042356374
252	0x8d1903b2	-4.7151213e-31
253	0xac898d61	-3.9094704e-12
254	0xbb81926e	-0.0039542234
255	0xa4b986a9	-8.0459084e-17

rnn.bias_ih_l0 f4 [16]
0	0x8a5c40ec	-1.0604825e-32
1	0xbb55d709	-0.0032629392
2	0x3121767b	2.3495932e-09
3	0xbba44402	-0.00501299
4	0x30845a2d	9.629894e-10
5	0xb9591995	-0.00020704263
6	0xbaf2d38f	-0.0018526184
7	0xbad9028d	-0.0016556546
8	0x82853dae	-1.9577996e-37
9	0x03926180	8.603494e-37
10	0x3620113d	2.3851892e-06
11	0x031e6228	4.6544705e-37
12	0xa52c3c4d	-1.4939053e-16
13	0x315a96cd	3.1808896e-09
14	0x9c650592	-7.5776944e-22
15	0x39238608	0.00015594822

rnn.bias_hh_l0 f4 [16]
0	0x82fe5102	-3.7368442e-37
1	0x39981693	0.00029008518
2	0x39b00ae8	0.00033577462
3	0x883fcf8b	-5.7720937e-34
4	0x3817e1cc	3.6211495e-05
5	0x3ba53dbb	0.0050427592
6	0x396a7168	0.00022358226
7	0x3acb2564	0.0015498814
8	0xa3345051	-9.774827e-18
9	0x3b9fd003	0.004877092
10	0xbb57d1d4	-0.0032931464
11	0xb79a08c0	-1.8362305e-05
12	0x8b1218fe	-2.813738e-32
13	0xa827bdbe	-9.311506e-15
14	0x29e2820f	1.0058978e-13
15	0x333fde6a	4.4672937e-08

rnn.weight_ih_l1 f4 [16, 16]
0	0xb6dca023	-6.5751533e-06
1	0x3ace30f5	0.0015731143
2	0xb95153a1	-0.00019962947
3	0x243dbd98	4.1143434e-17
4	0x39b403a6	0.00034334994
5	0xbb87f6ba	-0.004149285
6	0x022a79f3	1.2524625e-37
7	0x3a8588a9	0.0010187823
8	0xa6b2c819	-1.2405468e-15
9	0xbb2a6360	-0.0025999174
10	0xb896ee98	-7.196999e-05
11	0x3632fffa	2.6673065e-06
12	0xb45be0d4	-2.0477756e-07
13	0x032f376f	5.1491512e-37
14	0x8471fd68	-2.8445772e-36
15	0x327000b9	1.3970003e-08
16	0x3b8c290f	0.0042773555
17	0xabef1bcc	-1.6989687e-12
18	0x3b35f1f9	0.0027762635
19	0x3b2b3d8d	0.0026129216
20	0x3b86b44f	0.00411085
21	0xa658bc3c	-7.519516e-16
22	0x2be989a9	1.6593854e-12
23	0x39ac617a	0.00032879022
24	0x37558140	1.2725883e-05
25	0x3b8e21ef	0.0043375413
26	0xba3b2e50	-0.0007140385
27	0xba3376d2	-0.0006846014
28	0xa6fa2032	-1.7355961e-15
29	0x8367edbc	-6.8157704e-37
30	0x385a1265	5.199238e-05
31	0xb4ffdf9e	-4.7660154e-07
32	0x02893330	2.015972e-37
33	0xa3ba4a6f	-2.0197684e-17
34	0x3a9f825a	0.0012169585
35	0xb5c01a50	-1.4312773e-06
36	0xbba51cde	-0.0050388416
37	0xbb639b38	-0.0034729969
38	0x2eb46fee	8.205335e-11
39	0x832de640	-5.1104445e-37
40	0x3921dc2f	0.00015436181
41	0xbb975312	-0.004618057
42	0x83369918	-5.3660736e-37
43	0x32939362	1.7180074e-08
44	0x38cb5c22	9.6969554e-05
45	0xbac34b1f	-0.0014899707
46	0x83099865	-4.043562e-37
47	0x33b7f9d2	8.5670436e-08
48	0x38496277	4.8013837e-05
49	0x103cba30	3.7219896e-29
50	0xb60fe06c	-2.1439291e-06
51	0xbb6d08a4	-0.003616848
52	0x3a87a183	0.0010347817
53	0x29a79126	7.441469e-14
54	0xbac56fdd	-0.0015063245
55	0x150705fc	2.7267754e-26
56	0x3b176e61	0.0023106562
57	0x3b217fd7	0.002464285
58	0xb6419ed2	-2.8851687e-06
59	0x3a8352f6	0.0010019231
60	0x1e908e6b	1.5305496e-20
61	0xb2da639b	-2.5423835e-08
62	0xa3293e35	-9.174681e-18
63	0x370c509f	8.363421e-06
64	0xb5f65a0a	-1.8354633e-06
65	0x833eebfc	-5.610688e-37
66	0x0edef06d	5.4958747e-30
67	0x9dbae67b	-4.94721e-21
68	0x3a0d9b0c	0.0005401827
69	0x83302a6e	-5.177046e-37
70	0x2406d9ac	2.9240993e-17
71	0x83296ac5	-4.97872e-37
72	0x3ad44795	0.001619565
73	0x8a1d2d84	-7.5678356e-33
74	0x3b7acf84	0.0038270662
75	0x36c4288c	5.8459755e-06
76	0x39b33106	0.00034178066
77	0x2c867119	3.8210654e-12
78	0x3b8190a6	0.003954011
79	0x322f6129	1.0208432e-08
80	0xbb834d1d	-0.0040069954
81	0xba90319c	-0.0011001113
82	0x3b4b751b	0.0031045142
83	0xb3d16417	-9.750527e-08
84	0x3aa87073	0.0012850895
85	0xb89f813d	-7.605783e-05
86	0x98b62c70	-4.7090768e-24
87	0xb87a2ebc	-5.964817e-05
88	0x95270568	-3.3729646e-26
89	0x31000daf	1.863423e-09
90	0x3599e830	1.1466964e-06
91	0x0a4c670f	9.841626e-33
92	0xb7bc7313	-2.2464932e-05
93	0xba8030c5	-0.000978016
94	0x2a9e49fc	2.8117775e-13
95	0x3667a6bc	3.4518735e-06
96	0x3abe1da1	0.001450468
97	0x82f5ea00	-3.6133824e-37
98	0x2e3f6078	4.3514053e-11
99	0x22a4360f	4.4509526e-18
100	0xa79c9560	-4.346065e-15
101	0x1a75d29a	5.0834935e-23
102	0x1a30e08c	3.6577334e-23
103	0xba97dd32	-0.0011586307
104	0xae403c35	-4.370922e-11
105	0x3813018f	3.5048983e-05
106	0x9d809c2b	-3.404279e-21
107	0x020e583c	1.0457834e-37
108	0xaa305d7c	-1.5664374e-13
109	0x8cc58b60	-3.043654e-31
110	0x8317c5de	-4.460205e-37
111	0x35282eec	6.265316e-07
112	0x971a030b	-4.9763924e-25
113	0x397d952d	0.00024183533
114	0x83190568	-4.4968865e-37
115	0x2850e823	1.1596656e-14
116	0xb8e6e3bb	-0.00011009673
117	0x291d1ab9	3.488418e-14
118	0x353a6c90	6.944838e-07
119	0x9dd0ddba	-5.52864e-21
120	0xb8571050	-5.1275187e-05
121	0x1e7139af	1.27703625e-20
122	0x82a92b16	-2.4857048e-37
123	0xbb9d46a6	-0.0047996817
124	0x2ebd9528	8.6212204e-11
125	0x204faa20	1.7589872e-19
126	0x1d9d969f	4.1713293e-21
127	0x374b4117	1.2114898e-05
128	0xbaf1d12f	-0.0018449182
129	0x3a3a5a9a	0.00071088376
130	0xb3cdd71c	-9.5851846e-08
131	0x23c99f61	2.1859963e-17
132	0xad4cc66a	-1.1640114e-11
133	0xb8ba42a5	-8.881585e-05
134	0xb39d60da	-7.3284994e-08
135	0x348054e0	2.3903613e-07
136	0xba988983	-0.0011637661
137	0xb263a2d6	-1.3250164e-08
138	0x12158ebb	4.719204e-28
139	0x39e2af4c	0.00043236685
140	0xa38e508e	-1.5429787e-17
141	0xb9b75091	-0.00034964507
142	0x832728bb	-4.9123645e-37
143	0x8322d2a8	-4.7849343e-37
144	0x2dd7a7af	2.4517137e-11
145	0xb63a2c36	-2.7741894e-06
146	0xa7976e10	-4.203025e-15
147	0xb86c79c6	-5.6380195e-05
148	0x38a18530	7.701886e-05
149	0x02d4e75d	3.1283396e-37
150	0x810fc6f4	-2.6407694e-38
151	0x37b44585	2.1490045e-05
152	0x0306fa7c	3.9666603e-37
153	0xb91f20e6	-0.00015175677
154	0x23347b94	9.783988e-18
155	0x3326be1a	3.8822783e-08
156	0x81c4bf1e	-7.227327e-38
157	0x2ed2d245	9.587046e-11
158	0xb7de76e9	-2.6519834e-05
159	0xb0514c6f	-7.6142376e-10
160	0xaeb4f8be	-8.229638e-11
161	0x387cb128	6.024647e-05
162	0xbaf73508	-0.0018860409
163	0x3b76dafb	0.0037667144
164	0x82c56eb6	-2.9010093e-37
165	0xbb37c1f3	-0.0028039187
166	0xb14bf024	-2.9676892e-09
167	0x3019aa5c	5.590317e-10
168	0x2a2ac346	1.5166782e-13
169	0xb98302b7	-0.0002498829
170	0x37dbd0f1	2.620413e-05
171	0xbb127266	-0.0022346019
172	0x398eefdd	0.00027263063
173	0x2b9f409f	1.1315565e-12
174	0x37a8f243	2.0139973e-05
175	0xb915c753	-0.00014284001
176	0x3af7e448	0.0018912638
177	0x36546f39	3.1655202e-06
178	0x2ce1b318	6.414768e-12
179	0x3b88adad	0.0041710944
180	0xb63d0294	-2.8164695e-06
181	0xb19e91af	-4.6149675e-09
182	0x373386a0	1.0700576e-05
183	0x34bc90f8	3.5123207e-07
184	0xbb8ac179	-0.0042344895
185	0x3aafd343	0.0013414401
186	0x3ac6b34d	0.0015159637
187	0x2e21e139	3.68072e-11
188	0x9181244c	-2.037498e-28
189	0x8315f2e2	-4.406598e-37
190	0x83241086	-4.8214236e-37
191	0xb3af1e9d	-8.154641e-08
192	0xb0172c3c	-5.499634e-10
193	0xbae091f3	-0.001713334
194	0x3780039d	1.5260472e-05
195	0x83205818	-4.71209e-37
196	0x37d86da4	2.5800262e-05
197	0xbad72d97	-0.0016416785
198	0xabd46575	-1.5091666e-12
199	0x8381c7de	-7.627826e-37
200	0x384b7137	4.850441e-05
201	0x3a546598	0.0008102297
202	0xb55dde67	-8.2652554e-07
203	0x37be0902	2.265396e-05
204	0x88a18300	-9.720633e-34
205	0x8321e4c2	-4.757625e-37
206	0xad980445	-1.7282295e-11
207	0x834a8a90	-5.9521527e-37
208	0x378f42e3	1.7078075e-05
209	0x031e81f8	4.6581224e-37
210	0xab077f28	-4.81381e-13
211	0xa85b8cc1	-1.2187463e-14
212	0x3a837b0e	0.001003118
213	0xb906bff5	-0.00012850745
214	0xb51dad3f	-5.8739164e-07
215	0x335dbfbe	5.162996e-08
216	0xb98aaccb	-0.00026450152
217	0xbb81ee7b	-0.0039651967
218	0x835807ca	-6.3485636e-37
219	0x0e7df610	3.1303132e-30
220	0x942de37f	-8.779134e-27
221	0x02b0694e	2.5921318e-37
222	0xb05d2bf3	-8.046179e-10
223	0xb14c5ee7	-2.9739853e-09
224	0xa55e671d	-1.9290367e-16
225	0xa996445b	-6.673196e-14
226	0x31b37b2d	5.223589e-09
227	0xb19e9a61	-4.615956e-09
228	0x3acc1d53	0.0015572704
229	0xb2217b46	-9.3994625e-09
230	0x3b6489b9	0.0034872128
231	0x03927413	8.607758e-37
232	0xbb60dca8	-0.003431121
233	0x9b069e59	-1.1135385e-22
234	0xb9d7e1c2	-0.00041176198
235	0xb2ee8c35	-2.7770605e-08
236	0x9961d241	-1.1674688e-23
237	0x2b573835	7.6461347e-13
238	0x808d1b78	-1.2958659e-38
239	0x37fbaf26	3.0003092e-05
240	0x3978bd1a	0.00023721569
241	0xb395a041	-6.967503e-08
242	0xb9317b91	-0.00016926067
243	0xb18ccdad	-4.097919e-09
244	0x83b6de02	-1.0747969e-36
245	0xb8a1b603	-7.7109806e-05
246	0x3720cd01	9.584474e-06
247	0xbb0cd54d	-0.0021489442
248	0x229a766e	4.1867176e-18
249	0x3a90e8e2	0.0011055733
250	0x2e5b1cfe	4.9820585e-11
251	0xb9d02e74	-0.00039707462
252	0xa94c5c7d	-4.537732e-14
253	0xa89b1b5d	-1.7220324e-14
254	0x38bda3e4	9.042749e-05
255	0x31cad0ad	5.9026974e-09

rnn.weight_hh_l1 f4 [16, 16]
0	0x3302d00f	3.0457212e-08
1	0x0350db8c	6.1377734e-37
2	0xb8f087ae	-0.00011469364
3	0xbb88e69a	-0.0041778805
4	0xb5600195	-8.3448805e-07
5	0x82ee73be	-3.503739e-37
6	0x3827fbec	4.0050523e-05
7	0x3aaec08b	0.0013332529
8	0x1ef6070e	2.6049181e-20
9	0x24d650c2	9.2944515e-17
10	0xa9871f45	-6.000629e-14
11	0x031737f5	4.4439147e-37
12	0x83159a24	-4.396411e-37
13	0x3b906c3f	0.004407435
14	0x3279f0a4	1.4548423e-08
15	0x3b463a7f	0.0030247269
16	0x341fb51a	1.4873913e-07
17	0x3aff6545	0.0019485137
18	0x3ae429c8	0.0017407471
19	0xbb38a017	-0.0028171593
20	0x391ad87b	0.0001476723
21	0x031adae6	4.5507816e-37
22	0xbb450f22	-0.0030068834
23	0x882afdf4	-5.1456035e-34
24	0xb937b708	-0.00017520424
25	0x036b04cf	6.9065813e-37
26	0xba4ceeb1	-0.000781755
27	0x3b8cc817	0.0042963135
28	0x3b520359	0.0032045452
29	0xb3751dfd	-5.7070782e-08
30	0x27843010	3.668947e-15
31	0xba4297e0	-0.0007423144
32	0xbaa84869	-0.0012838963
33	0xb2545581	-1.23594655e-08
34	0xa49a6e3a	-6.6973585e-17
35	0xb9ef994e	-0.00045699853
36	0x84f5bcc5	-5.777258e-36
37	0xb21d1e7f	-9.145537e-09
38	0x8273d581	-1.7914093e-37
39	0x82b417d6	-2.6462304e-37
40	0x388394b8	6.274268e-05
41	0x3adcd358	0.0016847653
42	0x391eac5f	0.00015132267
43	0x8232a68e	-1.3125174e-37
44	0x9cf002f9	-1.5882636e-21
45	0x39b3cccd	0.0003429413
46	0x83e2876e	-1.3314179e-36
47	0x2efe5059	1.1564855e-10
48	0xb89fde40	-7.623108e-05
49	0x3ae99fd6	0.0017824124
50	0xb68f6a1a	-4.274084e-06
51	0x3b1dfe6f	0.0024107953
52	0x3b15a52b	0.0022834043
53	0x1ae6adde	9.540667e-23
54	0x0346e09b	5.8444805e-37
55	0x2ab54046	3.2196657e-13
56	0x07865851	2.0213987e-34
57	0xbb4f1d84	-0.0031603286
58	0xb8ccda22	-9.7681084e-05
59	0x39f6ba57	0.0004705961
60	0xb6be1b2e	-5.6656054e-06
61	0xb821c550	-3.8569153e-05
62	0x3a5b1738	0.0008357647
63	0xb6c681f1	-5.915987e-06
64	0x033074de	5.185591e-37
65	0x2e3652db	4.14556e-11
66	0xb9f94815	-0.00047546686
67	0xb7fd3e99	-3.01891e-05
68	0xae76f79e	-5.6153852e-11
69	0x3a8dddbd	0.001082353
70	0x3ab28690	0.0013620425
71	0xb8e6b7d3	-0.000110014946
72	0x3a8116df	0.0009848735
73	0x339242ee	6.810829e-08
74	0x2c8b03fb	3.9510595e-12
75	0x138d6a08	3.569796e-27
76	0x32c32f48	2.2722489e-08
77	0xadc0a415	-2.190074e-11
78	0x3881591b	6.1677965e-05
79	0x3b717a50	0.0036846586
80	0x83267f13	-4.892889e-37
81	0x305bb906	7.993467e-10
82	0x8359d6d4	-6.401718e-37
83	0x98356365	-2.3443883e-24
84	0x83c50334	-1.1579355e-36
85	0x835e3062	-6.5295477e-37
86	0x031d9dee	4.6319448e-37
87	0x3132d14e	2.6021385e-09
88	0x06abe15f	6.4654204e-35
89	0x82210ca0	-1.1832035e-37
90	0xb5bd16d5	-1.4088242e-06
91	0x34669d7b	2.147771e-07
92	0x339376f7	6.8668605e-08
93	0x24f2b24a	1.05252804e-16
94	0x2c7f2880	3.6260162e-12
95	0x9eec74c4	-2.5035765e-20
96	0x9dfbd724	-6.6661597e-21
97	0xb3dea33f	-1.0367375e-07
98	0x3232fa24	1.0417839e-08
99	0x279edc0d	4.409239e-15
100	0x3af9fc51	0.0019072389
101	0xb7759b89	-1.4639351e-05
102	0x0332f04c	5.2585346e-37
103	0xb8b26508	-8.50652e-05
104	0x215acbaa	7.413082e-19
105	0x38453bd6	4.7024187e-05
106	0x02f9522a	3.6634422e-37
107	0xa805cd06	-7.4274405e-15
108	0xb4b17bab	-3.30588e-07
109	0x0334bade	5.311176e-37
110	0x3a106d6a	0.0005509468
111	0xa323ede4	-8.886623e-18
112	0x0f1e98b7	7.819413e-30
113	0x1143abf8	1.543578e-28
114	0x39d1d36f	0.00040021117
115	0xb21735de	-8.801605e-09
116	0x25858f83	2.316907e-16
117	0x32f3042d	2.8290822e-08
118	0xbb47a89f	-0.0030465496
119	0x3af42946	0.0018628023
120	0x39502fab	0.00019854183
121	0x37d29734	2.510436e-05
122	0x1249754d	6.3569e-28
123	0x9c4488a9	-6.502759e-22
124	0xab15d495	-5.323045e-13
125	0xb8b3a8e7	-8.566846e-05
126	0xba45723f	-0.00075319776
127	0x37a3db07	1.9533107e-05
128	0x8a0f1938	-6.889943e-33
129	0xb9641707	-0.00021752353
130	0x3a18bb84	0.0005826282
131	0x8da317e5	-1.0051403e-30
132	0xbb57abed	-0.0032908872
133	0xbb1a961d	-0.002358801
134	0x2ab01969	3.1281512e-13
135	0x2e7a8b9a	5.696741e-11
136	0x3b022813	0.0019860312
137	0x82a3e16c	-2.4080083e-37
138	0x29973dd7	6.7164746e-14
139	0x3b9abaa5	0.004721957
140	0xb962bc86	-0.0002162327
141	0x39c41229	0.00037397564
142	0x392316d9	0.00015553403
143	0x03056848	3.9204896e-37
144	0x83b019f5	-1.035031e-36
145	0x3b253313	0.0025207445
146	0xa93c3ddc	-4.179804e-14
147	0x32335478	1.0438377e-08
148	0x34ff1987	4.7516025e-07
149	0x83986752	-8.957478e-37
150	0x933d44d2	-2.3889085e-27
151	0x31ea930f	6.827015e-09
152	0x82dd5fdc	-3.2528052e-37
153	0x3b8e3c5d	0.004340692
154	0x8331c608	-5.2242954e-37
155	0x2fbf2020	3.4765524e-10
156	0xb715a00d	-8.918357e-06
157	0x39ed9e92	0.00045322307
158	0x031da316	4.6325367e-37
159	0xbb2e293e	-0.0026574875
160	0x032382f3	4.8051717e-37
161	0x830b0692	-4.085597e-37
162	0x0307586c	3.9774438e-37
163	0x2a5f9384	1.9857559e-13
164	0x35193d73	5.708636e-07
165	0x837dd1a4	-7.4590673e-37
166	0x2ef6d84a	1.12252055e-10
167	0x1024c816	3.2497438e-29
168	0x0246f28d	1.4616351e-37
169	0x0336be0c	5.3703156e-37
170	0x188b44bc	3.600006e-24
171	0xba61fc1e	-0.0008620637
172	0x82a249fc	-2.3846226e-37
173	0xb0529377	-7.6607115e-10
174	0x372cc0bb	1.02968725e-05
175	0xbb869d72	-0.0041081244
176	0xbb4bf3fe	-0.0031120772
177	0x375854ae	1.2894319e-05
178	0xba92a2d7	-0.0011187446
179	0x2c0b7063	1.9815475e-12
180	0x0cefbf29	3.693883e-31
181	0xbb4ff9ac	-0.003173451
182	0x385dcece	5.2883108e-05
183	0x0c5310e4	1.6259932e-31
184	0x98a83c85	-4.348809e-24
185	0x3b37eecf	0.0028065925
186	0x831651bb	-4.417486e-37
187	0x27575749	2.9884561e-15
188	0x34e8d6c8	4.336964e-07
189	0x026ac418	1.7247881e-37
190	0x3a0e22e2	0.0005422068
191	0xb331c5f2	-4.1391054e-08
192	0xb38ddc6e	-6.60592e-08
193	0xafde6181	-4.0450845e-10
194	0x3ba0c543	0.004906328
195	0x832a4139	-5.003338e-37
196	0x86427220	-3.657119e-35
197	0xb8bb3714	-8.927114e-05
198	0x03d2d51d	1.2391619e-36
199	0xb87684b7	-5.877457e-05
200	0xb9142031	-0.00014126372
201	0xb936fa4a	-0.00017450113
202	0x3b801bbe	0.003909557
203	0xb81f8a0c	-3.803712e-05
204	0xb8cc6a67	-9.747297e-05
205	0x3a008fe5	0.00049042545
206	0xa7a61932	-4.6101572e-15
207	0x044081d0	2.2629099e-36
208	0x37160ee5	8.944165e-06
209	0xb02f84c3	-6.3853295e-10
210	0xae89913f	-6.2558396e-11
211	0x365d3f96	3.2968578e-06
212	0x2d960a06	1.7057477e-11
213	0xba9db727	-0.0012032733
214	0xb4ec55a4	-4.4020737e-07
215	0xba9512e7	-0.0011373431
216	0xbb0bdae4	-0.0021340186
217	0xaa4f10f1	-1.8391171e-13
218	0xbb1b003c	-0.0023651263
219	0x0579a3b1	1.1737989e-35
220	0xb70d1510	-8.409159e-06
221	0xba64bd18	-0.0008725687
222	0xb537bb71	-6.8445576e-07
223	0x83c4636f	-1.15426735e-36
224	0x835abcb9	-6.4281085e-37
225	0x3b128d71	0.0022362138
226	0x2ddfbc00	2.5435654e-11
227	0xae831ff1	-5.962864e-11
228	0xbb1effe4	-0.002426141
229	0x3b983bc3	0.004645796
230	0xba50c8cc	-0.00079644914
231	0xb81f572c	-3.798974e-05
232	0xb6cd686d	-6.121633e-06
233	0xb3e5b315	-1.0696218e-07
234	0x9d9d64c8	-4.166176e-21
235	0x34ffc21d	4.7638687e-07
236	0x35abbe37	1.2795853e-06
237	0x2a9937ae	2.7216895e-13
238	0xbaa100fb	-0.0012283617
239	0xbae6a8fa	-0.0017597966
240	0xbb6a718b	-0.0035773243
241	0x83471c16	-5.8513085e-37
242	0xaac8f21e	-3.569514e-13
243	0x2f0bed10	1.2726198e-10
244	0x830a7651	-4.0690376e-37
245	0x842b9fd1	-2.0174337e-36
246	0x376699c1	1.3744867e-05
247	0x3b0a24a2	0.0021078964
248	0xb6c08909	-5.737999e-06
249	0x83472128	-5.8518905e-37
250	0x33e3742b	1.0591642e-07
251	0x3395786e	6.960259e-08
252	0x39863fbd	0.0002560596
253	0xb6bfdc02	-5.717856e-06
254	0xb81fdd73	-3.8114795e-05
255	0xb995172e	-0.00028436765

rnn.bias_ih_l1 f4 [16]
0	0x2aacb6d3	3.0680197e-13
1	0xae1f4fbd	-3.6223236e-11
2	0xbb839285	-0.004015269
3	0x39a3dfff	0.00031256673
4	0x3b053296	0.002032434
5	0xa8352cd1	-1.0057236e-14
6	0xbaa2a23b	-0.0012407968
7	0x8316baee	-4.4295623e-37
8	0x396857a4	0.00022157893
9	0xba656c69	-0.0008751811
10	0x828069de	-1.8868674e-37
11	0x30b9cc4e	1.3518588e-09
12	0x3b8ced20	0.0043007284
13	0xa77498e5	-3.3944687e-15
14	0xa4185642	-3.303281e-17
15	0x8331dda8	-5.2270074e-37

rnn.bias_hh_l1 f4 [16]
0	0xa380bc35	-1.3957497e-17
1	0x38f5023d	0.00011682927
2	0x02fc2f26	3.7055134e-37
3	0x35f321d1	1.8114753e-06
4	0x37b0ea0d	2.1089823e-05
5	0x33c4f4a8	9.171464e-08
6	0xb1ec338b	-6.8743637e-09
7	0x351a6c0c	5.75267e-07
8	0x3af98b48	0.0019038701
9	0x3b45a84f	0.0030160134
10	0x1831257f	2.2895645e-24
11	0xbb32868f	-0.0027240848
12	0xb89b2e1d	-7.399565e-05
13	0xbb62ac25	-0.003458747
14	0x83913fa9	-8.53695e-37
15	0xaaa8d79f	-2.9992412e-13

rnn.weight_ih_l2 f4 [16, 16]
0	0x3a459cfb	0.00075383455
1	0xb844127d	-4.674726e-05
2	0x1d44ea1b	2.6061414e-21
3	0xa180b00d	-8.720218e-19
4	0x3abb7988	0.0014303187
5	0x1adcaf65	9.127323e-23
6	0x826f6c34	-1.759e-37
7	0x38a625f2	7.922565e-05
8	0x3a151089	0.0005686363
9	0x22bccd29	5.1174724e-18
10	0xb1b7fe4f	-5.3549125e-09
11	0xb5d62a9d	-1.5956645e-06
12	0x3078f240	9.056613e-10
13	0x030745cf	3.975307e-37
14	0xb5f23651	-1.8046213e-06
15	0x3840b30b	4.5943114e-05
16	0xb02afa14	-6.220102e-10
17	0xaee626e2	-1.0466096e-10
18	0x3b2e658c	0.002661082
19	0x36215c49	2.4044587e-06
20	0x2a7fe940	2.2729475e-13
21	0x379d7a49	1.8772802e-05
22	0xb7b31233	-2.1346938e-05
23	0x099509c3	3.5879625e-33
24	0x2ba7635d	1.1893643e-12
25	0xb6edd878	-7.0883507e-06
26	0x03207e78	4.7164953e-37
27	0x319319f2	4.2812127e-09
28	0x3a8e445c	0.0010854113
29	0x0a1c9337	7.538815e-33
30	0x21cc2aa5	1.3834866e-18
31	0xb81ab376	-3.6883597e-05
32	0x1aaf3a55	7.2472544e-23
33	0x296de113	5.2819792e-14
34	0x35fc7d79	1.881198e-06
35	0x8301e5aa	-3.8173334e-37
36	0x3a4bb393	0.0007770594
37	0x9ece8f47	-2.1870357e-20
38	0xb82aae8b	-4.0693714e-05
39	0x0346f48b	5.846769e-37
40	0x8376d685	-7.253916e-37
41	0xb87ebedc	-6.073607e-05
42	0x37168fac	8.974148e-06
43	0xb8bf2916	-9.1152426e-05
44	0x1788e70b	8.847117e-25
45	0x38659a20	5.4741395e-05
46	0x3a2fc0b4	0.0006704435
47	0x1313dfe9	1.8664405e-27
48	0x832efb5e	-5.142256e-37
49	0x033d4460	5.56206e-37
50	0xb39c5e85	-7.281509e-08
51	0xb83e52ad	-4.5376528e-05
52	0xad6db84e	-1.3512814e-11
53	0xb810acca	-3.4493198e-05
54	0x0320e7e3	4.7285967e-37
55	0x39e4616f	0.00043560143
56	0xb412bacc	-1.3665266e-07
57	0xbb5e4c18	-0.0033919867
58	0xbabd298a	-0.0014431935
59	0xa654de0b	-7.38532e-16
60	0x031bfe9d	4.584269e-37
61	0xb7ad9f31	-2.0697336e-05
62	0xbb8fbeed	-0.004386774
63	0x347aa3ba	2.3342628e-07
64	0xba2b2454	-0.00065285456
65	0xb8e578fb	-0.00010942105
66	0xbba528b8	-0.0050402544
67	0x3b3b1a96	0.0028549782
68	0x1e51a8ea	1.10992985e-20
69	0xb94b1318	-0.00019366702
70	0x2f36151b	1.6560302e-10
71	0x83329264	-5.2477547e-37
72	0xb8edea03	-0.00011344629
73	0x318ae16d	4.0419565e-09
74	0xbaff433e	-0.0019474996
75	0x1c24f46d	5.457896e-22
76	0xb0adf809	-1.2657903e-09
77	0x16e979fb	3.772016e-25
78	0xbb8a2daa	-0.0042168694
79	0x39fe9171	0.00048555018
80	0xbab72490	-0.0013972688
81	0x828fb5e0	-2.1116353e-37
82	0x03e46684	1.3424172e-36
83	0xb596c56f	-1.1233332e-06
84	0xbb353c5a	-0.002765438
85	0xb6825cf1	-3.8851217e-06
86	0xb82adbda	-4.073591e-05
87	0xb7f4e028	-2.9191448e-05
88	0x33f56467	1.14269646e-07
89	0x2f3f41a0	1.7394663e-10
90	0x3b2d04a4	0.002640047
91	0x337a27eb	5.8243966e-08
92	0xb555b664	-7.9614097e-07
93	0x342403a9	1.5275022e-07
94	0xba6fc5bc	-0.0009146591
95	0xbb10a110	-0.0022068657
96	0x170833ea	4.4009495e-25
97	0xb511c35d	-5.4301e-07
98	0x303141d8	6.4485794e-10
99	0xaebd0e06	-8.597216e-11
100	0x07e2fd0d	3.415343e-34
101	0xb944933d	-0.00018746867
102	0x3200aa94	7.489366e-09
103	0x34020c89	1.2111754e-07
104	0x3b67fbfe	0.0035398002
105	0x3b54e7f4	0.0032486888
106	0x331fcf9a	3.7208885e-08
107	0x3055adaf	7.773577e-10
108	0x3a34f445	0.0006902854
109	0xb9d5da0f	-0.00040788992
110	0x24fa687e	1.08597234e-16
111	0xbb9597bf	-0.0045652087
112	0xa73bbd53	-2.6054096e-15
113	0x390baf03	0.0001332127
114	0x23fe2290	2.7553373e-17
115	0xbb180e01	-0.0023201706
116	0xb27e8899	-1.4815805e-08
117	0x39a06e3c	0.0003059971
118	0x03259d8f	4.867001e-37
119	0xb995b542	-0.00028554542
120	0xbb254ac0	-0.0025221556
121	0x368adc0e	4.138338e-06
122	0x21496986	6.824111e-19
123	0xbb326241	-0.0027219208
124	0xbb9a58a8	-0.0047102757
125	0x8268d9f6	-1.710722e-37
126	0xbab92ed2	-0.0014128333
127	0x30f0f921	1.7533105e-09
128	0xba9b5f04	-0.0011853878
129	0x2f1c097a	1.4191484e-10
130	0xb785a4e6	-1.5931622e-05
131	0xb38a604c	-6.443642e-08
132	0x3a90fb80	0.0011061281
133	0xa333003a	-9.7036574e-18
134	0x396b6826	0.00022450145
135	0xb123b6f9	-2.382363e-09
136	0x3b9b9bb2	0.004748785
137	0x048630c5	3.1548036e-36
138	0xa93ecbfc	-4.2365403e-14
139	0x2c0ea4e4	2.0270946e-12
140	0xbb53e5b1	-0.0032332952
141	0xbb9e9be3	-0.0048403605
142	0x298ebff3	6.339365e-14
143	0x328bdcc4	1.6282122e-08
144	0xb6cc4868	-6.088103e-06
145	0xb374efc3	-5.702874e-08
146	0xbad2369f	-0.0016038007
147	0x19d122f1	2.1624206e-23
148	0xb5c8ecd3	-1.4970086e-06
149	0x3a6d85b9	0.0009060759
150	0xb383ac7f	-6.13154e-08
151	0x834b16e4	-5.9682615e-37
152	0x391ebed5	0.00015139145
153	0x252b85d2	1.4877226e-16
154	0x884f38fa	-6.235877e-34
155	0x309879bc	1.1094055e-09
156	0xa9112abf	-3.2233544e-14
157	0x839c13c2	-9.173392e-37
158	0xaecfcb78	-9.4494135e-11
159	0x3b80bbdc	0.0039286446
160	0xb330673a	-4.1072077e-08
161	0x83bb2e13	-1.100145e-36
162	0x3987812d	0.0002584545
163	0x29b82ea2	8.179331e-14
164	0x358ae808	1.0349331e-06
165	0x0f4c7200	1.0079932e-29
166	0x1b2a4063	1.4082875e-22
167	0x82696990	-1.7148431e-37
168	0x1a306c39	3.648337e-23
169	0x2e0b9969	3.1741196e-11
170	0xa42f8a07	-3.806399e-17
171	0xbb204521	-0.0024455267
172	0x3aac674d	0.0013153345
173	0x3773f39a	1.4540647e-05
174	0x39d20434	0.00040057453
175	0x19a22148	1.676385e-23
176	0x359dba09	1.1751555e-06
177	0xad650a26	-1.3019396e-11
178	0xb5b29401	-1.3305108e-06
179	0xb986610a	-0.0002563077
180	0x01b25ac2	6.5517104e-38
181	0x35f2bd62	1.8085523e-06
182	0xb789ddd4	-1.643497e-05
183	0x3b4d02fa	0.0031282292
184	0x8350f555	-6.1407334e-37
185	0xb789d9f1	-1.643316e-05
186	0x8a334c78	-8.632919e-33
187	0xb681dd1a	-3.870239e-06
188	0xb8011be6	-3.078198e-05
189	0x3b9f7682	0.004866422
190	0x83c10f49	-1.134703e-36
191	0x323c5f12	1.0964657e-08
192	0xbb002353	-0.0019552305
193	0x398a0e34	0.00026331993
194	0xb54f6eef	-7.727494e-07
195	0xa09d9424	-2.6694866e-19
196	0x031ee02b	4.668936e-37
197	0x3ba1e6fb	0.004940865
198	0x95d9dd93	-8.7995184e-26
199	0xb91a0e47	-0.00014691903
200	0x2e1a2284	3.5046202e-11
201	0x39a61824	0.00031679973
202	0xafb18c75	-3.2295913e-10
203	0x3a28d760	0.0006440785
204	0xa118e5d2	-5.180377e-19
205	0x836be362	-6.9321316e-37
206	0x3b8d7201	0.004316569
207	0xb8a510a2	-7.870911e-05
208	0x03107c9c	4.246084e-37
209	0x3320b4d2	3.7417358e-08
210	0x2d093348	7.798935e-12
211	0xb95f879e	-0.00021317459
212	0xb593deba	-1.1017175e-06
213	0xb18212c8	-3.785633e-09
214	0x384c3db9	4.8694874e-05
215	0x2fec4a7f	4.2981083e-10
216	0xb4547b36	-1.9788862e-07
217	0x39f88289	0.00047399502
218	0x38dd10c2	0.000105412226
219	0x393bb3b6	0.00017900657
220	0x392459fa	0.00015673778
221	0x3255c18b	1.2442238e-08
222	0xb6a88684	-5.02245e-06
223	0x03a23807	9.5343675e-37
224	0x369770b2	4.51327e-06
225	0x253a6f19	1.617057e-16
226	0xa4876948	-5.872527e-17
227	0x33b5f9bc	8.473896e-08
228	0x83dce33c	-1.2982608e-36
229	0x0315ef4c	4.4061864e-37
230	0x8e34dca3	-2.2292946e-30
231	0xb90a162e	-0.00013168968
232	0x8368113d	-6.819846e-37
233	0x37a8d16e	2.0124684e-05
234	0xb48179b6	-2.411668e-07
235	0xba6b4905	-0.00089754193
236	0x3897a998	7.2318304e-05
237	0x3ac7c840	0.0015242174
238	0x831a9a69	-4.5433787e-37
239	0xacea8249	-6.6651446e-12
240	0xaf41632e	-1.7588483e-10
241	0x318a71c5	4.0292627e-09
242	0xb638f972	-2.7563333e-06
243	0x3aeed441	0.0018221216
244	0x37354f33	1.0806881e-05
245	0xb3d705c6	-1.0012768e-07
246	0x37b144e2	2.113212e-05
247	0x386da4e1	5.665876e-05
248	0x0291d85a	2.1430015e-37
249	0xbb854789	-0.0040673655
250	0x3b5fde44	0.003415958
251	0x833a3e20	-5.4731803e-37
252	0x82d179c2	-3.0779675e-37
253	0x83d69785	-1.2612577e-36
254	0xab1fd35b	-5.678146e-13
255	0x3adebf6e	0.0016994306

rnn.weight_hh_l2 f4 [16, 16]
0	0x3a973324	0.0011535627
1	0x2d6b5b56	1.3378484e-11
2	0xba22556a	-0.0006192537
3	0x340c3243	1.3056801e-07
4	0x3a177e73	0.0005779035
5	0xbb0a75f0	-0.0021127425
6	0xbb4ba3bf	-0.0031072942
7	0x0b05e263	2.5785183e-32
8	0x35731526	9.055533e-07
9	0x3a202c52	0.000611012
10	0x83286440	-4.9485844e-37
11	0xb0d46e92	-1.5456456e-09
12	0x3540779d	7.1699634e-07
13	0x835d3b2d	-6.5013993e-37
14	0x38e6000a	0.00010967262
15	0x2f24fe34	1.5006024e-10
16	0x03264bd6	4.887007e-37
17	0x389ff547	7.627397e-05
18	0x39e76c73	0.00044140554
19	0xb5d3deeb	-1.5785603e-06
20	0x831271e8	-4.30363e-37
21	0xbb67a7e1	-0.0035347866
22	0xba164431	-0.0005732207
23	0x2a34a2f0	1.6043742e-13
24	0xa507d00f	-1.1779876e-16
25	0x3ae4aefa	0.0017447167
26	0x164247d5	1.5693861e-25
27	0x035de8b4	6.5213193e-37
28	0x0325fad2	4.877707e-37
29	0x83d8883e	-1.2726619e-36
30	0x33727811	5.6454216e-08
31	0x3870101a	5.7235455e-05
32	0xaa431723	-1.7327506e-13
33	0x3006e12e	4.9068916e-10
34	0x352bc698	6.3991456e-07
35	0x308a0335	1.0041733e-09
36	0xb6490f02	-2.996007e-06
37	0x38a30608	7.773569e-05
38	0xb781cbd5	-1.5472915e-05
39	0xb5820322	-9.686667e-07
40	0xbb59170d	-0.0033125312
41	0x3947d3f6	0.0001905708
42	0xb56983cf	-8.699107e-07
43	0x82edbe6d	-3.493332e-37
44	0xafb76d55	-3.336519e-10
45	0xb546d6f1	-7.407353e-07
46	0xbb958bcd	-0.0045637847
47	0xb9230e31	-0.00015550178
48	0x1f609ccd	4.7563548e-20
49	0x382e9f81	4.1633382e-05
50	0x98bb01f2	-4.834033e-24
51	0x82ffd21a	-3.7589475e-37
52	0x2d41892a	1.1001236e-11
53	0x3661e6c2	3.3661931e-06
54	0x3b9dc065	0.004814195
55	0x2a825751	2.3153227e-13
56	0x37e60296	2.741934e-05
57	0x81773324	-4.5403427e-38
58	0xb9a1de18	-0.00030873786
59	0xb70abf27	-8.269947e-06
60	0x83126a60	-4.3027656e-37
61	0xb405462f	-1.2412123e-07
62	0x33a2e8ec	7.586081e-08
63	0x03078af0	3.9832427e-37
64	0x82bf8a87	-2.8144438e-37
65	0x37d859fa	2.5791105e-05
66	0x38681b86	5.5338744e-05
67	0x8363cd75	-6.6945158e-37
68	0x03bf04fc	1.1227115e-36
69	0x03c7eed2	1.1750999e-36
70	0x3b7d1ecd	0.0038623095
71	0x3af74a6f	0.0018866787
72	0x280fa648	7.974151e-15
73	0xb58c1106	-1.0435767e-06
74	0xb8a8133f	-8.014449e-05
75	0x30d1703c	1.523865e-09
76	0x03ab4e78	1.0068492e-36
77	0x0239a727	1.3639624e-37
78	0x823cb961	-1.386526e-37
79	0x02cb48d3	2.9869968e-37
80	0x39c1fdc6	0.00037000905
81	0x03094e6c	4.0350705e-37
82	0x3b865480	0.0040994287
83	0xbb99bdbf	-0.004691809
84	0xaedafde9	-9.958596e-11
85	0x02ab8288	2.5201113e-37
86	0x03055914	3.9187444e-37
87	0xb90e6f99	-0.00013583749
88	0x2d6a41e7	1.3315993e-11
89	0xbb8aed65	-0.0042397254
90	0x8324e154	-4.8453932e-37
91	0x03c43a7b	1.1533271e-36
92	0x83330274	-5.260619e-37
93	0x02fa2c6e	3.67597e-37
94	0x03347426	5.3030578e-37
95	0xae1af402	-3.523227e-11
96	0x3a8d62c0	0.0010786876
97	0x034236ed	5.7074528e-37
98	0x35d38473	1.5759273e-06
99	0xb6b1ed53	-5.3026392e-06
100	0x032fcfd2	5.1666444e-37
101	0x260a3629	4.795177e-16
102	0x03762afd	7.234225e-37
103	0xa7d93561	-6.0287473e-15
104	0x2ed76841	9.795587e-11
105	0xb97ada5e	-0.00023923206
106	0x336b70d6	5.4817825e-08
107	0x3b8cba86	0.0042946963
108	0x3b2843d8	0.0025675204
109	0xb8992495	-7.3024225e-05
110	0x03c42c9a	1.1530085e-36
111	0xba276fb2	-0.00063871883
112	0x033b99aa	5.513076e-37
113	0x39143b95	0.00014136576
114	0x339de5a5	7.352654e-08
115	0x3a4616a7	0.0007556476
116	0x3ae209f7	0.0017245401
117	0xbb10eae7	-0.002211267
118	0x3abc7016	0.0014376666
119	0xb8a8bb7e	-8.0457874e-05
120	0x8307cf30	-3.9910774e-37
121	0x02a9c3ec	2.4944772e-37
122	0x012adcba	3.1382432e-38
123	0xbb1b7862	-0.0023722877
124	0xba295793	-0.0006459888
125	0x3412bdb7	1.3666327e-07
126	0x3837fd03	4.3866236e-05
127	0xb2f2c5b2	-2.826241e-08
128	0xb4e3970f	-4.2391954e-07
129	0x39a18688	0.00030808547
130	0x3a33d59f	0.000686014
131	0x0310b821	4.2529166e-37
132	0x83a89ac9	-9.9096895e-37
133	0x34ae3174	3.2446007e-07
134	0x399c3610	0.00029794918
135	0x02ac0813	2.5277763e-37
136	0xb53b6b65	-6.981921e-07
137	0x83ace8ba	-1.0162683e-36
138	0xbb8e5933	-0.0043441295
139	0x36ddfe8f	6.6159478e-06
140	0x39f6c06e	0.00047064148
141	0x03178b5c	4.453489e-37
142	0xb9933f6c	-0.00028085278
143	0x83ea0ab8	-1.3755745e-36
144	0xbaa9df86	-0.0012960292
145	0x8329d206	-4.990573e-37
146	0x3266fbe9	1.344504e-08
147	0xb7287849	-1.0041586e-05
148	0x186020e0	2.896792e-24
149	0xa408c463	-2.9656645e-17
150	0x3a64aac9	0.0008722959
151	0x29234a97	3.6257967e-14
152	0x37a8f978	2.0143329e-05
153	0x3b96cc5f	0.0046019997
154	0x2b4cb7bb	7.2730336e-13
155	0x3a55415c	0.00081350445
156	0xb6607e74	-3.3452206e-06
157	0xb6c92555	-5.994613e-06
158	0x3ab62e1d	0.0013899241
159	0x03473bb6	5.854939e-37
160	0x1d14deb7	1.9702778e-21
161	0x34435664	1.8192219e-07
162	0x36d7ecf7	6.4350857e-06
163	0x0713454a	1.1079413e-34
164	0x3b046660	0.0020202622
165	0xbb61158f	-0.0034345125
166	0xb91ae63e	-0.00014772356
167	0xba45fc5c	-0.0007552558
168	0xb240331b	-1.1187491e-08
169	0xb3bcd781	-8.793632e-08
170	0xadabf8fd	-1.9551022e-11
171	0x033f761e	5.6265447e-37
172	0x37b89453	2.2003578e-05
173	0x943b6319	-9.460631e-27
174	0xb81bb9f5	-3.7128066e-05
175	0x8126df6c	-3.0649682e-38
176	0xb75d76ba	-1.320027e-05
177	0xad8f8296	-1.631521e-11
178	0xb79203ad	-1.7406268e-05
179	0x3b3d7a00	0.002891183
180	0xa7360ffa	-2.5266235e-15
181	0xb6bc5883	-5.6131407e-06
182	0x25854b1f	2.3122726e-16
183	0x37c716b6	2.3733224e-05
184	0x830297dd	-3.8377897e-37
185	0x1a0f44b1	2.9627195e-23
186	0x37130d13	8.764927e-06
187	0x35fd0470	1.885126e-06
188	0x8b20d38b	-3.0974026e-32
189	0xb9b292b1	-0.000340601
190	0x117abe40	1.9780148e-28
191	0x39ce7af4	0.0003938299
192	0x2405800c	2.8948238e-17
193	0xac2264f3	-2.3077623e-12
194	0x3a97574b	0.0011546401
195	0x22e06c53	6.0830014e-18
196	0x34de033c	4.1353076e-07
197	0xa79cddc1	-4.3539124e-15
198	0x37445ff8	1.1704855e-05
199	0x3b952bbb	0.004552332
200	0x3a195487	0.00058490824
201	0x33929c98	6.827139e-08
202	0x340d0e58	1.3136867e-07
203	0xbba00ba7	-0.0048842016
204	0x3b9fbc9b	0.0048747784
205	0xb9caa8b1	-0.00038654127
206	0xba2e43b0	-0.00066476595
207	0xb98bbafa	-0.00026651454
208	0x0195feeb	5.5099745e-38
209	0xb66f8ad3	-3.5694582e-06
210	0x3933242d	0.00017084247
211	0xb723544e	-9.735186e-06
212	0x34761115	2.291675e-07
213	0xa9b27659	-7.925318e-14
214	0x2d95fa4c	1.7050493e-11
215	0x9ca27932	-1.0751589e-21
216	0xbb6c8662	-0.003609084
217	0xba11272e	-0.0005537149
218	0x359d3cf9	1.1715157e-06
219	0x82e55b44	-3.370091e-37
220	0xa6b589db	-1.2596764e-15
221	0xb833a704	-4.283247e-05
222	0xbb955dcf	-0.004558302
223	0x3a16788e	0.000574001
224	0x37b38012	2.13981e-05
225	0x2964a751	5.0771294e-14
226	0x30dd6087	1.6107301e-09
227	0x2f3df518	1.7276525e-10
228	0x998b961a	-1.4432889e-23
229	0xb04495c9	-7.151724e-10
230	0xbabc7a0f	-0.0014379638
231	0x33fde107	1.1822163e-07
232	0xbad44873	-0.0016195908
233	0xbaf6a3ce	-0.0018817128
234	0xb12b64af	-2.4941007e-09
235	0x30901270	1.0482619e-09
236	0xbb2fa378	-0.0026800316
237	0xbb02592d	-0.0019889579
238	0x2688a4a1	9.481518e-16
239	0x3a1e7f29	0.000604617
240	0x3b20bde6	0.002452725
241	0x39878897	0.00025850974
242	0x81929e78	-5.385932e-38
243	0x31210031	2.3428692e-09
244	0x015cf434	4.0582825e-38
245	0x396b1317	0.00022418458
246	0x0e044e36	1.6307913e-30
247	0xba37cb65	-0.0007011204
248	0x83a89592	-9.908492e-37
249	0xb9a9ce7c	-0.00032388035
250	0x25cdb145	3.5681954e-16
251	0x033efc8d	5.6125896e-37
252	0xb66642b4	-3.4311497e-06
253	0xbaa1e23b	-0.0012350747
254	0x3a577d86	0.00082203036
255	0xb292ad7b	-1.7075527e-08

rnn.bias_ih_l2 f4 [16]
0	0xbaadfbc9	-0.001327389
1	0xbb6dfb7e	-0.003631323
2	0x3795edf5	1.7872992e-05
3	0x8332d1a6	-5.2550163e-37
4	0x03ab96aa	1.00850675e-36
5	0xb6ac49ce	-5.1345914e-06
6	0xade9e0f3	-2.658893e-11
7	0x323764d5	1.06749285e-08
8	0x3b9451ea	0.0045263665
9	0x37390781	1.1028606e-05
10	0xbb8f14c1	-0.0043664877
11	0x387c5b06	6.0166254e-05
12	0x3b3e51d3	0.002904047
13	0x304c1aa2	7.4252615e-10
14	0x1f9a7758	6.5418975e-20
15	0xbb645c71	-0.0034845138

rnn.bias_hh_l2 f4 [16]
0	0xac459320	-2.8077055e-12
1	0xb9b14d8a	-0.00033817842
2	0xbb7b91a1	-0.0038386362
3	0x3af516f0	0.0018698853
4	0x36388ba6	2.7499423e-06
5	0x2ed1eef1	9.546664e-11
6	0x39d88b54	0.00041302538
7	0x963dc9e4	-1.5331004e-25
8	0xba9f7231	-0.0012164769
9	0x3935aaf0	0.00017325184
10	0x39b569c6	0.00034601818
11	0xb2376f3b	-1.0677293e-08
12	0x8332add4	-5.2509044e-37
13	0xb369d295	-5.4441063e-08
14	0x3956a6f0	0.0002047082
15	0xb59a9ee8	-1.1520142e-06
