TPnet/models/DNNs/PrevGraphs/VanillaRNN-15_10-11_09.pth (torch, 431549 bytes, 513 tensors)

fc.weight f4 [1, 16]
000000 e2 de 41 be b9 96 b3 bd bb 5d 86 bd f7 93 a8 3d
       -0.1893268 -0.087689824 -0.065608464 0.08231347
000010 c1 1b b8 3d ef 40 43 be 82 87 7d be 91 9a 97 bd
       0.08989669 -0.19067739 -0.24758723 -0.07402528
000020 fb e1 dc 3d 9b d2 9f bd 90 f0 ce bb b9 c2 03 3e
       0.1078529 -0.07803842 -0.0063152984 0.1286725
000030 0d 63 ca 3c 0a 2c 0d 3d 0e 26 c1 3d 3e 43 3f bc
       0.024705434 0.034465827 0.094310865 -0.011673747

rnn.weight_ih_l0 f4 [16, 86]
000000 98 fc 6c 03 f0 38 d3 03 fa 67 63 83 c9 08 74 83
       6.964413e-37 1.2414538e-36 -6.6828664e-37 -7.171524e-37
000010 ef 83 64 83 d5 ce 6e 83 1e 6f 6b 83 e4 7d 6e 83
       -6.715463e-37 -7.0179345e-37 -6.918785e-37 -7.008643e-37
000020 28 a5 3a 03 a2 a4 68 83 17 fb 78 83 ea 48 68 83
       5.4850077e-37 -6.836766e-37 -7.3168887e-37 -6.8262374e-37
000030 ca d3 1a 03 14 bd 66 03 97 26 65 03 67 dd 65 83
       4.5499654e-37 6.7807976e-37 6.734135e-37 -6.755121e-37
000040 90 b9 75 03 2c e7 6b 83 f9 42 4f 03 03 e3 68 83
       7.2212044e-37 -6.9325665e-37 6.0908713e-37 -6.843927e-37
000050 c0 d4 45 83 b5 0d 66 83 67 1f 61 03 2e d2 75 83
       -5.813732e-37 -6.760666e-37 6.6157605e-37 -7.2240303e-37
000060 5c 55 54 03 ca 90 71 03 42 2d 75 03 5f ff 69 03
       6.239919e-37 7.0989744e-37 7.2050982e-37 6.8765698e-37
000070 74 a1 77 03 55 bd 76 83 cb 75 6a 03 5f 10 62 03
       7.2772115e-37 -7.2510245e-37 6.890164e-37 6.6434224e-37
000080 cc 2e 28 03 93 4d 6f 03 dc 39 72 03 40 6d 66 83
       4.9424483e-37 7.032484e-37 7.1183828e-37 -6.771634e-37
000090 d4 da 74 03 87 84 75 83 e5 35 69 03 02 3f 73 03
       7.195636e-37 -7.2151163e-37 6.8534414e-37 7.148361e-37
0000a0 d9 ad 67 03 02 70 0c 83 1e 4a 6e 03 d8 a3 1a 83
       6.8084366e-37 -4.127088e-37 7.0026996e-37 -4.5444616e-37
0000b0 3b 19 6f 83 62 35 83 03 a8 f9 6b 03 30 08 6b 03
       -7.026475e-37 7.711744e-37 6.9346884e-37 6.906969e-37
0000c0 76 c7 55 02 4f d1 68 83 99 b4 5e 83 59 1e 6b 83
       1.5706011e-37 -6.8418947e-37 -6.5447252e-37 -6.909513e-37
0000d0 2e 1d 61 83 4d 13 5b 83 ed 85 5c 83 db 36 2c 83
       -6.6155054e-37 -6.438047e-37 -6.480593e-37 -5.060923e-37
0000e0 e0 99 72 03 0a 9e 40 03 ae 8f 66 03 02 c1 31 03
       7.129405e-37 5.660515e-37 6.775586e-37 5.2237187e-37
0000f0 47 81 66 83 0a 09 5f 03 78 79 68 83 4a 25 75 03
       -6.773933e-37 6.5544186e-37 -6.831811e-37 7.2041835e-37
000100 01 15 68 03 ee cc 64 03 d1 b0 66 83 e8 f4 7a 03
       6.8202784e-37 6.7238426e-37 -6.77939e-37 7.3749536e-37
000110 74 d0 2e 03 62 70 66 03 24 43 56 03 dc 8b 64 83
       5.1373297e-37 6.7719934e-37 6.296602e-37 -6.716373e-37
000120 93 a1 67 03 15 a7 68 83 1e 69 6b 83 3a 49 6e 83
       6.8070277e-37 -6.8370473e-37 -6.918096e-37 -7.0025974e-37
000130 6b 4c 60 03 88 32 74 03 30 20 7b 83 09 74 e3 82
       6.5915407e-37 7.1763162e-37 -7.379922e-37 -3.3421253e-37
000140 6c 5a 69 03 f8 42 5e 83 a8 93 64 03 a1 b5 5d 03
       6.8576345e-37 -6.5316813e-37 6.717268e-37 6.5154563e-37
000150 04 ee 63 83 44 d3 64 03 22 72 a7 82 db 9c 61 03
       -6.6982533e-37 6.72457e-37 -2.4603954e-37 6.630162e-37
000160 69 e2 e4 03 cb 73 6c 03 ec 3b 74 03 fd 90 4d 03
       1.3452617e-36 6.948709e-37 7.1773942e-37 6.0410524e-37
000170 ef 30 6a 03 20 e4 b9 82 df eb 5b 83 c2 b7 56 83
       6.8822593e-37 -2.7314244e-37 -6.4629082e-37 -6.309989e-37
000180 11 a1 65 83 d4 42 74 03 6e b2 73 83 43 b0 6e 03
       -6.7481947e-37 7.178187e-37 -7.161611e-37 7.0144252e-37
000190 17 e1 5a 83 61 6d 77 03 25 a3 58 03 b3 59 73 03
       -6.4322833e-37 7.2712337e-37 6.3663976e-37 7.151425e-37
0001a0 dd 77 6b 03 62 59 6c 03 1a 72 71 03 84 45 6c 03
       6.919789e-37 6.9456773e-37 7.0954517e-37 6.9433967e-37
0001b0 46 e9 72 03 c8 bc 6f 03 d7 de 5c 03 da cd 30 83
       7.1385193e-37 7.0452498e-37 6.4907997e-37 -5.1958057e-37
0001c0 f6 db 51 03 cf 46 5e 03 1b 4c 73 03 91 cc 6a 83
       6.1672083e-37 6.532122e-37 7.1498647e-37 -6.900125e-37
0001d0 c9 21 67 03 e4 16 40 03 96 b1 76 83 44 37 23 83
       6.792358e-37 5.6450006e-37 -7.249676e-37 -4.7964837e-37
0001e0 fc 1e 66 03 b2 5b 2e 03 71 d5 6d 83 07 11 6f 83
       6.7626493e-37 5.1239265e-37 -6.989306e-37 -7.0255334e-37
0001f0 91 50 66 03 59 eb 66 83 d4 ba 69 03 fd 23 66 83
       6.768341e-37 -6.786109e-37 6.8687014e-37 -6.7632238e-37
000200 eb a5 3c 83 22 ef 66 03 08 23 d9 82 fc 71 71 83
       -5.54387e-37 6.7865436e-37 -3.1905391e-37 -7.0954382e-37
000210 51 5a 70 83 44 5a 00 03 6e 73 64 03 7b 4a 1d 03
       -7.063334e-37 3.771944e-37 6.7135685e-37 4.6223653e-37
000220 b3 e1 79 83 12 91 6e 83 3b c1 62 03 25 66 71 03
       -7.3433613e-37 -7.0108446e-37 6.663725e-37 7.094079e-37
000230 f7 e4 6b 83 80 1e 6e 83 16 12 7a 83 19 98 51 03
       -6.932313e-37 -6.9976926e-37 -7.348916e-37 6.159418e-37
000240 20 fb 6c 83 86 4a 68 03 e5 f5 6a 83 41 4b 40 03
       -6.9642444e-37 6.826422e-37 -6.9048693e-37 5.6510116e-37
000250 5f d5 67 83 43 25 67 03 f9 05 74 03 e6 1a 64 83
       -6.8129737e-37 6.7927573e-37 7.171201e-37 -6.7034056e-37
000260 88 9e 5a 83 11 59 6b 83 47 0f 60 03 39 ef 50 83
       -6.4246427e-37 -6.9162536e-37 6.584522e-37 -6.140032e-37
000270 93 97 67 83 26 b0 66 83 21 12 64 03 50 7e 52 83
       -6.8058797e-37 -6.7793134e-37 6.702399e-37 -6.1858453e-37
000280 df 33 5e 03 45 b7 67 03 b2 94 76 03 71 88 62 03
       6.529948e-37 6.809518e-37 7.2463596e-37 6.657206e-37
000290 28 37 64 03 89 cc 58 83 a9 f9 1f 03 8e 93 6c 83
       6.7066494e-37 -6.371149e-37 4.7012496e-37 -6.952355e-37
0002a0 71 b1 6b 83 ea 52 6b 03 63 27 5e 83 ac 2a 77 03
       -6.9263986e-37 6.9155474e-37 -6.528515e-37 7.263576e-37
0002b0 6a 6b 71 83 8c 1a 59 83 b6 e6 50 03 4d ad e1 02
       -7.094684e-37 -6.3801043e-37 6.139055e-37 3.3160248e-37
0002c0 c9 02 41 03 a7 9b 6f 03 96 a9 71 83 9d 7f 69 83
       5.67208e-37 7.0414468e-37 -7.101821e-37 -6.861904e-37
0002d0 5b 95 67 03 89 0a 60 83 4f e3 64 03 34 fe 6c 03
       6.805625e-37 -6.5839777e-37 6.7264115e-37 6.9645978e-37
0002e0 5f fd 1d 83 44 fd 13 03 57 c5 63 03 6a e9 10 03
       -4.642901e-37 4.349015e-37 6.693584e-37 4.2585743e-37
0002f0 d4 65 50 83 90 91 6e 03 76 a1 72 03 80 17 6e 03
       -6.12426e-37 7.010901e-37 7.1302756e-37 6.996889e-37
000300 d3 b4 76 83 c9 5b 7a 03 bc 1d 58 83 32 56 62 03
       -7.250048e-37 7.357376e-37 -6.351083e-37 6.651438e-37
000310 ae 39 6f 83 3d 85 6d 03 df 7b f2 82 aa 88 5f 03
       -7.0302e-37 6.980099e-37 -3.5629803e-37 6.5690693e-37
000320 38 16 56 83 b4 66 6e 03 27 3f 77 83 cb d1 6d 03
       -6.2914454e-37 7.005981e-37 -7.265927e-37 6.988887e-37
000330 52 6e 6d 03 1a 66 7a 83 1a ae 67 83 f0 d6 5b 03
       6.977468e-37 -7.3585604e-37 -6.8084658e-37 6.460505e-37
000340 50 7d 5c 03 32 0a 69 03 8a ab 4a 83 b1 da 6c 83
       6.479604e-37 6.848425e-37 -5.955938e-37 -6.960521e-37
000350 32 a3 35 83 69 b7 73 03 2c e7 6d 03 14 88 d4 82
       -5.337846e-37 7.1621826e-37 6.9913413e-37 -3.1228705e-37
000360 cc f6 71 03 dd 51 72 83 87 a0 7a 83 11 3f 60 83
       7.1106844e-37 -7.1211383e-37 -7.3652673e-37 -6.590008e-37
000370 5f be 5c 83 a6 14 6d 03 2a a1 49 83 55 fb 5c 83
       -6.4870725e-37 6.9671744e-37 -5.92536e-37 -6.4940704e-37
000380 f8 07 5e 03 7a 9a 64 03 ee 0c 65 83 d4 f5 59 83
       6.5249084e-37 6.718051e-37 -6.7311894e-37 -6.4052765e-37
000390 ff 16 73 03 40 15 70 03 0c 98 77 83 01 14 76 03
       7.143768e-37 7.0554055e-37 -7.2761317e-37 7.2315866e-37
0003a0 4c 5b 55 83 ac e7 67 83 13 2a 77 03 60 53 6c 03
       -6.269988e-37 -6.8150745e-37 7.2635075e-37 6.9449877e-37
0003b0 72 ef 78 83 0d 5e 68 83 05 7d 6f 83 41 fd 71 03
       -7.315552e-37 -6.8286637e-37 -7.0379303e-37 7.1114256e-37
0003c0 43 de 52 03 dc 52 6a 03 76 ae 77 03 17 88 6f 03
       6.1968597e-37 6.8861537e-37 7.2787047e-37 7.039201e-37
0003d0 16 e6 73 03 f8 74 69 83 f0 df 57 83 8e 67 8c 82
       7.1675408e-37 -6.860682e-37 -6.343989e-37 -2.0630589e-37
0003e0 ac a3 5c 03 a5 94 03 83 ff 96 72 03 5c 1e 69 03
       6.4840075e-37 -3.8668076e-37 7.1290743e-37 6.8507397e-37
0003f0 a9 4c 61 83 a2 a2 71 03 fd 30 72 83 4e 5b aa 03
       -6.620956e-37 7.101023e-37 -7.1173644e-37 1.00126645e-36

rnn.weight_hh_l0 f4 [16, 16]
000000 89 45 6b 83 28 d0 ae 83 e8 c7 68 03 f1 b9 64 03
       -6.9140116e-37 -1.0274591e-36 6.8408153e-37 6.721663e-37
000010 53 39 6a 03 37 e2 68 03 ea 6d 52 83 ef 2b 6c 03
       6.8832224e-37 6.8438354e-37 -6.183963e-37 6.94046e-37
000020 4e e4 6c 03 b2 9c 51 03 a9 bf 6a 83 f5 59 66 03
       6.9616248e-37 6.1599457e-37 -6.8986435e-37 6.769419e-37
000030 24 42 69 03 b5 b4 48 03 c0 4f 8d 82 24 e3 5e 03
       6.854847e-37 5.898216e-37 -2.0763862e-37 6.550068e-37
000040 9c 7d 68 83 e4 a6 6b 83 f8 cc 63 83 1c 92 78 03
       -6.8322865e-37 -6.9251874e-37 -6.6944597e-37 7.3048375e-37
000050 8f 4b 72 83 35 4c 5f 83 22 b0 60 83 75 1f 62 03
       -7.1204145e-37 -6.562129e-37 -6.6029874e-37 6.645154e-37
000060 59 ac 3c 03 59 d2 6f 83 73 1b 78 03 c3 5a 66 83
       5.544608e-37 -7.0477255e-37 7.291216e-37 -6.7695115e-37
000070 9c b4 6e 83 2c 94 6f 03 ef 45 63 83 d8 da 70 83
       -7.0149243e-37 7.040588e-37 -6.6789584e-37 -7.078088e-37
000080 74 88 50 03 f6 5c 6a 83 80 ec b0 81 8e 7c 65 03
       6.1282347e-37 -6.8873133e-37 -6.499155e-38 6.7440033e-37
000090 70 6f 74 03 b9 d2 5a 03 db 8a 64 03 85 b3 64 83
       7.183308e-37 6.430634e-37 6.7162576e-37 -6.7209256e-37
0000a0 ee 3e 72 03 5e 8a 71 83 8c 15 70 83 c9 ba 71 83
       7.118965e-37 -7.0982372e-37 -7.0554396e-37 -7.1037953e-37
0000b0 e1 cb 75 83 a5 44 73 83 d5 c6 65 03 f9 28 65 03
       -7.223307e-37 -7.149008e-37 6.75253e-37 6.7344086e-37
0000c0 b3 7c 65 83 bb 14 75 03 de 86 5d 83 8e bb 6c 03
       -6.74402e-37 7.2022826e-37 -6.5100883e-37 6.956947e-37
0000d0 f2 6c 52 83 31 d9 73 83 8e 7e 6b 03 ac 8d 61 83
       -6.1838517e-37 -7.1660605e-37 6.920557e-37 -6.628419e-37
0000e0 54 42 92 02 c5 9b 6f 03 94 61 28 03 04 0e 64 83
       2.1490842e-37 7.04146e-37 4.9482777e-37 -6.7019267e-37
0000f0 85 e3 73 03 47 4b 6b 83 89 00 67 83 75 4a c5 83
       7.167246e-37 -6.9146707e-37 -6.7885413e-37 -1.1595714e-36
000100 31 d0 40 83 62 44 58 03 ea 54 87 02 55 75 6f 83
       -5.666272e-37 6.3555195e-37 1.9885205e-37 -7.037048e-37
000110 14 b8 6a 83 c4 ed 67 83 eb 0f 5c 03 6b 92 e5 81
       -6.897773e-37 -6.815774e-37 6.467046e-37 -8.4331414e-38
000120 40 ef 70 83 66 99 6d 03 1a 28 63 83 2c f3 68 03
       -7.0804307e-37 6.9824133e-37 -6.675534e-37 6.845782e-37
000130 12 d0 73 03 ed 79 71 83 cb 2b 77 03 4c f8 33 83
       7.1650135e-37 -7.09635e-37 7.263705e-37 -5.2888403e-37
000140 b0 25 6e 83 6a ee c1 82 f5 d4 71 03 55 c5 64 83
       -6.9985177e-37 -2.8495644e-37 7.1067997e-37 -6.7229704e-37
000150 34 ed 6b 03 85 2f 9a 03 7e 8c 35 03 c4 e6 67 83
       6.933259e-37 9.0622165e-37 5.3352396e-37 -6.8149705e-37
000160 d4 f5 74 83 d0 32 65 83 13 93 71 03 15 d2 6b 03
       -7.1987352e-37 -6.735538e-37 7.0992368e-37 6.9301455e-37
000170 b6 09 6c 83 cc f5 71 83 a8 f9 6a 83 2d d1 6f 83
       -6.9365314e-37 -7.1105696e-37 -6.905301e-37 -7.047591e-37
000180 cf e8 65 83 75 2c d0 82 5b 02 07 83 54 df 6c 83
       -6.7564303e-37 -3.058837e-37 -3.967564e-37 -6.9610535e-37
000190 04 27 4c 03 3a 69 62 03 cc b7 62 03 2b 8a 73 83
       5.9995e-37 6.6536225e-37 6.662642e-37 -7.156989e-37
0001a0 30 2e 51 03 4f c6 69 83 bf 6c 71 83 3c c1 6d 03
       6.14726e-37 -6.8700193e-37 -7.094837e-37 6.9869862e-37
0001b0 f5 58 6f 03 b6 6e 76 03 30 56 54 83 e3 7a 6c 03
       7.0337905e-37 7.2419992e-37 -6.240014e-37 6.9495234e-37
0001c0 76 2e 4d 03 1d aa 6b 03 f2 1e 6b 03 94 74 e0 81
       6.029742e-37 6.9255574e-37 6.9095817e-37 -8.2451886e-38
0001d0 04 1f 6f 03 0a 5e c2 82 5c 57 55 03 32 b2 31 03
       7.027139e-37 -2.8559714e-37 6.269536e-37 5.2220183e-37
0001e0 b8 9c 5b 83 22 d3 71 83 a2 2f 6b 83 4f 5e 76 03
       -6.453822e-37 -7.1065903e-37 -6.9114973e-37 7.2401164e-37
0001f0 9d 81 65 83 31 b0 52 03 08 54 37 83 9e b5 51 83
       -6.744584e-37 6.191571e-37 -5.387533e-37 -6.1628066e-37
000200 91 fa 58 03 2e 64 6f 03 0b e7 64 03 00 9e 67 03
       6.376433e-37 7.035079e-37 6.7268402e-37 6.8066174e-37
000210 92 38 69 83 a9 92 6c 03 22 fc 64 03 be 39 73 83
       -6.8537485e-37 6.9522524e-37 6.7292612e-37 -7.1477567e-37
000220 a8 ac 66 03 60 5c 44 03 70 81 74 03 26 ff 65 83
       6.7789125e-37 5.7705264e-37 7.1853742e-37 -6.7589948e-37
000230 fd 60 73 03 aa df 6e 83 88 97 34 03 41 15 6f 83
       7.152262e-37 -7.0198668e-37 5.3071195e-37 -7.0260186e-37
000240 35 a3 78 03 2e 8d 56 03 89 21 ac 02 38 f0 2e 03
       7.3068e-37 6.3051014e-37 2.5292377e-37 5.140976e-37
000250 1a 95 71 03 ce b1 6e 83 b8 f2 73 03 e5 ba 6f 03
       7.0994695e-37 -7.0146024e-37 7.168991e-37 7.045033e-37
000260 0e e7 5f 03 68 49 70 83 b6 77 12 83 bd f9 65 83
       6.579905e-37 -7.0613927e-37 -4.3042965e-37 -6.7583737e-37
000270 70 8b 73 03 f7 6b 65 03 ff 2f 68 83 a1 47 6d 03
       7.157135e-37 6.742099e-37 -6.823377e-37 6.9730266e-37
000280 5a fd 68 03 4d b0 1a 03 7c 3a 11 03 42 de 4d 83
       6.8469506e-37 4.5458916e-37 4.2678807e-37 -6.0499225e-37
000290 ad 5a 5f 83 1d 53 66 03 6c d2 66 03 a1 bc e6 82
       -6.56379e-37 6.7686335e-37 6.7832478e-37 -3.390373e-37
0002a0 e3 48 5d 03 1a 91 54 83 8f b8 14 83 b0 b5 69 83
       6.5029733e-37 -6.246777e-37 -4.3705154e-37 -6.8681113e-37
0002b0 e2 57 66 03 c2 91 6e 83 cd 53 6b 83 c8 01 5b 03
       6.769181e-37 -7.0109236e-37 -6.915649e-37 6.436036e-37
0002c0 8e 65 75 83 19 9f 4c 03 f7 ad 68 83 45 88 39 83
       -7.211561e-37 6.0132847e-37 -6.8378374e-37 -5.4523043e-37
0002d0 75 44 68 03 a9 34 39 83 27 3d 79 83 22 a5 6e 03
       6.8257257e-37 -5.4427065e-37 -7.3244723e-37 7.0131477e-37
0002e0 ab f7 62 03 6a 10 71 03 e7 f8 67 03 c2 c5 6a 03
       6.669974e-37 7.0842377e-37 6.8170525e-37 6.8993434e-37
0002f0 4c 7c 60 03 70 cf 63 83 8e ae 5c 03 ce 24 66 83
       6.597037e-37 -6.694743e-37 6.485257e-37 -6.7633175e-37
000300 d8 db 75 83 69 c6 6e 03 53 7b 64 83 6f 65 a0 83
       -7.2251397e-37 7.0169678e-37 -6.7144747e-37 -9.427243e-37
000310 2b 75 85 03 e1 02 76 03 08 bb 71 83 c6 2f 66 83
       7.843938e-37 7.2296207e-37 -7.1038236e-37 -6.7645766e-37
000320 24 cc 6f 03 0c ca 67 03 01 ae 70 03 7e cf 6d 03
       7.047013e-37 6.8116737e-37 7.0729408e-37 6.988623e-37
000330 1e be 6b 03 fa d5 6e 03 a7 f9 61 03 80 93 7e 83
       6.9278537e-37 7.0187547e-37 6.6408144e-37 -7.4813213e-37
000340 38 c2 71 83 f6 f0 66 83 20 74 75 83 e6 04 17 03
       -7.1046487e-37 -6.7867535e-37 -7.2132334e-37 4.4380535e-37
000350 1f 9f 64 83 4b f7 75 03 6d 45 63 83 a2 83 6f 83
       -6.718584e-37 7.2282907e-37 -6.6789e-37 -7.0386895e-37
000360 b6 5b 73 83 dd 9d 65 03 55 81 4d 03 af be 74 03
       -7.151656e-37 6.747827e-37 6.039255e-37 7.192405e-37
000370 49 8a 64 83 fd 31 76 83 c7 c8 69 83 1e d9 6d 83
       -6.716192e-37 -7.2350286e-37 -6.8703027e-37 -6.989728e-37
000380 2f bc 71 03 e8 8f 02 03 87 82 5e 83 05 3e 6e 83
       7.103956e-37 3.8368763e-37 -6.5389775e-37 -7.001311e-37
000390 34 66 5e 03 86 f9 55 83 85 91 72 83 86 7d 6c 03
       6.535726e-37 -6.2881513e-37 -7.1284456e-37 6.949826e-37
0003a0 b5 56 5b 03 bf 03 82 83 f8 0b 65 03 f5 b5 67 83
       6.445785e-37 -7.641573e-37 6.731079e-37 -6.8093675e-37
0003b0 85 1d 78 82 1a c0 6c 83 b5 96 6e 83 9c 83 71 83
       -1.8228634e-37 -6.957469e-37 -7.0114917e-37 -7.0974615e-37
0003c0 44 78 6b 03 b3 35 71 03 04 dc 6e 03 79 3c 6d 83
       6.919835e-37 7.088518e-37 7.019448e-37 -6.971746e-37
0003d0 b1 c4 7a 03 de a9 70 03 3a 47 4e 83 df b3 6e 83
       7.3694188e-37 7.072466e-37 -6.0619723e-37 -7.0148396e-37
0003e0 78 34 6e 03 48 1a 73 83 98 d6 60 83 af f7 66 03
       7.0002145e-37 -7.144145e-37 -6.6074025e-37 6.787525e-37
0003f0 e8 2e 72 83 f8 34 6a 03 df 70 5c 03 76 f1 58 03
       -7.1171254e-37 6.8827225e-37 6.478176e-37 6.375388e-37

rnn.bias_ih_l0 f4 [16]
000000 ac 4b 6e 83 74 d0 76 03 c7 8a 5f 03 5e 4a 5e 03
       -7.002878e-37 7.2532195e-37 6.569312e-37 6.5325306e-37
000010 7c 8c 67 03 8d 62 7a 03 78 2d 77 03 aa 0f 74 83
       6.8046067e-37 7.3581528e-37 7.263897e-37 -7.1723137e-37
000020 ae 46 77 83 55 32 72 83 ae 30 78 83 36 c1 67 83
       -7.2667912e-37 -7.1175187e-37 -7.293653e-37 -6.8106594e-37
000030 e4 00 76 03 6f d7 5f 03 7d 19 69 83 4b c7 3f 03
       7.2293925e-37 6.5781116e-37 -6.8501805e-37 5.6358632e-37

rnn.bias_hh_l0 f4 [16]
000000 60 49 63 83 26 15 b9 02 6a aa 66 83 37 ba 4e 83
       -6.6793535e-37 2.7195445e-37 -6.778655e-37 -6.0751723e-37
000010 4b 00 62 03 9e f6 64 83 f9 cc 68 83 d4 13 75 83
       6.6415767e-37 -6.728628e-37 -6.841397e-37 -7.202179e-37
000020 9f 45 eb 03 e0 6f 73 83 bb 83 57 83 29 99 7b 83
       1.3828043e-36 -7.153971e-37 -6.333404e-37 -7.393809e-37
000030 1b 91 5c 03 e6 16 0c 83 4c 2c 2d 83 0c a2 6a 83
       6.481876e-37 -4.116859e-37 -5.089098e-37 -6.895244e-37

rnn.weight_ih_l1 f4 [16, 16]
000000 5f 99 77 03 e0 55 50 83 d5 16 76 03 74 e0 68 03
       7.2762838e-37 -6.1224286e-37 7.2319112e-37 6.843633e-37
000010 4f 28 6a 03 ad 6a 63 83 3f b9 68 83 3e fc 71 83
       6.881269e-37 -6.683176e-37 -6.8391324e-37 -7.1113094e-37
000020 70 0c 65 03 7e 50 62 03 fc 71 6c 03 9f 60 6f 83
       6.731133e-37 6.650783e-37 6.9485014e-37 -7.0346703e-37
000030 70 eb 73 03 57 f4 64 03 2d 3e 67 03 80 d5 e2 02
       7.168155e-37 6.7283666e-37 6.7956173e-37 3.3330258e-37
000040 26 a4 72 81 b0 54 69 83 dc 42 69 03 d0 ee 66 83
       -4.456615e-38 -6.8569762e-37 6.8549297e-37 -6.786507e-37
000050 cb 3a 72 03 bd 97 72 83 d3 f6 61 03 52 0f 72 03
       7.11849e-37 -7.1291595e-37 6.6404898e-37 7.1134995e-37
000060 a1 1a 74 83 75 6f 77 03 c7 fa 69 03 12 a7 3f 03
       -7.1735724e-37 7.2714723e-37 6.8760424e-37 5.6321643e-37
000070 0c a1 65 01 53 c1 6f 03 54 da d6 02 41 5c 6f 83
       4.2176203e-38 7.0457713e-37 3.1569788e-37 -7.034169e-37
000080 c7 df 64 03 ba b5 6f 03 c4 b4 74 83 b6 7e 63 03
       6.726006e-37 7.04444e-37 -7.1912664e-37 6.685476e-37
000090 59 95 74 83 65 69 6e 03 31 7e 61 83 84 ed 5b 83
       -7.18766e-37 7.00629e-37 -6.626642e-37 -6.463097e-37
0000a0 1b a4 76 03 b1 5e 62 83 a7 b9 4a 03 2b 5f 5c 83
       7.2481286e-37 -6.652413e-37 5.9575583e-37 -6.4761437e-37
0000b0 aa 5a 64 03 2b 90 39 83 d6 02 69 83 1c 20 55 83
       6.7107255e-37 -5.453211e-37 -6.84758e-37 -6.2631934e-37
0000c0 7f 4b 6f 03 5d 06 66 83 63 93 6a 03 6b 70 67 83
       7.0322453e-37 -6.759823e-37 6.893561e-37 -6.801385e-37
0000d0 9a 10 80 82 0f 61 70 83 a7 4b 68 83 72 0e 6c 03
       -1.8817438e-37 -7.064108e-37 -6.8265517e-37 6.937075e-37
0000e0 82 0d 60 83 f8 4b 4c 03 26 34 51 83 60 6c 73 83
       -6.584319e-37 6.003742e-37 -6.1479443e-37 -7.153569e-37
0000f0 40 ab 73 83 74 eb 65 03 25 84 63 83 53 cc 5b 03
       -7.1607867e-37 6.756734e-37 -6.6861e-37 6.459287e-37
000100 32 45 65 03 30 d7 72 03 12 7b 6e 83 2e 7b 63 03
       6.7376484e-37 7.136443e-37 -7.008319e-37 6.6850708e-37
000110 7f de 69 03 b0 a8 6a 03 2a d4 36 03 92 07 7a 03
       6.872796e-37 6.8960063e-37 5.3728545e-37 7.3477087e-37
000120 59 be 65 03 ea bf 2a 83 03 5e 6e 83 a5 53 4e 83
       6.751556e-37 -5.0178816e-37 -7.0049834e-37 -6.063398e-37
000130 45 16 68 03 8f 46 60 83 41 28 67 83 f3 56 67 03
       6.8204237e-37 -6.590868e-37 -6.793101e-37 6.798461e-37
000140 7b bd 63 83 d3 37 56 03 aa ca 74 03 e9 74 65 03
       -6.6926817e-37 6.295303e-37 7.1937802e-37 6.743126e-37
000150 fd 80 75 83 4e 28 68 03 d8 42 6d 83 fc 98 64 83
       -7.21471e-37 6.822494e-37 -6.9724773e-37 -6.7178795e-37
000160 04 5c 73 83 ec d8 ed 02 a0 6c 74 83 2b eb 58 03
       -7.151691e-37 3.4948527e-37 -7.182985e-37 6.3746655e-37
000170 6f dd 70 83 12 20 6c 03 99 78 65 83 68 8e 6c 03
       -7.0783854e-37 6.939098e-37 -6.743549e-37 6.951764e-37
000180 28 b7 70 03 cc 1b 64 03 de ec 01 83 4d 9d 73 03
       7.0739914e-37 6.7035087e-37 -3.8181603e-37 7.1591854e-37
000190 c1 79 4c 83 3f 7a 43 03 8c 5f 78 03 a7 12 70 03
       -6.008998e-37 5.744568e-37 7.299033e-37 7.0551073e-37
0001a0 ad 06 6a 83 ec cd 64 83 3d f2 64 03 78 a7 68 03
       -6.8774083e-37 -6.7239565e-37 6.7281254e-37 6.8370917e-37
0001b0 23 ff 6d 03 8a ac 6c 83 98 24 74 03 15 2b 32 03
       6.9940923e-37 -6.955223e-37 7.1747163e-37 5.2358954e-37
0001c0 ab d1 52 83 8c d2 f2 82 27 4d e9 02 17 fb 6e 03
       -6.195414e-37 -3.5679552e-37 3.4280556e-37 7.023015e-37
0001d0 8c 23 5d 03 b5 62 75 83 61 20 4a 83 f0 79 4d 03
       6.498687e-37 -7.211234e-37 -5.9399634e-37 6.0384063e-37
0001e0 15 87 67 03 1a f3 71 03 3c a5 39 03 89 e4 69 03
       6.8039865e-37 7.11026e-37 5.4556293e-37 6.873489e-37
0001f0 05 5f 66 03 0c 66 23 83 36 a9 11 83 2e 5c 72 83
       6.7700002e-37 -4.801854e-37 -4.2805915e-37 -7.1223225e-37
000200 3a c0 53 83 2e 94 72 03 df fa 71 03 e5 93 65 83
       -6.2227992e-37 7.128751e-37 7.111152e-37 -6.7466826e-37
000210 c4 18 55 83 20 5c b1 83 5f d0 6a 03 54 7a 61 03
       -6.2623504e-37 -1.0424276e-36 6.900562e-37 6.6261983e-37
000220 3c 5d 55 03 f0 53 2f 03 b2 8c 5a 03 2c 51 75 03
       6.27021e-37 5.1524233e-37 6.4225952e-37 7.209221e-37
000230 12 4b 6e 03 85 d7 4b 03 c3 97 6d 03 1d 79 6f 03
       7.002809e-37 5.9903743e-37 6.9822254e-37 7.037482e-37
000240 07 d6 73 83 8b 6f 4f 03 45 5a e0 83 02 19 78 03
       -7.1656973e-37 6.0959878e-37 -1.3186262e-36 7.2909357e-37
000250 3c 44 54 83 c0 f1 71 83 3d c6 66 03 66 7a 61 83
       -6.237953e-37 -7.110105e-37 6.781849e-37 -6.6262064e-37
000260 91 f6 78 83 85 1d b1 02 17 7e 68 03 01 0a 63 83
       -7.3163694e-37 2.6024756e-37 6.8323416e-37 -6.672079e-37
000270 88 2b 6b 03 a2 c3 62 83 4c 36 72 83 13 09 6c 83
       6.9110265e-37 -6.6640006e-37 -7.117974e-37 -6.9364583e-37
000280 f4 09 76 83 c0 b3 73 03 a2 77 f7 82 7c 32 03 03
       -7.230433e-37 7.1617625e-37 -3.6362054e-37 3.8555393e-37
000290 3f 49 66 03 d2 46 78 83 6d 54 5f 03 6c 64 55 03
       6.7675008e-37 -7.2961947e-37 6.5630726e-37 6.2710353e-37
0002a0 f2 db 7a 03 f8 e3 6e 03 7c 4d 72 83 43 ce 63 03
       7.372088e-37 7.020361e-37 -7.1206356e-37 6.694608e-37
0002b0 48 fd 5e 03 98 b3 6e 03 ce af 6a 83 d9 e7 07 83
       6.553069e-37 7.0148077e-37 -6.8968233e-37 -3.9939082e-37
0002c0 a6 f2 73 03 f5 77 14 03 84 95 70 83 26 6c 4a 83
       7.168983e-37 4.3630995e-37 -7.0701297e-37 -5.9486613e-37
0002d0 bc 5c 73 03 93 c7 71 03 49 c5 73 03 1c 7f 6c 03
       7.1517736e-37 7.1052635e-37 7.1637754e-37 6.950008e-37
0002e0 18 75 78 03 91 48 79 83 2b d7 66 83 dc a0 74 83
       7.3015067e-37 -7.3257825e-37 -6.7837926e-37 -7.1889813e-37
0002f0 4c 20 78 83 32 6e 6a 83 0c 8c 6a 83 72 41 5f 03
       -7.2917725e-37 -6.8892918e-37 -6.8927185e-37 6.5608938e-37
000300 93 b6 58 83 77 35 6a 03 db f2 75 03 ec 54 5e 03
       -6.368628e-37 6.8827794e-37 7.2277813e-37 6.533742e-37
000310 05 73 6a 83 99 27 12 83 2d 1f 70 03 02 f3 65 03
       -6.8898455e-37 -4.2951e-37 7.056545e-37 6.757601e-37
000320 d3 88 66 03 9d e6 6b 83 3a ff 5e 83 37 20 62 03
       6.774799e-37 -6.9325024e-37 -6.553292e-37 6.645241e-37
000330 82 7d 76 03 50 51 d5 82 44 f6 47 83 c8 87 45 83
       7.243698e-37 -3.1344208e-37 -5.8763543e-37 -5.8048966e-37
000340 c4 c4 76 03 a5 f8 67 03 9d b9 62 03 c5 c1 77 03
       7.251878e-37 6.817023e-37 6.6628504e-37 7.2809213e-37
000350 6e 79 64 03 6c 71 6c 03 60 25 6a 83 c7 81 59 83
       6.7142572e-37 6.948437e-37 -6.8809324e-37 -6.3919546e-37
000360 7c c6 4d 03 52 5c 6a 03 a3 88 5e 83 67 21 66 03
       6.0471934e-37 6.88724e-37 -6.5396788e-37 6.762927e-37
000370 bc 3d 74 03 25 45 69 03 06 ff 4e 03 18 47 79 83
       7.1776023e-37 6.855192e-37 6.083071e-37 -7.3256135e-37
000380 33 2d 67 83 00 9b 61 03 85 df 08 03 fe db 69 83
       -6.7936685e-37 6.629949e-37 4.0223396e-37 -6.8725085e-37
000390 84 e3 51 83 3b 89 77 83 7f 46 77 83 14 cc 7a 83
       -6.1680755e-37 -7.274431e-37 -7.26677e-37 -7.3702667e-37
0003a0 a7 56 65 03 30 5a 6b 83 13 00 72 83 91 66 68 03
       6.7396524e-37 -6.9163823e-37 -7.1117493e-37 6.8296413e-37
0003b0 79 6a 67 03 72 7f 77 83 fd 98 78 83 10 40 75 83
       6.8007023e-37 -7.2733076e-37 -7.305627e-37 -7.207257e-37
0003c0 b4 3f 80 83 3c 50 6f 03 7a 72 70 83 c2 f3 6d 03
       -7.537789e-37 7.032789e-37 -7.0661074e-37 6.992786e-37
0003d0 0f 2b 68 03 43 32 4c 03 d0 09 6f 03 7a e7 51 03
       6.82281e-37 6.000791e-37 7.024705e-37 6.16853e-37
0003e0 95 22 69 03 30 8a 77 83 e6 51 47 83 3e bf 6f 83
       6.8512244e-37 -7.2745408e-37 -5.857486e-37 -7.0455323e-37
0003f0 6c 4c 6f 83 2a 56 64 83 2f d5 94 82 cb f2 77 03
       -7.0323515e-37 -6.710209e-37 -2.1869007e-37 7.286549e-37

rnn.weight_hh_l1 f4 [16, 16]
000000 a7 7b 6f 03 a8 a3 6e 03 ff 55 d9 83 6a 39 79 83
       7.0377733e-37 7.012978e-37 -1.2773857e-36 -7.324043e-37
000010 bc dc 68 03 9f be 66 83 72 31 d6 01 62 36 30 83
       6.8432063e-37 -6.7809747e-37 7.8682135e-38 -5.178418e-37
000020 0b 34 69 83 39 3e 68 83 8e 42 3c 83 d3 fd 63 03
       -6.853229e-37 -6.82501e-37 -5.5324636e-37 6.700068e-37
000030 c5 ac 71 03 6c 9a 73 83 a0 c5 10 03 dc a6 69 83
       7.1021864e-37 -7.158855e-37 4.254466e-37 -6.866409e-37
000040 a3 4c 6e 03 48 09 67 83 2f 21 54 03 e3 76 64 03
       7.002989e-37 -6.7895453e-37 6.2339293e-37 6.7139653e-37
000050 db 44 66 83 8e 8c 76 03 62 f9 77 83 fb 81 61 03
       -6.7669967e-37 7.245425e-37 -7.2873054e-37 6.6270767e-37
000060 02 c0 68 03 b0 ab 39 03 b5 c3 5c 03 76 b8 66 83
       6.8399087e-37 5.45637e-37 6.487685e-37 -6.7802676e-37
000070 da f4 63 03 c6 2b 6d 03 f8 30 4d 83 70 96 4a 83
       6.699038e-37 6.969829e-37 -6.03003e-37 -5.953516e-37
000080 20 ff 6c 03 9e f0 6d 03 38 81 65 83 32 ec 4e 03
       6.9647036e-37 6.9924255e-37 -6.7445387e-37 6.08091e-37
000090 10 a0 65 83 1b 51 5a 03 b5 df 64 83 52 6b 78 83
       -6.7480794e-37 6.4157547e-37 -6.725998e-37 -7.3003847e-37
0000a0 7b ab 5c 03 8a 5e 1f 03 4c 24 3c 81 4c bc 69 83
       6.484904e-37 4.6834426e-37 -3.4556188e-38 -6.86887e-37
0000b0 e5 18 70 83 8c 9e b6 80 2f 91 76 03 ef 79 62 03
       -7.055824e-37 -1.6770936e-38 7.2459565e-37 6.6555404e-37
0000c0 3b a8 7a 03 54 67 73 03 69 ae 6f 83 cf f7 65 03
       7.3661516e-37 7.1529897e-37 -7.0436e-37 6.758152e-37
0000d0 f5 4f 77 03 20 dc 76 03 80 7b 6c 83 ec 7c 3d 03
       7.2678562e-37 7.2545594e-37 -6.9495938e-37 5.568551e-37
0000e0 a9 38 78 83 dc 3d 6d 03 50 d8 76 03 3b c6 56 03
       -7.2945692e-37 6.971905e-37 7.2541217e-37 6.3116505e-37
0000f0 c9 cc 67 03 61 16 61 83 a4 71 68 83 55 5e d2 02
       6.811988e-37 -6.6147247e-37 -6.8309125e-37 3.091087e-37
000100 27 a8 76 03 80 62 74 03 a1 ad 78 83 61 f1 64 03
       7.248593e-37 7.181823e-37 -7.3079966e-37 6.7280267e-37
000110 22 81 3d 03 5b 12 67 83 45 77 71 03 d6 c7 62 83
       5.5690345e-37 -6.790587e-37 7.096045e-37 -6.664483e-37
000120 1c ad 55 03 ba d9 5d 03 8c 5a 73 83 1e d0 73 03
       6.2793794e-37 6.5196e-37 -7.1515225e-37 7.165019e-37
000130 7a 2a 6f 03 43 42 52 83 c0 22 50 03 d1 0d 6a 03
       7.028455e-37 -6.178952e-37 6.1165597e-37 6.878228e-37
000140 b9 16 68 83 29 bb 73 03 3d b4 62 83 c8 fd 69 03
       -6.8204757e-37 7.162613e-37 -6.6622334e-37 6.8763873e-37
000150 48 02 55 03 80 5b 77 83 fb da 6a 83 42 f2 65 03
       6.2597693e-37 -7.2691813e-37 -6.9017797e-37 6.757515e-37
000160 c0 69 37 03 a3 8b 5e 03 99 23 67 83 0b a7 65 03
       5.390026e-37 6.540023e-37 -6.7925663e-37 6.7488808e-37
000170 a4 94 77 03 11 00 44 83 47 fa 72 83 08 a4 5c 83
       7.2757407e-37 -5.75993e-37 -7.1404713e-37 -6.484049e-37
000180 3c ff 78 03 fd ed 7a 03 73 42 68 83 c6 83 62 83
       7.3173644e-37 7.3741594e-37 -6.8254952e-37 -6.65667e-37
000190 49 23 6b 03 ab ff b7 02 12 4f 6d 83 de 95 51 83
       6.91008e-37 2.703618e-37 -6.973881e-37 -6.159162e-37
0001a0 9e 32 59 03 e4 e4 2b 03 52 e1 67 03 c5 dc 5b 83
       6.3828674e-37 5.0515137e-37 6.8143454e-37 -6.4611747e-37
0001b0 a6 2a 8e 02 06 ce 63 03 b9 81 6f 83 f5 3e 1c 83
       2.0889504e-37 6.6945808e-37 -7.03847e-37 -4.591655e-37
0001c0 4f 49 68 03 30 fb 73 03 e9 ee 48 03 11 b3 6c 83
       6.8262826e-37 7.169963e-37 5.9048973e-37 -6.9559725e-37
0001d0 e2 39 50 83 ff 47 69 83 a7 f2 55 03 c7 e8 6b 83
       -6.1192152e-37 -6.8555193e-37 6.2873625e-37 -6.932751e-37
0001e0 01 c7 79 03 02 a7 6c 03 8e 41 65 03 fd ef 66 83
       7.340297e-37 6.9545882e-37 6.7372305e-37 -6.786642e-37
0001f0 da 50 4a 83 27 2a 58 02 d8 94 62 03 40 27 65 03
       -5.945528e-37 1.5881271e-37 6.6586295e-37 6.734211e-37
000200 8b 79 68 83 d3 0b 65 03 43 a8 10 83 b5 1e 76 83
       -6.8318197e-37 6.7310625e-37 -4.251095e-37 -7.2328153e-37
000210 34 18 6e 83 30 73 79 03 48 2a 5a 83 fe bd 73 83
       -6.9969698e-37 7.330675e-37 -6.411298e-37 -7.162938e-37
000220 25 3f 09 03 22 7c 3d 03 f7 3d 72 83 c6 6a 6e 03
       4.033317e-37 5.5684606e-37 -7.118854e-37 7.0064484e-37
000230 b1 27 76 03 39 00 3a 03 dd d7 36 82 3b e7 72 83
       7.2338466e-37 5.4660743e-37 -1.3433198e-37 -7.138285e-37
000240 9e fb 6c 83 7d 3f 6d 03 54 7d 72 83 f1 f8 6c 83
       -6.964301e-37 6.972092e-37 -7.126128e-37 -6.9639937e-37
000250 14 39 6c 03 e2 22 6c 03 40 59 6a 03 a6 82 76 03
       6.941969e-37 6.939421e-37 6.8868873e-37 7.244288e-37
000260 c8 bb 60 83 1d 49 6a 83 68 03 6a 03 31 f6 5c 03
       -6.6043246e-37 -6.885035e-37 6.877033e-37 6.4934803e-37
000270 eb 13 66 03 6f f8 75 03 2e 50 68 83 8f 76 69 03
       6.761379e-37 7.2284217e-37 -6.8270714e-37 6.8608645e-37
000280 81 6f 72 03 ba a9 56 83 38 dd 74 03 86 57 75 83
       7.124541e-37 -6.3083784e-37 7.19591e-37 -7.20995e-37
000290 9a d4 66 83 e7 b5 72 03 29 11 6b 03 4e 0f 6d 03
       -6.783498e-37 7.132622e-37 6.907999e-37 6.966561e-37
0002a0 64 dc 5d 83 6c 8c 71 03 04 2b 6f 83 00 b7 64 03
       -6.519906e-37 7.098473e-37 -7.0285167e-37 6.721325e-37
0002b0 bc 2a 69 03 23 24 6b 03 71 e3 42 03 f8 90 6a 83
       6.8521603e-37 6.9101776e-37 5.7272566e-37 -6.8932835e-37
0002c0 d7 a3 74 03 66 1f 77 82 b8 ce 6b 03 1c 72 76 03
       7.1893234e-37 -1.8155705e-37 6.9297595e-37 7.2423894e-37
0002d0 a3 01 66 03 6d ae 5f 83 8c 22 78 83 f0 72 76 03
       6.7592804e-37 -6.573404e-37 -7.2920308e-37 7.2424844e-37
0002e0 20 a2 5c 83 20 58 6e 03 55 d4 12 02 57 91 75 03
       -6.48383e-37 7.0043076e-37 1.0787322e-37 7.216587e-37
0002f0 5b eb 2e 03 a9 48 68 03 1e 82 70 83 c3 84 6d 83
       5.140418e-37 6.826208e-37 -7.067903e-37 -6.9800443e-37
000300 50 eb 78 03 5f 0e b5 83 41 b4 cd 82 e0 32 6f 83
       7.3150775e-37 -1.0641523e-36 -3.0225503e-37 -7.029419e-37
000310 03 e2 64 83 99 52 7a 83 01 b4 5d 83 98 f4 08 03
       -6.7262627e-37 -7.3563214e-37 -6.5152697e-37 4.024759e-37
000320 4a 5e 69 83 67 a5 6e 83 8c b8 65 83 00 04 6d 03
       -6.8580784e-37 -7.0131786e-37 -6.75089e-37 6.965263e-37
000330 12 f0 79 83 b0 83 68 83 ed 27 75 83 47 cd 77 83
       -7.345011e-37 -6.832984e-37 -7.204486e-37 -7.2822423e-37
000340 4c a8 d7 01 ef 7f 68 83 b2 4d 6a 83 d6 50 73 03
       7.922002e-38 -6.8325533e-37 -6.885561e-37 7.1504077e-37
000350 30 4a 6a 83 8e 77 6f 03 cf 87 76 03 14 d9 6c 03
       -6.8851583e-37 7.037303e-37 7.2448803e-37 6.960336e-37
000360 76 d3 5e 83 d4 69 76 03 fd 67 66 03 40 6c 6b 03
       -6.548268e-37 7.2414387e-37 6.77103e-37 6.918456e-37
000370 d0 d6 88 83 71 f8 6d 03 de 3b 6c 03 02 fe 6f 03
       -8.04268e-37 6.9933237e-37 6.942289e-37 7.0527374e-37
000380 8e 7c 6d 03 7c c4 71 03 3d be 6a 03 f8 6e 52 03
       6.979102e-37 7.1049088e-37 6.8984802e-37 6.184084e-37
000390 5c 4f 6b 83 e0 db 7a 83 ea 48 6d 03 57 4e 6f 03
       -6.9151393e-37 -7.37208e-37 6.973174e-37 7.0325717e-37
0003a0 9b 76 75 83 33 4f 78 83 5a fe 76 03 d7 fd 78 83
       -7.213518e-37 -7.2971566e-37 7.2584884e-37 -7.3172044e-37
0003b0 36 0b 72 03 65 5c 86 03 46 c2 73 03 70 73 28 03
       7.1130278e-37 7.897025e-37 7.1634297e-37 4.950328e-37
0003c0 cc c2 6c 03 f8 d8 28 83 dd b3 65 03 0e 6a 79 03
       6.9577783e-37 -4.961983e-37 6.7503525e-37 7.329627e-37
0003d0 8a 3d 7a 03 52 a3 76 83 34 03 78 03 6c c4 65 03
       7.353904e-37 -7.2480385e-37 7.2884327e-37 6.7522533e-37
0003e0 be 62 3d 83 e0 dc 5e 83 be 2d 70 03 70 42 72 83
       -5.565546e-37 -6.549349e-37 7.058217e-37 -7.1193675e-37
0003f0 d6 ba 6e 03 67 d7 68 03 ed eb 7a 83 91 bd 79 03
       7.015639e-37 6.842594e-37 -7.3739226e-37 7.3392135e-37

rnn.bias_ih_l1 f4 [16]
000000 71 98 66 83 d5 91 66 03 e0 d7 e0 02 13 9d 75 83
       -6.776592e-37 6.775833e-37 3.3037748e-37 -7.217934e-37
000010 93 63 6d 83 ba c3 6d 83 36 99 68 03 7e 7a 48 83
       -6.9762346e-37 -6.9872723e-37 6.835455e-37 -5.891533e-37
000020 db 3d 69 83 32 10 32 83 65 60 58 83 52 6b 63 83
       -6.8543553e-37 -5.232809e-37 -6.358735e-37 -6.68325e-37
000030 5e dd 65 03 0a 97 51 03 40 2e e6 03 09 1f 75 03
       6.755117e-37 6.1592964e-37 1.35288035e-36 7.2034656e-37

rnn.bias_hh_l1 f4 [16]
000000 3d 78 e3 81 66 54 58 03 06 67 6e 03 a1 52 68 03
       -8.3559164e-38 6.357358e-37 7.006018e-37 6.8273526e-37
000010 0d 9d 5d 03 80 50 29 83 54 9a 6a 83 f2 4a 6e 83
       6.512635e-37 -4.9757046e-37 -6.894358e-37 -7.0027947e-37
000020 cb 5d 61 83 87 b4 71 83 03 75 5a 03 60 99 56 83
       -6.6229226e-37 -7.103077e-37 6.4198765e-37 -6.3065014e-37
000030 a9 73 76 03 87 8d 60 03 4a 6f 6c 83 fc 95 6f 03
       7.2425674e-37 6.599015e-37 -6.948192e-37 7.040796e-37

rnn.weight_ih_l2 f4 [16, 16]
000000 84 d4 5d 03 92 43 6e 83 03 e6 4a 02 3e b4 76 83
       6.519002e-37 -7.001948e-37 1.4906626e-37 -7.249981e-37
000010 31 bc 6c 83 32 dc 68 83 6c 8a 61 03 6a 3f 6b 83
       -6.95702e-37 -6.8431444e-37 6.6280458e-37 -6.913309e-37
000020 bd 10 67 83 99 73 67 03 43 d1 da 02 e8 0a 6c 83
       -6.7904013e-37 6.80175e-37 3.2152331e-37 -6.9366686e-37
000030 1b e5 6e 03 87 fe 5c 83 4f 65 58 83 66 b3 79 03
       7.0204914e-37 -6.4944372e-37 -6.359299e-37 7.3380463e-37
000040 b9 56 ad 82 81 c1 6a 03 3a 90 64 83 af 37 79 83
       -2.5469842e-37 6.898855e-37 -6.716874e-37 -7.3238445e-37
000050 ee f8 c7 02 46 f1 62 03 19 30 74 83 69 b5 40 02
       2.93833e-37 6.66924e-37 -7.176037e-37 1.4157994e-37
000060 0d a4 5d 03 2c c6 6c 83 4f e3 66 83 44 c4 64 03
       6.5134384e-37 -6.9581657e-37 -6.7851863e-37 6.722848e-37
000070 f8 4e 66 03 ca 78 7b 83 b2 d5 57 83 26 50 67 83
       6.7681577e-37 -7.390093e-37 -6.342813e-37 -6.7976805e-37
000080 64 ab 1d 81 82 79 86 83 de fd c2 81 7d b5 66 03
       -2.8959313e-38 -7.903709e-37 -7.1628627e-38 6.7799264e-37
000090 0e e0 71 03 59 84 66 83 58 6d 7a 03 63 56 ff 02
       7.1080737e-37 -6.7742853e-37 7.3593917e-37 3.7518466e-37
0000a0 ca ec 26 03 92 93 77 03 d8 b3 6c 03 43 2b 6d 03
       4.9054836e-37 7.275618e-37 6.9560617e-37 6.9697702e-37
0000b0 4f 91 76 83 bf bf 5d 83 6d d9 13 03 93 a5 73 83
       -7.245971e-37 -6.5166177e-37 4.344901e-37 -7.160135e-37
0000c0 62 7a 70 03 df fc 53 03 d4 0e 68 03 5f 6a 6f 83
       7.067015e-37 6.229761e-37 6.8195694e-37 -7.0357895e-37
0000d0 d0 2f 70 03 a4 45 71 03 76 aa 6d 83 56 83 62 83
       7.0584547e-37 7.090348e-37 -6.984372e-37 -6.6566197e-37
0000e0 9c 8a 13 03 df 95 63 83 43 6d 10 03 d9 79 75 03
       4.3358533e-37 -6.688135e-37 4.2443223e-37 7.2138903e-37
0000f0 ac fb 57 03 99 89 71 83 f3 0d 64 83 b9 84 6a 03
       6.3471727e-37 -7.098149e-37 -6.701919e-37 6.8918778e-37
000100 8e 44 73 03 18 c6 6f 03 a2 b1 57 03 7c 81 54 03
       7.148998e-37 7.046319e-37 6.3386734e-37 6.244984e-37
000110 62 8d 73 03 22 7f 6d 03 f7 4a 66 03 2c f7 5f 83
       7.157358e-37 6.979398e-37 6.767698e-37 -6.581755e-37
000120 25 f9 68 83 b6 ca 62 83 4d b9 65 03 57 fe 66 03
       -6.8464676e-37 -6.664813e-37 6.7509766e-37 6.7882893e-37
000130 e0 54 65 03 0d ab 63 83 3c 70 77 83 d6 c9 79 83
       6.7394483e-37 -6.690566e-37 -7.2715615e-37 -7.340622e-37
000140 f2 e9 70 83 48 8e 77 83 78 18 6f 03 a3 fe 6a 83
       -7.0798217e-37 -7.2750107e-37 7.0263876e-37 -6.905873e-37
000150 b0 32 68 03 61 08 43 03 86 6c 70 83 e2 87 58 83
       6.823686e-37 5.731497e-37 -7.065424e-37 -6.363268e-37
000160 55 70 5c 83 d1 35 4c 03 88 10 aa 81 2a fb 62 83
       -6.478114e-37 6.001199e-37 -6.247186e-38 -6.6703753e-37
000170 da c6 68 83 69 0b 60 03 aa a3 5b 83 30 08 6d 03
       -6.8406943e-37 6.584078e-37 -6.4546193e-37 6.965744e-37
000180 6f 75 6e 83 e0 a8 77 03 8b 41 6d 83 f1 58 64 03
       -7.007672e-37 7.2780635e-37 -6.972328e-37 6.7105278e-37
000190 87 d7 51 83 90 b4 64 83 d4 64 57 83 97 70 76 03
       -6.1666993e-37 -6.7210454e-37 -6.3298566e-37 7.242215e-37
0001a0 e5 26 76 83 b0 06 ae 02 f0 04 6b 03 30 50 68 03
       -7.233755e-37 2.557084e-37 6.906596e-37 6.8270723e-37
0001b0 58 c8 8c 02 6b 2b 63 03 d0 f8 ec 82 4f 58 75 83
       2.0686143e-37 6.6759146e-37 -3.4819895e-37 -7.2100402e-37
0001c0 c3 81 47 03 b0 d4 78 03 5c 58 65 03 48 7c 6c 83
       5.8629803e-37 7.3124803e-37 6.7398483e-37 -6.9496835e-37
0001d0 b5 e1 6f 83 51 82 74 03 60 1d 77 83 28 f2 5f 03
       -7.0494886e-37 7.185475e-37 -7.2620497e-37 6.581179e-37
0001e0 5f 56 5f 03 4c 0c 74 83 30 16 55 03 52 38 25 83
       6.563296e-37 -7.171927e-37 6.2620544e-37 -4.8553795e-37
0001f0 67 12 78 83 74 50 2e 01 70 29 69 83 f9 ca 58 83
       -7.2901775e-37 3.2016475e-38 -6.8520114e-37 -6.3709696e-37
000200 38 0a 64 83 bb bc 74 83 34 1b 64 83 28 38 74 83
       -6.701491e-37 -7.1921807e-37 -6.7034406e-37 -7.176962e-37
000210 09 15 73 03 1f b6 75 03 f6 86 53 03 dc 96 6b 03
       7.143543e-37 7.2208094e-37 6.2162255e-37 6.923347e-37
000220 92 91 73 83 90 9c 6b 03 74 27 aa 83 40 a9 6e 03
       -7.157839e-37 6.924002e-37 -1.000076e-36 7.0136203e-37
000230 cc 1a 6f 83 95 94 77 83 90 55 53 83 6d 81 68 83
       -7.026655e-37 -7.275734e-37 -6.210555e-37 -6.8327246e-37
000240 a1 4e 6e 83 e4 16 6a 03 b4 24 62 03 0b ad 32 83
       -7.0032175e-37 6.8792697e-37 6.6457564e-37 -5.250814e-37
000250 11 65 9d 82 7c e7 73 03 78 dd ca 81 a5 41 57 83
       -2.3127086e-37 7.1677013e-37 -7.4520873e-38 -6.3258178e-37
000260 d0 fb 65 03 fc 64 13 03 20 39 72 83 15 c4 56 03
       6.758612e-37 4.331534e-37 -7.1182985e-37 6.311404e-37
000270 43 b9 73 83 a1 7f 1e 82 35 e3 5b 03 f6 dd 60 83
       -7.162395e-37 -1.1644634e-37 6.4619137e-37 -6.6082482e-37
000280 a2 c5 db 82 8f 15 55 03 c4 e8 48 03 f2 cf 70 03
       -3.2292594e-37 6.261982e-37 5.904192e-37 7.076837e-37
000290 90 26 73 83 cf 14 72 83 63 27 67 03 aa a1 5f 83
       -7.145555e-37 -7.1141295e-37 6.7930012e-37 -6.571939e-37
0002a0 d2 85 6f 83 25 67 59 03 18 3a 74 83 a4 8c 74 83
       -7.0389406e-37 6.3888973e-37 -7.1771844e-37 -7.1866603e-37
0002b0 26 f0 37 03 63 9a 6b 03 23 d8 55 83 b5 ae 69 03
       5.4054543e-37 6.923752e-37 -6.2843187e-37 6.86731e-37
0002c0 cb fe 5f 83 b6 90 5d 83 47 8a 72 83 f9 f2 74 03
       -6.58263e-37 -6.5112183e-37 -7.1276143e-37 7.1984074e-37
0002d0 17 54 67 83 e3 17 6e 03 a2 7e 76 03 02 46 2c 83
       -6.798133e-37 6.9969334e-37 7.243827e-37 -5.062662e-37
0002e0 ca fa 70 83 c3 5a 60 03 84 da 6d 83 60 d4 6d 83
       -7.0817553e-37 6.5931873e-37 -6.9898884e-37 -6.9891835e-37
0002f0 9a 9d 5b 03 f1 40 44 03 4c d0 73 83 9e f6 66 03
       6.4539233e-37 5.7673772e-37 -7.1650395e-37 6.787403e-37
000300 1e ab 63 83 73 7e 66 83 fe 4f 79 03 37 5a f8 82
       -6.6905737e-37 -6.773608e-37 7.326635e-37 -3.6492106e-37
000310 5c c1 52 03 ac 43 74 83 34 05 6b 03 06 76 6e 83
       6.193542e-37 -7.178284e-37 6.9066266e-37 -7.00774e-37
000320 35 3a 64 03 18 65 64 03 92 23 68 03 d4 2c 6b 03
       6.7069996e-37 6.711923e-37 6.8219505e-37 6.9111753e-37
000330 43 5c 63 03 bd 12 69 03 a2 5b 62 83 85 19 70 03
       6.6815216e-37 6.8494056e-37 -6.652062e-37 7.0558956e-37
000340 05 dc 6b 03 61 21 36 03 71 7b 60 83 57 b0 53 83
       6.9312863e-37 5.352331e-37 -6.5969387e-37 -6.2209755e-37
000350 c3 aa 64 03 ae 38 6c 83 d9 29 69 83 5c cf d9 01
       6.7199203e-37 -6.941923e-37 -6.8520585e-37 8.0010757e-38
000360 6c b6 79 03 3e 84 25 03 8d 19 6e 03 cc 62 55 03
       7.3383933e-37 4.864095e-37 6.9971245e-37 6.2708487e-37
000370 e2 e4 fa 02 0e 2c 75 83 93 c6 67 03 68 92 5a 03
       3.686557e-37 -7.20496e-37 6.811275e-37 6.423251e-37
000380 0b 78 75 83 25 48 77 83 9c 70 6c 83 2f 23 63 03
       -7.213683e-37 -7.2669594e-37 -6.9483436e-37 6.6749693e-37
000390 a9 f4 6b 83 64 14 06 01 f7 db 75 03 a7 63 78 03
       -6.934115e-37 2.4626543e-38 7.2251536e-37 7.2995045e-37
0003a0 75 99 69 83 07 3f 6b 83 ae 6c 57 03 34 07 3e 03
       -6.8648706e-37 -6.9132645e-37 6.330758e-37 5.584425e-37
0003b0 06 1d 6a 03 49 44 6a 83 61 f9 7a 03 44 8c 75 03
       6.8799737e-37 -6.8844807e-37 7.375467e-37 7.2160046e-37
0003c0 28 b2 70 03 c5 32 6b 83 2e e9 76 83 ac 32 6f 03
       7.0734174e-37 -6.9118574e-37 -7.256058e-37 7.0293956e-37
0003d0 fb 19 63 83 63 f3 72 83 d7 53 67 03 ad 94 61 03
       -6.673913e-37 -7.1396802e-37 6.798104e-37 6.629223e-37
0003e0 6c 53 68 03 b6 af 3d 03 56 8a 5f 03 44 2a 73 03
       6.8274436e-37 5.5743814e-37 6.569261e-37 7.14598e-37
0003f0 42 8f 42 03 8e 20 df 01 1e b0 70 83 ae c1 59 83
       5.717593e-37 8.1963976e-38 -7.0731834e-37 -6.39929e-37

rnn.weight_hh_l2 f4 [16, 16]
000000 c1 d4 3f 03 c4 82 64 03 05 0b 6f 83 12 8c 27 83
       5.6374085e-37 6.715329e-37 -7.0248437e-37 -4.923768e-37
000010 55 9c 73 83 b2 33 6c 83 ac 5e 6e 03 42 43 79 03
       -7.159074e-37 -6.941351e-37 7.005059e-37 7.325173e-37
000020 81 26 8c 83 d0 23 78 03 06 5a 17 83 24 22 72 03
       -8.2373005e-37 7.292176e-37 -4.4478254e-37 7.11566e-37
000030 4b 00 73 83 0d d4 53 83 60 d3 6c 03 cd db 6d 83
       -7.141162e-37 -6.225075e-37 6.9596813e-37 -6.990036e-37
000040 9e e0 73 03 f5 37 59 83 3a ff 70 03 ad b6 6e 03
       7.166913e-37 -6.3834804e-37 7.0822647e-37 7.0151615e-37
000050 91 92 55 83 e5 4d 6b 83 78 3e 65 83 67 ec 66 83
       -6.2763324e-37 -6.914971e-37 -6.736876e-37 -6.78623e-37
000060 e9 e8 51 03 df 0d a0 82 e7 f7 5f 03 ba 6f 70 83
       6.1686948e-37 -2.3517849e-37 6.581839e-37 -7.0657917e-37
000070 84 9f 6e 03 68 7d 69 83 5d 68 6d 03 b8 27 02 03
       7.012503e-37 -6.8616505e-37 6.9767843e-37 3.824916e-37
000080 6f 6b 6a 83 da 2b 66 03 b7 e6 71 83 59 e8 66 83
       -6.8889747e-37 6.7641264e-37 -7.1088382e-37 -6.7857647e-37
000090 e5 31 52 83 50 47 9a 81 ae ec 77 83 21 9a 6d 03
       -6.177073e-37 -5.6672994e-38 -7.285847e-37 6.982497e-37
0000a0 82 e0 2a 02 0c 05 6e 03 b5 9d 65 83 31 73 63 83
       1.2554058e-37 6.9947707e-37 -6.747809e-37 -6.6841538e-37
0000b0 b8 3a 76 83 e2 10 68 03 39 26 67 83 00 23 72 83
       -7.236031e-37 6.8198053e-37 -6.7928676e-37 -7.1157586e-37
0000c0 f0 45 66 03 c7 0f 7b 83 6e 20 70 03 e9 e6 74 83
       6.767121e-37 -7.378038e-37 7.056689e-37 -7.1970227e-37
0000d0 0a c7 66 03 83 9a 45 82 e9 40 60 83 3c d0 47 03
       6.781941e-37 -1.4517617e-37 -6.5902197e-37 5.8719885e-37
0000e0 49 5e 58 03 c1 75 75 83 a1 0e 6e 03 31 a5 9d 82
       6.358493e-37 -7.2134204e-37 6.9958707e-37 -2.3163892e-37
0000f0 ec e0 68 83 52 5c 74 83 d1 3b 6f 83 60 5e eb 82
       -6.843687e-37 -7.1811134e-37 -7.0304453e-37 -3.4584315e-37
000100 17 9a 76 03 32 76 65 03 9b 7c 73 03 7b 6b 62 03
       7.246979e-37 6.7432733e-37 7.155432e-37 6.6538812e-37
000110 e6 e1 53 03 6b be 6f 83 89 4a 70 03 b1 f3 71 83
       6.2266646e-37 -7.0454377e-37 7.0615223e-37 -7.110328e-37
000120 4e 3d 6d 03 26 1e 5a 83 9a fb ec 02 e2 38 6b 03
       6.9718415e-37 -6.409905e-37 3.4821496e-37 6.912559e-37
000130 71 20 51 03 2a 7f 61 83 60 da 71 83 ef 54 5c 03
       6.145682e-37 -6.6267534e-37 -7.1074217e-37 6.474969e-37
000140 f7 b8 75 83 40 40 d3 03 4f ad 6d 83 13 14 50 03
       -7.221136e-37 1.24162165e-36 -6.984699e-37 6.114875e-37
000150 21 59 04 02 07 75 62 83 71 81 64 03 60 7d 6c 03
       9.723407e-38 -6.654977e-37 6.715177e-37 6.949809e-37
000160 2c 00 72 03 18 68 7b 83 f0 09 70 03 6a d9 71 03
       7.1117606e-37 -7.3881764e-37 7.054107e-37 7.1073114e-37
000170 25 8a 68 83 a3 a3 72 83 20 ed 6b 03 f0 a7 78 83
       -6.8337254e-37 -7.1305254e-37 6.93325e-37 -7.3073433e-37
000180 68 eb 72 83 40 4a 6e 03 51 96 62 83 f1 8d 6a 83
       -7.138764e-37 7.002715e-37 -6.6587986e-37 -6.892936e-37
000190 3a 4c 16 03 c9 99 62 03 f5 80 6f 83 68 66 69 03
       4.416854e-37 6.6591968e-37 -7.0383823e-37 6.8590103e-37
0001a0 2e 62 72 03 7d dc 64 83 e3 e9 64 83 d8 e3 20 03
       7.1230113e-37 -6.7256286e-37 -6.7271667e-37 4.7281326e-37
0001b0 40 d2 74 03 ef 83 68 83 3d 25 69 03 64 fc 6c 03
       7.194651e-37 -6.8330125e-37 6.8515293e-37 6.9643897e-37
0001c0 a1 cf 64 83 c4 61 77 03 79 e3 6d 83 04 c8 6c 03
       -6.7241524e-37 7.2699006e-37 -6.9909166e-37 6.9583773e-37
0001d0 bb b6 60 03 70 2a 69 03 8e 8b 65 83 62 23 45 83
       6.603745e-37 6.852126e-37 -6.7457253e-37 -5.7933714e-37
0001e0 1e 3b 51 83 95 8e 6a 83 81 af 67 83 e1 2d 6e 03
       -6.1487443e-37 -6.8930096e-37 -6.8086267e-37 6.999458e-37
0001f0 4b c9 64 03 22 c6 36 82 8d 34 63 03 d6 88 62 83
       6.723425e-37 -1.342811e-37 6.676963e-37 -6.657251e-37
000200 9f 46 69 03 b9 16 6b 03 8f 19 64 83 dd 50 66 03
       6.8553615e-37 6.9086377e-37 -6.703252e-37 6.768375e-37
000210 73 db 61 03 30 29 61 03 44 d8 6f 83 84 c7 74 83
       6.6373473e-37 6.616884e-37 -7.048405e-37 -7.193419e-37
000220 d4 4e 2f 83 56 b3 6c 03 e6 f3 6a 83 cf 99 75 83
       -5.151837e-37 6.9560034e-37 -6.90464e-37 -7.2175593e-37
000230 91 85 2c 83 e8 fb 6e 03 c3 c0 66 03 58 2b 65 83
       -5.0699584e-37 7.023109e-37 6.7812205e-37 -6.734681e-37
000240 63 fe 68 03 18 9f 68 03 20 c5 75 83 44 93 73 83
       6.8470694e-37 6.8361303e-37 -7.2225317e-37 -7.1580334e-37
000250 0f 68 7a 83 62 08 70 03 2c ba 77 03 61 a9 68 03
       -7.358785e-37 7.0539284e-37 7.280049e-37 6.837311e-37
000260 0a a5 6a 83 ac 8d 69 83 a1 e4 6f 83 30 ba 6b 83
       -6.8955875e-37 -6.8635177e-37 -7.049824e-37 -6.9274026e-37
000270 3a 76 6e 83 c0 d4 8d 83 90 54 40 83 67 31 69 83
       -7.007763e-37 -8.33608e-37 -5.65208e-37 -6.8529257e-37
000280 ca ef 8e 83 cd 04 56 03 ea a7 69 83 8b d1 28 83
       -8.401063e-37 6.289446e-37 -6.86653e-37 -4.9611306e-37
000290 0b 91 7a 03 20 c1 52 83 b8 5f 5b 03 e2 11 67 03
       7.36349e-37 -6.193515e-37 6.4468195e-37 6.7905327e-37
0002a0 d1 87 63 83 d4 94 62 03 98 58 6c 83 7a 3a 4d 83
       -6.6865214e-37 6.6586277e-37 -6.9455867e-37 -6.0311213e-37
0002b0 b7 ee 73 83 be 3c 79 83 84 94 6e 83 69 32 68 83
       -7.1685313e-37 -7.324425e-37 -7.01124e-37 -6.823654e-37
0002c0 12 37 60 83 87 91 67 83 96 ce 30 83 b7 90 68 83
       -6.58909e-37 -6.8051856e-37 -5.19589e-37 -6.8344797e-37
0002d0 46 cc 5c 83 0b d6 71 83 eb 80 64 83 80 ec 65 03
       -6.4886684e-37 -7.1069244e-37 -6.715117e-37 6.756854e-37
0002e0 f2 f6 68 03 7d 49 6d 03 87 bc 65 83 79 3b 67 83
       6.846215e-37 6.97324e-37 -6.751347e-37 -6.795307e-37
0002f0 ae 77 dc 02 37 54 61 03 31 07 6f 83 cc 83 a9 83
       3.2394787e-37 6.621823e-37 -7.0244043e-37 -9.963186e-37
000300 5f 42 6f 03 48 ff 68 83 d9 8a 73 83 42 f5 79 83
       7.0311978e-37 -6.847172e-37 -7.157067e-37 -7.3456065e-37
000310 d6 c1 76 03 1f 04 68 83 c8 10 77 83 49 1a 57 83
       7.2515415e-37 -6.8183403e-37 -7.260604e-37 -6.3212995e-37
000320 d9 7b 5f 03 a8 a5 44 02 f5 e8 5e 83 15 dd 46 03
       6.567598e-37 1.4447347e-37 -6.550736e-37 5.844076e-37
000330 07 6f 76 03 dd cd 74 03 e3 7c 63 03 fe d5 5f 03
       7.2420356e-37 7.1941475e-37 6.6852667e-37 6.577946e-37
000340 42 eb d9 82 1a 48 62 83 9a 41 76 03 85 7f 66 83
       -3.2020316e-37 -6.64982e-37 7.236821e-37 -6.773731e-37
000350 5b 5c 67 83 1b 95 62 83 eb f5 67 03 71 06 65 03
       -6.7990818e-37 -6.6586596e-37 6.81671e-37 6.7304446e-37
000360 7b f9 50 83 c4 93 64 83 f2 a1 76 83 17 30 76 03
       -6.1412096e-37 -6.7172805e-37 -7.2478807e-37 7.2348107e-37
000370 08 98 6b 03 1a 5d 6a 83 22 0e 76 03 b3 57 24 82
       6.9234816e-37 -6.8873295e-37 7.2309126e-37 -1.2073986e-37
000380 07 cd ce 02 c2 5c 61 03 4d b7 77 83 82 87 65 03
       3.038666e-37 6.622804e-37 -7.2797195e-37 6.7452607e-37
000390 1e 7c 1e 83 4d 5b 6a 83 4f 97 67 03 99 a0 6f 83
       -4.6574506e-37 -6.8871228e-37 6.8058493e-37 -7.0420145e-37
0003a0 4f 04 5e 83 79 b4 5b 03 62 3f 66 03 38 c1 2d 03
       -6.5244882e-37 6.456549e-37 6.7663685e-37 5.1061935e-37
0003b0 b6 f7 f9 02 c6 22 6b 83 e6 75 6a 03 f1 70 7a 03
       3.672944e-37 -6.910021e-37 6.890176e-37 7.3598047e-37
0003c0 ea e0 13 83 6d 6b 71 83 82 3e 65 03 9e a7 6b 83
       -4.3457606e-37 -7.0946853e-37 6.7368807e-37 -6.925271e-37
0003d0 b5 1c 76 03 53 b7 3e 03 b3 c1 60 83 6e da 69 83
       7.2325857e-37 5.6046428e-37 -6.605004e-37 -6.872329e-37
0003e0 da d4 11 03 f3 44 79 03 b4 17 5c 03 a3 d6 6e 03
       4.285601e-37 7.3253673e-37 6.46794e-37 7.0188305e-37
0003f0 8c be 78 83 b4 45 71 83 bc 21 68 83 8a 77 6d 83
       -7.3099387e-37 -7.090355e-37 -6.8217398e-37 -6.9785264e-37

rnn.bias_ih_l2 f4 [16]
000000 aa a7 6e 03 9d f5 6a 03 cb 08 61 83 ec dd 64 03
       7.0134383e-37 6.904837e-37 -6.613165e-37 6.725793e-37
000010 5b e1 63 03 ab 5b 5f 83 b8 e8 73 83 4f b3 62 03
       6.6968e-37 -6.563904e-37 -7.167843e-37 6.6621267e-37
000020 ad 1b 33 83 48 ea 18 83 08 8a 2f 03 f3 1d 4b 83
       -5.2635142e-37 -4.4937727e-37 5.158633e-37 -5.969072e-37
000030 02 1c 74 83 31 00 63 83 6e 0f 74 03 a1 1c 73 03
       -7.1737307e-37 -6.6709524e-37 7.172287e-37 7.1444146e-37

rnn.bias_hh_l2 f4 [16]
000000 33 ce 76 83 5c b3 53 03 cf 2c c8 81 7e 2d 6e 83
       -7.2529608e-37 6.221322e-37 -7.3532694e-38 -6.9994136e-37
000010 3d 96 72 03 a8 72 33 80 30 42 6f 03 7f 26 76 83
       7.1289873e-37 -4.724741e-39 7.0311767e-37 -7.2337094e-37
000020 bc 8b 66 03 9a 74 62 83 44 5a 60 83 ba ca 53 03
       6.7751332e-37 -6.6549283e-37 -6.5931304e-37 6.2240046e-37
000030 48 06 7b 83 ea 26 6e 03 4f 4a 6e 03 2f ad 67 83
       -7.376948e-37 6.9986585e-37 7.0027216e-37 -6.8083604e-37
