TPnet/models/DNNs/PrevGraphs/VanillaRNN-14_10-19_18.pth (torch, 431549 bytes, 513 tensors)

fc.weight f4 [1, 16]
00000000: d32d c33d c179 2fbe 1c93 25bd d23e 11be
00000010: c73c 27be e0d3 38be 11aa aebd d3e4 b83d
00000020: 934a 053d c89c d3bd 3cfe 423e 4d19 9e3d
00000030: a880 4c3e fc7f 343e afae 5cbe 45ea 23be
0.09530225 -0.17136289 -0.040423498 -0.1418412 -0.16331778 -0.18049574 -0.08528531 0.0902802
0.032541823 -0.10332638 0.19042295 0.077196695 0.19970953 0.17626947 -0.21551012 -0.16007335

rnn.weight_ih_l0 f4 [16, 86]
00000000: 781a 153d 662e c1b8 ad3f ccbd b7fc cfbd
00000010: 08c1 cebd 4116 d43d 5925 19be a862 bb3b
00000020: 2626 9abd 57c4 813c 27c8 8239 3125 0f9c
00000030: 1f2b 8e3d eaf3 bb3d cf2a 11be 62ff 26be
00000040: 9f6c d33d b115 2bbe ebf6 f33d d43c d93c
00000050: 5495 1436 af24 06be 10e4 efb6 c6f5 01b9
00000060: 6df1 28bb fa3f 17be 8595 16be f862 203e
00000070: 6ccf 3d98 e58e 08be 9387 06b9 2530 273e
00000080: 4b76 c1bb c029 863d f6ff 8537 393e d43d
00000090: 08fe 09be 72ee 153c 11b2 34bd b55e 1136
000000a0: a69f 21bd fbb5 163e 0cda d7bd 81bc ac3c
000000b0: 9565 9239 2ad0 a8bd ea50 3e3d 91ab afbc
000000c0: 675f 2e3b b35c 283c 7bf7 25be 31df 8837
000000d0: f8c1 263d 102a 823a b904 09bd 40bc 63ba
000000e0: a101 53bd 09a8 16be e101 103b 33bd 07be
000000f0: 4cc1 a23c e8ad 509a 9dee c73d c8cc d1bd
00000100: 490a 55bd 9d9a 5cbd 39e0 9c3c 709d b9bd
00000110: 2c4f 9d3a a596 a2bd 0bb0 40bd d6ba f5b5
00000120: 11de c5ba c447 71bc 60b7 86bd 2690 0e3e
00000130: 659a ad26 41a5 d03d 7a51 0e24 fc49 b53d
00000140: f672 fbbd 2eaf 7abd 4c09 aa37 a124 773c
00000150: ea58 bfbd 71c0 f2bb 9607 a03c 8947 f7ba
00000160: ab8e 1ebe 5db0 053d 6eeb 103e 8e90 ca96
00000170: d067 88bd be9c 35bd 1301 a0bc b87a 813d
00000180: 6b4e e6bd ba0a 6e1a 8918 65bc b888 dabd
00000190: 4773 f5bd a7a7 2a3c 0ff2 d239 0b84 c63d
000001a0: 996a 06be 0405 1bbd b4e4 11be bd49 f8ba
000001b0: 689e 9abd 4f7a 233e bee3 a130 5d90 5abd
000001c0: c5b7 113e 0286 1ebd 448e 02ba d751 263d
000001d0: 382e 103e 42d5 3ab6 a93f d336 c2fd 3c3b
000001e0: 4cb7 05be 33a6 13be 431c 21be 549c b23d
000001f0: 90ca bbbd 7e8f ecb8 1c5a adbd 1ece 033e
00000200: 9d4a 92bd ee90 7f3d fbb1 6dbd feec 563d
00000210: 0b74 cebd f3dd 383d 9c8f 103e 539c 293e
00000220: 0a15 bdbd fd63 ba3d 79cf 4abc 1881 c63d
00000230: e8e7 d63d bb49 f4bd 7e08 48bc d576 d9bc
00000240: 618c 99bd 48f8 2c37 2033 7618 55d8 66bb
00000250: 9aa1 933d 1466 2cbe 5870 c8bc 5712 7f3d
00000260: 1ed6 3a3d 084e 2d3e 4b9d 1a39 f1c8 13bd
00000270: a024 103c 2e11 683d 0d2f 193e 0bed a63d
00000280: a3e4 21be 02cc 033e d445 a4ae 85c4 27be
00000290: fe21 f63d c026 a23c caf4 a93d cf69 023a
000002a0: 08f3 6733 5565 023d 9911 d03d 11ff 0ebe
000002b0: e709 afbd 895e af3d bbf0 cd1a 6269 17be
000002c0: d15a c43d 85ad feba 53f2 8c3d 1a88 3f3d
000002d0: 7c28 19be 3770 8c3c 29e0 f23d cdff 0c3e
000002e0: d868 f636 fcc0 75bd 4d43 173e 6031 093e
000002f0: 9055 013e 99e9 3bba 8b28 0b3d 64ce 973b
00000300: 07fa 833c 8e00 253e 1be7 e23d 71d7 9cbd
00000310: f92b 01be 110f 083e 46e1 03be dca7 b03d
00000320: ac97 80bd 2cd2 003d d9fe 18be 68a9 ff3c
00000330: 5780 053e ff6f 4619 4a2c 2dbe 871c b23d
00000340: c32a 8e3b 0c92 8ebc e5b7 d4bd 6902 b73d
00000350: 840e b9bb 712e 67bb b7c3 873d 0332 ba3d
00000360: 5d91 2a3e dc91 26ba 7aea 003e c40e 023d
00000370: 5005 8fbd b874 9dbc 1fa0 b43c 19dd 063e
00000380: 3e31 32bd 2457 143e 47b4 273e f750 5a3d
00000390: bd68 383d 18e5 0139 6cac 313d 0a9d 3dbd
000003a0: a05a d03d dded 3fbd 23de 803d ff70 6b3c
000003b0: 144c 17be f734 f620 d299 7c3a dafb ec35
000003c0: d726 3fbd e8b0 003e ff92 5a3b 8e7f 873d
000003d0: 9eea 48bb 2c68 d83d 38bb 2fbc 81c5 b53d
000003e0: ee05 c23d 1f9f d7bd d6c7 44bc cace 98ad
000003f0: 4d06 70ba 1b60 8ebd 6923 043e 1ed4 cdbd
0.036402196 -9.2115995e-05 -0.09973083 -0.101556234 -0.100954115 0.10355807 -0.14955653 0.005718548
-0.075268075 0.015840692 0.00024944657 -4.73628e-22 0.069418184 0.09177382 -0.14176486 -0.16308358
0.10323452 -0.16707493 0.1191233 0.026518263 2.214064e-06 -0.13099931 -7.149305e-06 -0.00012393956
-0.0025778667 -0.14770499 -0.14705475 0.15662754 -2.4532399e-24 -0.1333576 -0.00012829741 0.1632696
-0.005903994 0.06550932 1.5974027e-05 0.103634305 -0.13475811 0.009151088 -0.04411513 2.166181e-06
-0.039458893 0.14717858 -0.10539636 0.02108598 0.00027922975 -0.08242829 0.046463884 -0.021444114
0.0026607157 0.0102760075 -0.16207688 1.6316395e-05 0.040712327 0.0009930748 -0.03345177 -0.0008687414
-0.051515225 -0.14712538 0.0021973776 -0.13255768 0.019867562 -4.3153872e-23 0.09762309 -0.10244137
-0.05201176 -0.05385839 0.019149886 -0.09063232 0.0012001744 -0.079388894 -0.047042888 -1.8308299e-06
-0.0015096088 -0.014726583 -0.06577945 0.13922176 1.2046135e-15 0.1018777 3.0860355e-17 0.08852002
-0.122777864 -0.06120222 2.0269908e-05 0.015084417 -0.09343131 -0.0074081947 0.019534867 -0.0018865924
-0.15484111 0.032638896 0.1415231 -3.2726087e-25 -0.06660426 -0.044338934 -0.019531762 0.06322235
-0.11245426 4.922591e-23 -0.0139829 -0.10670608 -0.11984878 0.010415948 0.0004023467 0.09693154
-0.13126601 -0.03784658 -0.142474 -0.0018942874 -0.07549745 0.15964626 1.177902e-09 -0.05336033
0.14230259 -0.03870202 -0.00049803057 0.040605392 0.14080131 -2.7840292e-06 6.295701e-06 0.0028837775
-0.13058203 -0.14418869 -0.15733437 0.087212235 -0.09169495 -0.000112800844 -0.084644526 0.12871596
-0.071431376 0.062394075 -0.058031064 0.052472107 -0.10080727 0.045133542 0.14117283 0.16563539
-0.092325285 0.091011025 -0.012378567 0.096925914 0.10493451 -0.119281255 -0.012209056 -0.026545921
-0.07497478 1.0309806e-05 3.1820566e-24 -0.0035224159 0.072085574 -0.16835815 -0.024467632 0.06227335
0.045614354 0.16924298 0.0001474518 -0.036080305 0.008797795 0.05665701 0.14959355 0.08150681
-0.15809874 0.12870792 -7.4702605e-11 -0.1638356 0.12018202 0.019793868 0.08298643 0.0004974873
5.4004914e-08 0.03183492 0.101596065 -0.13964488 -0.085468106 0.08562953 8.5174934e-23 -0.14786294
0.09587634 -0.0019430375 0.06882157 0.046760656 -0.1495685 0.017143352 0.118591614 0.13769455
7.3435767e-06 -0.059998497 0.14771767 0.13397741 0.12630296 -0.00071682927 0.03397421 0.004632758
0.016110433 0.16113493 0.11079236 -0.0765828 -0.1261443 0.13286997 -0.12878904 0.08625767
-0.06278929 0.031450436 -0.14940967 0.031208709 0.13037239 1.02589775e-23 -0.16911426 0.086968474
0.0043385937 -0.017403625 -0.103866376 0.089360066 -0.0056474824 -0.0035275484 0.066291265 0.0909157
0.16657014 -0.0006354132 0.12589446 0.031752363 -0.06983435 -0.019220695 0.022049008 0.1317028
-0.043503992 0.14486367 0.16377364 0.05329987 0.04502176 0.00012387743 0.043377325 -0.046292342
0.10173535 -0.046857703 0.06292369 0.014370202 -0.14775115 4.170907e-19 0.0009635958 1.7656669e-06
-0.0466679 0.12567484 0.0033351777 0.06616126 -0.003065742 0.10566744 -0.010725789 0.088755615
0.09473787 -0.10528397 -0.012010535 -1.7372232e-11 -0.00091562123 -0.069519244 0.12904133 -0.10050224

rnn.weight_hh_l0 f4 [16, 16]
00000000: 4162 cc34 2abf 0dbe 63aa d2bd a06d c8bd
00000010: 65fa da3d dc81 f2ad 3da0 67bd 3d8d 25be
00000020: 2ae4 923d 5043 993d 737d 653d 43f5 5ebd
00000030: 85d0 53b9 c4df fc3d 3d07 02be e457 063d
00000040: f966 fa3d bf37 d73d 6af2 a83c 9def 4a1b
00000050: e04f 8b3d e46c 873d ab47 2cbe e2ba a63d
00000060: 9fee b43c 2b02 bb3d b738 01be 1786 a23d
00000070: a0d5 c8bd 2511 5d3a ed94 d83d af38 d83d
00000080: e3d0 ac3d 1c93 b33d 7933 0d3e 1fba 2918
00000090: 0d96 0bb9 ade2 5fbd e411 e7bd bd84 95bd
000000a0: 1d2b 303d 504f 1e3e bc0e 87bd 134d c03c
000000b0: fc81 613c b6cb 18bd 52ff 8532 eefc dbbd
000000c0: c570 1c3d dc68 39bb e1f0 ccb8 d312 a9bd
000000d0: a464 cebd 1e04 efbc ec89 913d 2e54 84ba
000000e0: da5c ba39 4fab 4fbd a173 48bd 67e3 a5bd
000000f0: b30b 8a3c 16f6 8c38 20db bb3d b5c3 76bd
00000100: 6dcd 1bbc afe8 ecbd 7a60 e63d add8 083e
00000110: da48 a52e a21d 0dbe 58bb 6f3d 1d9c 00be
00000120: 534b d1bc 378c d6bd 40c9 9138 7cc8 71bd
00000130: 40eb 34bd 0f83 1bbe 8f3b c33a 2444 8bbb
00000140: f6c2 bb9d 577e b53d 8264 c718 87b0 38bc
00000150: 9b79 1bbe 6067 77b3 0af4 d23c c027 e4bd
00000160: 61db df3d 2069 29be 4725 e63d 3dad 513d
00000170: edc4 d7ba ad5a f5bd e5d7 6bbd b29c 63bd
00000180: a1e3 ddbc ca5b d9b2 6c40 8935 88fd b0bc
00000190: 90f6 003e bda1 d33c bf51 dcbd 75f4 0cbe
000001a0: 2430 1b3d 1253 603d 2b42 259a 7717 e63d
000001b0: 75ca 91bb f65b 253d 5e26 8e3d ffd4 babd
000001c0: 0b11 ffbd d5cd f9bc 82d4 2d3d 24cb 543b
000001d0: 6833 72bc a844 cb3d 01e2 3bb4 3bb5 e23c
000001e0: f2ea 543d 9387 613d 84c8 1e3d c0b5 b93d
000001f0: 8b3a bd3b 9513 d03c 4833 e63d ffbf e93c
00000200: f37a 2a3e e517 2437 d04b 9fb7 b25c 073e
00000210: 32cc b238 83df 8abd 3532 d0bc 16ca fcbb
00000220: bbbd 133e c64c c8bb 822a 3ebd 42ef 553d
00000230: 70d9 f13d 215e 633d 461b c63d 13be f43d
00000240: cd20 27bc 067f d8b9 4779 293e fe6b 2834
00000250: 2209 c7bb 1d8d 213c d326 e5b7 ff80 e53d
00000260: 2191 7cbc af1f cd3d 5bac 183b d077 0cb7
00000270: bc09 1497 49d1 7b3d 3161 15be 99ef 1f3e
00000280: 1991 ec1d 2246 80bc 1479 ce3c 53b5 2cbe
00000290: 7fd7 80bd 8e02 bdb9 4d4f 853c ba89 1dbe
000002a0: 9f3f 34bd aef7 6423 63d9 22be 9ab8 95bc
000002b0: c344 75bd 24ec cabd fc88 f0bc 5057 5c38
000002c0: 2e77 ec3d e76d e93d 3e63 03be 32bd bebb
000002d0: c5c0 18be 0291 75ba 78c4 c226 5123 5f3d
000002e0: 9f8e 893c d9e6 f23c f9cd 273b c656 023e
000002f0: 5aa8 1abd f5e7 95bc 6b56 b8bc 5a16 8d3b
00000300: 9d81 db3d 4273 ffbb 58e5 a4bd d629 089e
00000310: 7aab c53d c162 ef39 2394 cd3d 7cdf b33d
00000320: bb46 fd3d 9c4c ce3a 7407 db3d 00bc 1abd
00000330: 9eaf 20bc 0d4a 5a3d 2f83 1d3e fe3c 0bbe
00000340: 0d8b 41bb 1257 3d36 2429 149b 2f3a 073b
00000350: 7b80 a52c e88d fa3c 0c69 a4bb 3196 18be
00000360: fe43 dfbb 518c e03c dfc4 8d3c cef4 f23d
00000370: f2bd debd dd86 343a 086d b23d db6a 8ea5
00000380: 19fd 1bb8 1b2d 06bd dea2 deb9 d01e 383d
00000390: 8625 3736 0962 af3d 7e5b 953d 5b3c e4bc
000003a0: e177 d7bd 7f5d 283e 62e2 083e b186 d43b
000003b0: 8f63 a73d be4d b53d 5ee8 03be aaca a21e
000003c0: aad6 1cae 5e00 bb31 5b59 1abd f50c 363d
000003d0: ff23 9bbc 140a 36ba 4bf3 2b3c b291 b2bd
000003e0: a3cf a331 160f 15bd 52fe 44a6 1de2 12bd
000003f0: 3269 ec39 6d8d d53d 6b33 a933 67b8 5dbd
3.806945e-07 -0.13842455 -0.10286405 -0.09786534 0.1069229 -2.7569884e-11 -0.0565493 -0.1616716
0.07172425 0.07483542 0.05602784 -0.05443312 -0.00020200208 0.123473674 -0.12698074 0.032798663
0.12226672 0.105086796 0.020623405 1.6786472e-22 0.06802344 0.06612566 -0.16824214 0.08141114
0.02208644 0.09131273 -0.12619291 0.07935732 -0.09806371 0.00084330357 0.1057528 0.105576865
0.084382795 0.08768293 0.13789167 2.1936705e-24 -0.00013311971 -0.054659534 -0.11282709 -0.073007084
0.043009866 0.15459943 -0.06594607 0.023474252 0.013763901 -0.03730365 1.5599344e-08 -0.10741602
0.038193483 -0.002829126 -9.772345e-05 -0.082555436 -0.100777894 -0.029176768 0.07106385 -0.0010095888
0.00035545864 -0.050700482 -0.048938397 -0.08100014 0.016851282 6.721557e-05 0.09172654 -0.060245235
-0.009509427 -0.115678184 0.1124887 0.13363905 7.516272e-11 -0.13780835 0.058528274 -0.12559552
-0.025548613 -0.104759626 6.9516245e-05 -0.059029087 -0.044169664 -0.15186714 0.0014895069 -0.0042500664
-4.9700073e-21 0.08861988 5.154178e-24 -0.011272556 -0.15183108 -5.7603188e-08 0.025751133 -0.11140394
0.10930515 -0.16544008 0.11237579 0.051190604 -0.0016461887 -0.11980186 -0.05757894 -0.05556936
-0.027086081 -2.5303866e-08 1.0226045e-06 -0.021605268 0.12594056 0.025833959 -0.10757779 -0.13765128
0.037887707 0.054766722 -3.417465e-23 0.11234944 -0.0044491836 0.040370904 0.06940912 -0.09122657
-0.124544226 -0.030493656 0.04243899 0.0032469714 -0.014782764 0.099252045 -1.7497952e-07 0.027674308
0.051981874 0.055060934 0.038765445 0.09067869 0.005774801 0.025399962 0.1124025 0.028533934
0.16648464 9.780725e-06 -1.898958e-05 0.13218954 8.525736e-05 -0.06780913 -0.025414566 -0.00771452
0.14427845 -0.0061126677 -0.046427257 0.052230127 0.11809051 0.05550969 0.09673171 0.11950316
-0.010200691 -0.0004129337 0.1655017 1.5685507e-07 -0.0060740868 0.009860304 -2.7317006e-05 0.11206245
-0.015415461 0.10015809 0.0023296091 -8.372546e-06 -4.7833666e-25 0.061478887 -0.14587857 0.15618743
6.2618707e-21 -0.015658442 0.025204219 -0.16866045 -0.062911026 -0.00036050793 0.016273165 -0.1538457
-0.044005986 1.2412353e-17 -0.15903239 -0.018276501 -0.05988003 -0.099083215 -0.029362194 5.2533404e-05
0.11546169 0.11397915 -0.12830827 -0.0058208937 -0.14917286 -0.0009367616 1.3514707e-15 0.05447704
0.01679164 0.029651092 0.0025604947 0.12728414 -0.03775821 -0.018299082 -0.022502145 0.004305643
0.10718081 -0.007795722 -0.08051556 -7.2084315e-21 0.09651847 0.0004565921 0.100380205 0.08782861
0.123670064 0.0015739384 0.10694781 -0.037776947 -0.009807495 0.053293277 0.15382074 -0.13597485
-0.0029532344 2.8213876e-06 -1.2255566e-22 0.0020634045 4.7038463e-12 0.030585244 -0.0050174054 -0.14901043
-0.006813525 0.027410658 0.01730579 0.11863099 -0.10876073 0.0006886551 0.08712202 -2.4705481e-16
-3.7190595e-05 -0.03275786 -0.00042464485 0.04495126 2.7290967e-06 0.085636206 0.072928414 -0.027860811
-0.10520912 0.16441916 0.13367608 0.006485783 0.08173286 0.08852719 -0.1288161 1.7236237e-20
-3.5660953e-11 5.442458e-09 -0.037682872 0.04444595 -0.018938063 -0.0006944251 0.010495017 -0.087191954
4.76753e-09 -0.03639134 -6.834583e-16 -0.03586017 0.00045091804 0.104273655 7.8790286e-08 -0.054130938

rnn.bias_ih_l0 f4 [16]
00000000: 1490 193e 7179 c9bd ee52 d4bc 41f3 a6bd
00000010: 1c42 6b38 e398 8abc 7ff0 fc36 eade a53d
00000020: 750e b6bd 6185 91bd 76cb 07be fff6 063e
00000030: 1422 51bd 38de 1ebe 3cb5 33ba ac5c e3bd
0.14996368 -0.09837616 -0.02591845 -0.08151866 5.6089935e-05 -0.016918605 7.5381827e-06 0.08099158
-0.08889476 -0.07105518 -0.13261208 0.13180159 -0.05105789 -0.15514457 -0.0006855314 -0.1110166

rnn.bias_hh_l0 f4 [16]
00000000: 7a82 163e c4a7 8b3d 3625 91bb 2186 78bb
00000010: f21c bc37 18b3 0fb5 5fa2 743c 7fa2 263e
00000020: c108 053d 21a7 15be 3fad 19be 5b4f edba
00000030: e733 653d 56aa 883d a68f 4abd 2b3c 0930
0.1469821 0.06819108 -0.0044294847 -0.0037921744 2.2424825e-05 -5.3532267e-07 0.01493129 0.16272925
0.03247905 -0.14614536 -0.15007494 -0.0018105315 0.0559577 0.06673114 -0.0494534 4.9925813e-10

rnn.weight_ih_l1 f4 [16, 16]
00000000: 8eaa 99b9 f9ee 0cbe 316f 16be a8d5 be3d
00000010: d512 83bd 47b0 2dbe e38e da3d 69bf 9bb5
00000020: bb29 243e 8c97 d1bd 681d d0bd 8102 393d
00000030: 0217 26ba c63f 8e3d f935 043e 4de6 0bbd
00000040: a277 ef3d f534 5bbd 5a3a 7dbc 2f16 973d
00000050: cf3e 83bb 5823 5638 c4ec 23be 0ff8 ffbb
00000060: c89a c03c dec5 59bd 125f ab3d 471a eb3c
00000070: e2a5 8119 2bf5 243e 7afc c91e 7d9c ebbd
00000080: fa7e 6bb2 4103 273e 10ad 093e 0a24 9bb9
00000090: 057b 063e ac8e 09be a126 1abe b2d5 ec3c
000000a0: 81ae 83bc 8974 323c 4592 8a3d 49f9 803d
000000b0: f20e a73d 8ad1 0fbe 56b7 72bd 6794 3dbc
000000c0: 6b98 543c 3ee6 e13d 9b3e 2abe 51a5 e33c
000000d0: 9ac6 903a 111a 8d3b d8d3 e6bc 6c66 16bb
000000e0: 8d16 4bbd 04cc 0cbc a4e9 583d 96eb 6899
000000f0: 61b4 4cbc ed0e 5c3d d696 b1bd 3811 2c3e
00000100: f35f 213d 0136 e93d 7309 b734 a87a 2abe
00000110: 961e f5bd a7fa 7f37 ea71 49bd a88a 153d
00000120: b1a7 67b7 0003 82ba da02 0cbe fc91 0fbc
00000130: a880 29bd d890 83b8 5f74 25be b695 c928
00000140: 422b 0d99 0f58 409a 5b6e 263e eb4e 4dbc
00000150: c1e6 0f3e 3a15 083d e8e8 c0bd 682f 493b
00000160: defb a8bd b299 56bb 2c71 a63d 2973 f23d
00000170: efc3 053e 9b4c dcb4 29c1 f4bd b8c3 fc3d
00000180: 3310 73ba c87d 24ba f129 9c3c ea46 90bd
00000190: cc7a edbd 08fd b93d 649b 193e c5f2 1f3a
000001a0: 3c1f 00be 3982 e939 de94 2638 ca95 5fbd
000001b0: f34b 98bb ea11 f83d 075c 0c3e 1047 1ebe
000001c0: 0cc4 e2bd 7282 623c de0f d83d d454 4a3d
000001d0: 410c ba3a 076d 4431 cb22 0c3e 0d6d 0226
000001e0: 9b0f 169a dc27 e71d 5bc8 283e 4472 ebbd
000001f0: 5dcd 92bb f4cc 10be 2622 24bd 7c54 fb3b
00000200: 18a6 0f3c 211c 803d 2740 a5bd 32ea c7bd
00000210: c4e5 21be dfb6 9a19 66b2 28bd d658 fc3b
00000220: 50f1 b43a 139b 6dbb 6740 d53b 7e04 7a9a
00000230: 479a b83d 6b07 e524 08b3 b63d 1329 5f3d
00000240: 16b7 a23d 6480 ec3d a120 cd31 45c3 a13d
00000250: 50bd fd3c 20df 08be 9e64 d73d 415d 9f3d
00000260: 9616 5d2a c7e2 1e3e c5d9 8b3d 9106 33bb
00000270: d640 593d 9ad9 e7bb d193 4fbd 17ab 3d3d
00000280: a075 30bd b0be a83d febb 99bb 60e0 28be
00000290: 5b07 7cbd da3a 379a 9b8a 863d 343f 10b7
000002a0: b2b7 fd3c 41cb d322 6eee 9ebd 75da 8bbb
000002b0: b039 28be 39d3 48bc c92f e8bb adc7 2cbe
000002c0: 403b 4cbd 7242 c7bd 23b0 19be 44be ec3d
000002d0: 925f 093e 5fba 8dbd 64bb 16be 7763 fe3d
000002e0: b514 0a3e eaf8 85bd c6ee 193e a3ef bd3d
000002f0: da1b d03d 2105 bbb3 e5e4 45bb 4908 fbbd
00000300: 05e2 b2bd 3915 b33d 4e3d 653c 4626 fa3d
00000310: 7331 753b a4fe bd3d 09ec 07bc 6756 2d3d
00000320: 1534 d33c 8bd6 413d a115 07be 8a3c 24be
00000330: e7e6 e4bd ad2e 41a2 94f0 7cbd 96b4 b0bc
00000340: 8975 08a5 3975 e3bd 6e77 24bd 34d4 f13d
00000350: c26e babd 0425 0dbe 8673 f4bd 5cd9 93bd
00000360: 67fd 2f3c 12cf 543d 3cc2 f2bd cabb 32bb
00000370: 57fd 973d d59d 70bc adeb fdbd 1a8f 243e
00000380: 9d11 923d f702 cfbc 5f36 ab32 c5af ecbc
00000390: 0b9e dabd 5ba5 d3bc f4dc 2539 c21d 7c3d
000003a0: fdb4 0c3e 989f 0fbe bc13 38bc 3993 c63d
000003b0: 3faa f33c 2dba 01be b312 1fbc 616c b6bc
000003c0: 50b9 dc3d 511f 1bbc 2dcb 02be 60b3 9a35
000003d0: a199 373a 5e78 74bd 9d07 d9bd 1426 43bd
000003e0: 595c e8bb dcc4 73bc 68bd bebd 0521 f9bd
000003f0: bbd2 b13d 1685 093e 4657 a5bd ff10 193e
-0.00029309507 -0.13763036 -0.14690854 0.093180954 -0.06400076 -0.16961776 0.10671785 -1.1604108e-06
0.16031544 -0.102339834 -0.10161859 0.045168404 -0.0006335826 0.069457576 0.12911214 -0.03415518
0.1169274 -0.0535173 -0.015455807 0.07377278 -0.00400529 5.1054492e-05 -0.16008288 -0.0078115533
0.023511305 -0.053167216 0.083677426 0.028699053 1.3405287e-23 0.16109149 2.1386125e-20 -0.11504457
-1.3707671e-08 0.16309835 0.13444924 -0.00029590755 0.13132866 -0.13433331 -0.15053798 0.028910492
-0.01607442 0.010892042 0.0676618 0.06297547 0.081571475 -0.14044777 -0.059256874 -0.011571026
0.012975792 0.11030243 -0.16625445 0.02778879 0.0011045516 0.004306086 -0.028177187 -0.0022949232
-0.049582053 -0.008593563 0.052957192 -1.2041695e-23 -0.012494178 0.05372517 -0.08671348 0.16803443
0.039398145 0.113872536 3.4093281e-07 -0.16648352 -0.119687244 1.5257544e-05 -0.049180903 0.036509186
-1.3807717e-05 -0.0009919107 -0.13672963 -0.008762833 -0.04138246 -6.273546e-05 -0.16157673 2.238041e-14
-7.298265e-24 -3.9775803e-23 0.16253035 -0.012531023 0.1405287 0.03322337 -0.09419423 0.0030698422
-0.08251165 -0.0032745418 0.081270546 0.11838371 0.13063024 -4.103393e-07 -0.11950905 0.12342018
-0.0009272128 -0.00062748464 0.019062968 -0.07044776 -0.11595687 0.09081465 0.15000683 0.0006101544
-0.12511915 0.00044538247 3.9716128e-05 -0.05458621 -0.0046477257 0.12112792 0.1370698 -0.15456796
-0.11072549 0.013825046 0.105499014 0.049397305 0.0014194326 2.8583729e-09 0.13685147 4.52506e-16
-3.103188e-23 6.1186405e-21 0.1648268 -0.11496404 -0.0044800476 -0.14140683 -0.04007163 0.0076699834
0.008767627 0.06255365 -0.08068877 -0.09761466 -0.15810305 1.5997088e-23 -0.04118576 0.0077010198
0.0013804827 -0.0036255762 0.0065079215 -5.1702417e-23 0.09013801 9.9325486e-17 0.08920866 0.05448253
0.07945077 0.11547926 5.9699947e-09 0.07898573 0.03097406 -0.13366365 0.10517238 0.07781459
1.9636579e-13 0.15516196 0.068286456 -0.0027317146 0.053040348 -0.0070755007 -0.050678078 0.046305742
-0.043080926 0.08239496 -0.0046916 -0.16491842 -0.061530452 -3.7891053e-23 0.06569406 -8.5977845e-06
0.030971382 5.740687e-18 -0.077603206 -0.0042679855 -0.16428256 -0.012257391 -0.0070857746 -0.16873045
-0.049861193 -0.0972947 -0.15008597 0.11559728 0.13415363 -0.06920313 -0.14719921 0.12421315
0.13484462 -0.06541617 0.15032491 0.09274223 0.10161562 -8.708799e-08 -0.0030196246 -0.1225744
-0.08734516 0.08744282 0.013991667 0.12214331 0.0037413507 0.092770845 -0.008296021 0.042318728
0.02578167 0.047323745 -0.13191845 -0.16038719 -0.111768536 -2.6181087e-18 -0.06175287 -0.021570485
-1.1835942e-16 -0.11106343 -0.04015296 0.11808053 -0.091031566 -0.13783652 -0.11936097 -0.072191924
0.010741568 0.05195529 -0.118534535 -0.0027272576 0.074213676 -0.014686068 -0.12398467 0.16070214
0.07132266 -0.025269968 1.9931745e-08 -0.028892407 -0.106746756 -0.025835684 0.00015817938 0.061551817
0.13740917 -0.14025724 -0.011235174 0.09696049 0.029744266 -0.12668677 -0.009709048 -0.022268476
0.10777533 -0.009467916 -0.12772818 1.1526099e-06 0.00070037885 -0.059685104 -0.10597155 -0.047643736
-0.007091087 -0.014878478 -0.0931347 -0.12164501 0.08682772 0.13429675 -0.08073287 0.1494789

rnn.weight_hh_l1 f4 [16, 16]
00000000: aa36 72bb 6392 5b3a 2b6f 33bc 588b f83d
00000010: 3863 71bd 18b6 193e a0ca 873d 241c 183e
00000020: 7c47 55bd 4286 abbd 2ba1 03bd f1b8 973c
00000030: 57da 1bbe 93a3 ca3d 0494 e13d ea81 d23d
00000040: 5730 f23d 9857 1c3e 397e 853c 98da 03be
00000050: 0f46 053b cbc0 c2bd 5465 403c 61aa 283e
00000060: d38f d1bd e6d1 bf3c c488 483d 4e96 dabd
00000070: ca1b 5134 2dd5 7bbd b903 99bd 311a 343c
00000080: 5778 02bc c0e2 4339 48bf 153d 1b07 0c3d
00000090: b439 da3d 95d9 d7bd 814d fabd 17c6 01be
000000a0: 14a5 8fbc 37fe f5bd fa83 c7bd e2ad c0bd
000000b0: 79b0 f7bc 5cf3 0a3e 6f48 d73c 4976 dc3d
000000c0: dadd d5bd 2c64 9ebd 4304 0d3d 7952 1e3e
000000d0: 148f b5ba 5620 673d 746b 1d36 d5cc 59b8
000000e0: 7827 7b38 5297 b1bd 1c2c 193b 0f1d 22be
000000f0: 8819 563d 7d81 8abd 1349 143e 7ce5 1f3e
00000100: 24ed c3bd f8a3 bcbd 6027 e23a a165 7bbd
00000110: 1339 213c 360a 143e 30da 943a 2d92 a5bd
00000120: a504 dbba bd5c 7138 2c17 7fbd ae0e 87b4
00000130: dc19 e13d 59a1 3dba 1a68 27bd f58b 1b3e
00000140: ec7c 3abd 9e0a 25be aeae 27bd 9c83 8137
00000150: a1a3 13be c2dc 1732 539d 123e d226 bbbd
00000160: 4d0d a6bd 8974 1e3d c009 4f3c 24f2 6538
00000170: 9d2c b330 cc85 0c3d 1c42 3cbb 41be a13d
00000180: 5bac abbc c338 f43c 0fb7 b63c 120c 003e
00000190: d087 5b3d 3344 eebd 1fc6 0ebe 15a0 d5bd
000001a0: 77ec 103e 248c 7b3c 30af 93bb d146 26bd
000001b0: 594b 02be 0f2b 35bd 60ae 363d 1d04 233e
000001c0: 2828 923d afc7 e9bd 5da4 cfbd 2d33 013e
000001d0: e33c 1ebe 51a1 4c3c af37 cdbd 4508 5e3d
000001e0: f772 06bd 1e3a 19ae 22d0 25bd a735 9fba
000001f0: 5089 c2bd 977a b53d 54d0 093e 5907 bbbd
00000200: 4998 123e 605d f83c ba8f 743d 674f 983c
00000210: 521d fc3c 86d4 cf3d ecab e83c 94b1 4fb9
00000220: 5a17 7e3d 134c 3d39 34de 101f 9907 223d
00000230: 782b 733d 329e 4bbb 49c7 613b 9d36 82bd
00000240: 5970 febd 89c6 2a3e d7a7 9ea5 cbeb 2cbc
00000250: 6835 1b3e 5f4a 913d d63b 893a 568e f4bb
00000260: 4461 15be a248 f13d ffbe afb9 63e2 4032
00000270: f2bf 9f3c f223 fab9 6e5f 8e3d fd1e 9bbd
00000280: 3be1 0236 99b3 26be f758 26bc e23f 1cbd
00000290: 28b7 28be 1d50 1bb9 d0f9 41ba 67fe 7bbc
000002a0: 410a ee38 bd2f d83c 777d 4b1a 8f89 463c
000002b0: 9411 b13c 864c f23d b9e0 1e3e 0494 9ab0
000002c0: 0b11 2d3e ce26 a53d 2312 babd 7792 d83d
000002d0: f9f7 56bd 4b85 8eb3 ce84 c23d 855e cf3d
000002e0: e763 223d 2923 ec3d 6f14 19aa 0303 49ba
000002f0: 2036 ce3d fd15 63bd 6485 27be c93d 7ebb
00000300: a1d0 cebd 29a6 b3bd 8fe8 cbbd 31bc 9a3c
00000310: 8bc3 33bd 8617 893a d7f7 303b 8f02 e5bb
00000320: 1f73 0bbe d339 573c 7644 b4bc fd72 af9c
00000330: e04f 1b3e dce7 6fbb e2a9 23b4 369f 6538
00000340: a6b2 a4b9 b8a1 2d3e 9f95 051d ba68 213e
00000350: c8d8 c9b7 7651 34bb aa35 be3d 83fa 6ebd
00000360: 1d4b e9bd 6b97 2abe 5971 f53c b612 27bd
00000370: d887 cc3b a231 2cbe 17d9 973d 4cbc 7197
00000380: 14a3 0b2f 352a 923d 0933 6338 b596 3fbc
00000390: b026 e93c 3a28 a53d 1e2f 1cbe 7dee eb3c
000003a0: a1f7 d4bd ee8c 0ebe 70ee bc3a 5ece 06bc
000003b0: fe5e 11bd 28a1 4bb7 070d feba bf39 63bd
000003c0: 502b 2ebb 1284 b49d d14a d23c c530 223e
000003d0: ebe2 df3c 90e8 9f25 c5c2 cebd c117 213e
000003e0: 45ab 29be 2b90 a43b f9d6 fcaf 3391 373c
000003f0: 6a5e adbd efb2 59bd 1e47 1037 1f74 4d3d
-0.0036958852 0.00083760003 -0.0109517975 0.12135953 -0.058932513 0.1501087 0.066304445 0.14854485
-0.052070126 -0.08375217 -0.032136124 0.018520804 -0.15220009 0.098944806 0.1101456 0.102786854
0.11825626 0.1526779 0.01629554 -0.12876356 0.0020335948 -0.095094286 0.0117429085 0.16471244
-0.102325104 0.023415517 0.048958555 -0.106731996 1.9474751e-07 -0.061482597 -0.07471413 0.010992573
-0.007963262 0.0001868112 0.036559373 0.034186464 0.10655537 -0.10539547 -0.12221814 -0.12673222
-0.01753477 -0.12011378 -0.097419694 -0.094081655 -0.030235516 0.13569397 0.026279656 0.107647486
-0.104427055 -0.0773395 0.034427892 0.15461148 -0.0013851845 0.056427322 2.345737e-06 -5.1927596e-05
5.987982e-05 -0.0867144 0.0023372239 -0.15831397 0.052270442 -0.06762979 0.14481 0.15614885
-0.09566715 -0.09210962 0.0017254166 -0.061376218 0.009840268 0.1445702 0.0011356529 -0.080845214
-0.0016709758 5.7545247e-05 -0.062277958 -2.515639e-07 0.109912604 -0.00072338205 -0.040870763 0.15190108
-0.04552929 -0.16117331 -0.040938072 1.5439284e-05 -0.14417888 8.839551e-09 0.14317827 -0.09138264
-0.08108006 0.038685355 0.012636602 5.4823366e-05 1.3036644e-09 0.034307286 -0.0028725928 0.07897616
-0.020956209 0.029812222 0.022304086 0.12504604 0.053596318 -0.11634102 -0.13942765 -0.10430924
0.14152704 0.015353236 -0.004506968 -0.04059488 -0.12724055 -0.044230517 0.04459989 0.15919538
0.071365654 -0.1141504 -0.10138772 0.12617178 -0.15452914 0.012489633 -0.100203864 0.054207105
-0.032824483 -3.483979e-11 -0.040481694 -0.0012146727 -0.094988465 0.08861273 0.13458377 -0.09132261
0.14315905 0.030317962 0.05970738 0.01859255 0.0307757 0.101479575 0.028402291 -0.00019807211
0.06203399 0.00018052784 3.0676988e-20 0.039558027 0.059367627 -0.0031069634 0.0034451059 -0.06358073
-0.12423772 0.16677298 -2.7522364e-16 -0.010554264 0.15157092 0.07094263 0.0010470103 -0.007463257
-0.14587885 0.11781432 -0.00033520904 1.1227345e-08 0.019500706 -0.00047710497 0.069517955 -0.0757427
1.950261e-06 -0.16279449 -0.010153047 -0.03814686 -0.16476119 -0.00014811796 -0.00073995907 -0.015380478
0.00011350634 0.02638995 4.2080766e-23 0.012117757 0.021614827 0.11831002 0.15515412 -1.1247043e-09
0.16901033 0.08064042 -0.090854906 0.10574811 -0.05248258 -6.636636e-08 0.09497987 0.1012545
0.039646056 0.11530144 -1.3596219e-13 -0.000766799 0.10068917 -0.05544089 -0.16359478 -0.003879415
-0.100983866 -0.08771927 -0.099564664 0.018888565 -0.043887656 0.0010459281 0.0027003193 -0.0069888304
-0.13618134 0.013136345 -0.022005301 -1.1610252e-21 0.15167189 -0.0036606705 -1.5242361e-07 5.474613e-05
-0.0003141362 0.16956222 1.7679756e-21 0.15762606 -2.4062014e-05 -0.0027514375 0.09287579 -0.058344375
-0.1139128 -0.16659324 0.029961275 -0.04078933 0.00624178 -0.16815808 0.074144535 -7.8108964e-25
1.2699913e-10 0.071369566 5.4168548e-05 -0.011693646 0.02846083 0.08064313 -0.15252349 0.028800244
-0.10398794 -0.13920948 0.0014414322 -0.008227913 -0.035490982 -1.2137265e-05 -0.0019382545 -0.055474993
-0.002657611 -4.778216e-21 0.02567044 0.15838917 0.027329883 2.7739694e-16 -0.10095743 0.15731718
-0.1656924 0.005022069 -4.599128e-10 0.011204052 -0.08465274 -0.05314916 8.599627e-06 0.05015957

rnn.bias_ih_l1 f4 [16]
00000000: df8c ef3d 3c7a 2138 93c0 ebbd c3be b1bd
00000010: 0dde d6bc 7d28 8fbd cbbb 59bd 83b5 07bd
00000020: 5d21 0f3d daaf 193e ecb5 833c d2f8 083e
00000030: 6eaf 40bd 9c69 8cb9 bb28 d038 c7c0 feb9
0.11696791 3.849923e-05 -0.1151134 -0.08678963 -0.026228929 -0.069901444 -0.05315761 -0.033132087
0.034943927 0.15008488 0.016077958 0.13376167 -0.047042303 -0.00026781566 9.9257995e-05 -0.00048590286

rnn.bias_hh_l1 f4 [16]
00000000: 074e 673d 165f 8ea5 dabe 84bd 26d2 5ebd
00000010: 2087 063e 19ea 503c db84 8dbd b297 b3bd
00000020: d78d b1bc 62fa ad3d 9b85 5ebd a602 893b
00000030: fe2c 0d3e 4e2e b2b3 8ff2 debd 2f21 b73c
0.056470897 -2.4697506e-16 -0.064817145 -0.054399632 0.13137484 0.012751126 -0.06910106 -0.08769168
-0.02167408 0.08495022 -0.054326635 0.004181224 0.13786694 -8.297194e-08 -0.10886108 0.02235469

rnn.weight_ih_l2 f4 [16, 16]
00000000: 7c7c 083d c779 adb6 ef1c f73c 90ac e638
00000010: 4647 a9bd 825b 2a3c 455e 243b 2305 9c3d
00000020: a6d4 28be f4e8 a238 e50c ff3d 8eb0 1bbd
00000030: b1f1 0b3e 4ec1 05be 0907 00be 4b95 403d
00000040: 1a66 893d 306f 2d3e 7bbc d4bd 7084 d0bd
00000050: 2ab9 923d 62be 8cbc 21bd 88bd a05f d03b
00000060: aa00 b53d 0973 ddbc 219c 273e a574 1a3b
00000070: d764 81bc 7ef1 18b9 41ea 57bd fbc3 75bc
00000080: 9284 be3d 8127 23b3 f79e f73d 3239 c0bd
00000090: b620 00bc dbec 0b3e 0ff7 a6bd 4c2a ecbb
000000a0: eac6 7a3d 2e0e 04ae 5457 423b 5481 449f
000000b0: 92f0 b93d eea6 983d fe31 29be f609 b33c
000000c0: beef ecbd a48b 563c ae76 e2bb 6730 083c
000000d0: f74f 1dbe da9e 1f3e da27 663d c4cb dd3d
000000e0: 8d88 a63d 104b eb3d ff1b f23d 05a0 7bba
000000f0: 237f 0cbe ff37 ab3d f285 db35 b500 201b
00000100: df76 983d a934 f1bb 4932 2b3e 3567 8dbd
00000110: ea98 113e 7c5b 353d 299c 58bd 3629 2ebd
00000120: 712a 253e 31dd d3bd ea19 bd3c 2fd1 28bc
00000130: a97a 433d 2b40 f839 842b fbbd e3da e9bd
00000140: e4dc b53d 4667 73bd d719 203e c6bc 1c3e
00000150: 8f39 bb3a 7d8f f1ba cc07 263c 302e e73d
00000160: 40d6 8738 2e15 8d3d b7e4 12be b86b d73d
00000170: 192d 08be 4229 063e bef0 dd3b e328 ca3d
00000180: e6d4 113e bc7c 1c3e 8246 9e3d c128 06be
00000190: 4b4c a03d a922 103d 42d2 93bd 63cb 81b9
000001a0: 9621 103e a56d 763d 5b00 e13d 4ef2 163b
000001b0: f02d 203e b02b dcbd 6990 2cbe d4d4 f4bc
000001c0: 8ad9 9ebb 93f2 a03b 207a b11a 4f2d c9bd
000001d0: e46c c33d 05ea 5fa3 72fb 3d3d 1777 d9bd
000001e0: b10f 2dbe 1d08 f93d 3d8b 053c 46fd 13be
000001f0: 72e5 6f3b 3f80 243e a752 17b9 4413 fabd
00000200: 412d 78b7 1d9c 07be 89de dcbc 928b 3c3c
00000210: 48d7 023e a6de 1abe c05c 803d 35ed 1e3e
00000220: 5e99 0f2f de7d 3abd 1ef8 ddba 5a08 2e3d
00000230: 467b 183c 9fb9 0933 3d82 55ba 24e5 ec3c
00000240: c827 07be 2b2d 20be 9a97 26be cc18 e3bd
00000250: 7e45 863d 7ff9 843d c12a 12be 5c27 bc3d
00000260: 2cf9 933d 90d9 d6bd e502 b23c e9ad f3bd
00000270: 7fe5 683d 0eeb 31bd 4be6 2dba a630 ffbd
00000280: bc0a 1a3e 8d29 4cbd 6f82 10be b3a6 bdbc
00000290: c48c b0bd e650 f83c 7945 fabc ba62 093e
000002a0: 3032 2f3a 2ff1 3c3d 2209 0cbe 6744 9abd
000002b0: d2cd 9bba e34d b53d 65fe 3eb9 5671 ab39
000002c0: f256 a1bd 67e5 293e 59a2 2130 3993 7abd
000002d0: 4f54 83b5 2e19 3e3b 8ea2 f5bd b751 4f3c
000002e0: 86a3 2b3e 0435 f137 1aa5 6f3a 2e4c 9f3d
000002f0: fae0 963d be8e ffbd 025c 003e 7285 083e
00000300: 4a92 b8b3 c1f5 16be 0e15 3c1c 6a32 1fbe
00000310: 8ed3 81bd 3cb7 0ebe 18c6 823c 8a44 c1bd
00000320: fca0 6b3c 25fa e33d 986f 203d 4bc9 ec3d
00000330: 1295 2ebd b314 233e fddf 72bd 16e0 bd3c
00000340: ed65 9a3d aba9 90bd 6090 d0ad 56a2 26bb
00000350: 3855 90bd e495 17bd 3e34 b139 3f11 d2bd
00000360: 2301 b53d b478 8c3a 7f44 11be d522 f81a
00000370: 4c0e 853d c157 c63d 0265 302e e9a0 f49d
00000380: 7b84 0119 3900 2b3e e4a6 19be cc6f 623c
00000390: 1634 b935 0cf4 c3b4 18c6 bf3d 603b c01d
000003a0: 4d59 712a e656 3530 0a45 f5bd 1806 1cbe
000003b0: ebff 993b 813e c63d 207f 96bb a16c 72bd
000003c0: d685 9f38 062e 82b2 1994 0ebe 9d48 2cbd
000003d0: 2353 15bd 8dc7 8739 de60 d7bc 0dd1 b339
000003e0: 9c76 2d3a b726 d638 2b9e db3a 40e7 c8bd
000003f0: a427 da3d adeb 9bb8 3425 563c 5f95 16be
0.033321843 -5.1699785e-06 0.030165164 0.00010999397 -0.082655475 0.010397794 0.0025080603 0.07618167
-0.16487369 7.768153e-05 0.12453631 -0.038010173 0.13666417 -0.13062021 -0.12502684 0.047017377
0.067089275 0.16936946 -0.10387512 -0.101815104 0.071642235 -0.017180625 -0.066766985 0.0063590556
0.08838017 -0.027032392 0.16368152 0.002356806 -0.015795154 -0.00014585812 -0.052713636 -0.015000339
0.093026295 -3.7987324e-08 0.12090867 -0.09385909 -0.007820299 0.13664572 -0.081525914 -0.0072071906
0.061224855 -3.002592e-11 0.0029654102 -4.1611592e-20 0.09079088 0.07453714 -0.16522977 0.021855336
-0.11569165 0.013094816 -0.0069111204 0.008312321 -0.15362535 0.15587941 0.05619035 0.10829881
0.08131514 0.114889264 0.11821746 -0.0009598735 -0.13720374 0.0836029 1.6355755e-06 1.3235118e-22
0.07444548 -0.007361014 0.16718401 -0.06904451 0.14218488 0.0442767 -0.0528833 -0.04251977
0.16129471 -0.10344923 0.023083646 -0.0103037795 0.0477244 0.00047350055 -0.12264159 -0.114187025
0.08880022 -0.05942466 0.15634857 0.15306386 0.0014284122 -0.0018429604 0.010133695 0.112881064
6.477209e-05 0.06888805 -0.1434506 0.105185926 -0.13298453 0.13101676 0.0067730835 0.0987108
0.1424137 0.15281957 0.07728292 -0.13101484 0.07827052 0.035189305 -0.07217838 -0.00024756332
0.14075312 0.06016316 0.10986396 0.0023032608 0.15642524 -0.1075052 -0.16851963 -0.02988664
-0.00484771 0.0049117296 7.340279e-23 -0.09823095 0.095422536 -1.213841e-17 0.046382375 -0.10618418
-0.16900517 0.121597506 0.008150873 -0.14452085 0.0036605266 0.16064547 -0.00014431273 -0.12210706
-1.4792488e-05 -0.13243146 -0.026961582 0.0115078855 0.12777436 -0.15123996 0.06267691 0.15520175
1.3060261e-10 -0.045530193 -0.0016934907 0.042488433 0.009306734 3.206662e-08 -0.0008144712 0.028917857
-0.13198769 -0.1564223 -0.16268769 -0.11088714 0.06556223 0.064929 -0.14274122 0.09187195
0.0722526 -0.104907155 0.021729896 -0.11898405 0.05685949 -0.043437056 -0.00066337426 -0.12460451
0.15043157 -0.049844313 -0.14112256 -0.023150777 -0.08620599 0.030312013 -0.030550705 0.13416567
0.0006683199 0.046128448 -0.13675359 -0.07532578 -0.0011886901 0.08852746 -0.00018214581 0.00032700103
-0.078779116 0.16591416 5.880217e-10 -0.06117556 -9.784798e-07 0.0029006707 -0.119938955 0.01265376
0.16761598 2.8754126e-05 0.00091417285 0.07778202 0.073671296 -0.12478398 0.12535098 0.13332155
-8.5947775e-08 -0.14742185 6.2231195e-22 -0.15546575 -0.06339179 -0.13937086 0.0159636 -0.09436901
0.014381643 0.11131696 0.039168924 0.11561831 -0.042622633 0.15925865 -0.059295643 0.023178142
0.07538972 -0.070636116 -2.3710978e-11 -0.002542635 -0.07047504 -0.03700818 0.00033798994 -0.10257196
0.088381074 0.0010717125 -0.14186285 1.0262667e-22 0.064968675 0.096847065 4.010748e-11 -6.475264e-21
6.695898e-24 0.16699304 -0.1500507 0.0138206 1.3798733e-06 -3.6499148e-07 0.09363955 5.088337e-21
2.1436082e-13 6.5970907e-10 -0.11976059 -0.152367 0.0046996973 0.096798904 -0.004592791 -0.059185628
7.60664e-05 -1.515492e-08 -0.13923682 -0.042061437 -0.03645624 0.00025897883 -0.026291307 0.00034297295
0.00066171004 0.000102115264 0.0016755512 -0.098097324 0.10652092 -7.434874e-05 0.013070393 -0.14705418

rnn.weight_hh_l2 f4 [16, 16]
00000000: a64c 013d 3c46 263e 8243 ce3d f326 dc3c
00000010: 99c2 19b2 161b 643d c34d 263e dedf 0b3e
00000020: ef85 a63d eb2a 76bc 94b0 e1bd 1626 3dbd
00000030: 15a7 e7bc 357d bcbc ab49 b63d 7b92 9bbd
00000040: 6449 f6ba 74d3 ddbd 551e 953d 6b82 1fbe
00000050: 404e 0bbd 64be e133 d622 993c 0378 fcbd
00000060: db4e 92bd 7f41 f23d 2ca3 5c3d fa84 2835
00000070: 0f31 233e 03ba 2cbd 609e 619f c565 c3bd
00000080: 4d8f c9b7 7e8c 23be 0df4 aea5 e78b a72b
00000090: 253d 343c 1569 06be 340d 26be b317 ffbd
000000a0: b05c 56bd fd89 243e d3dd 203e 8bc5 ffba
000000b0: a0f5 2a3e e467 2b3e cbd5 7b3d 402d 0cbe
000000c0: 6e88 bd99 0a20 103a 36cb 24bc 0750 9fbd
000000d0: 1bf3 cabb 3610 a13d 2566 02be 8a96 883d
000000e0: 6647 293d ac57 423c 0bfb df35 c04d e13d
000000f0: 1d7f 57ba 2f6b 35bd 1bd0 023c ab8d 013e
00000100: 9365 4b3d b254 ecb8 47a8 3eb9 d01d 9825
00000110: 7f36 2bbc 4744 fb3c 8418 ba3d 575c 18bd
00000120: 84e8 6d3c 6aca f9bd 9bf4 153d a4d6 8c2b
00000130: 8634 16be 26e1 7533 a315 2bb7 4412 29bc
00000140: fbb2 f03d ddfc d63d ac0b ab3d ddf2 473c
00000150: bcce 003e 494f 95bb 26cd c7bd 16ef 55bd
00000160: 9c2f f4b8 7301 d43d ea7d 4619 387c a5ba
00000170: 8698 1bbe 5ee9 09be 6517 53bb 105d 1f3c
00000180: aea5 3fbc ba7d 113e 8bfa d0bd 1dee 0b3e
00000190: ac07 0ebe a421 6dbb 456d d1bc 7cb7 8938
000001a0: 0ae0 8fbb 2824 16bb 421c 03be 0a6e 663c
000001b0: f18a 903d 4a29 4bbc 6aaf 3caf 087c c83d
000001c0: c11d f3bd ed6c 54bd 1a66 273e 9994 5e19
000001d0: a1f9 13be 6f22 1cba 3fa9 22be d79b e13d
000001e0: 9ca2 023e 7a65 bd3d ebc6 0e3d fc51 03be
000001f0: 51ed 96a2 0481 843b c23d bebd 4a20 20be
00000200: 0243 14bc c1ec 5cbd 39fe c7bd ce33 383d
00000210: 86a1 c13d a667 fa3d d84e 0f3d 8be7 ab39
00000220: c006 1e3e 266c a2bc 17de 823d 72c8 022b
00000230: c259 bc3d 3c6e bb3d 7c19 1dbe 8e4f 0cbd
00000240: 8599 e8bd 949a 283e cccb 1c3c 5d53 cfbd
00000250: a710 fe3a 26b1 07bd c2dd 673d 8c83 9c3b
00000260: 49d3 19bc c8e4 9cbd 72fe 2a3d e1f1 0d3d
00000270: 40e5 2c3d 7ed4 873d 1bd3 839b a340 adbd
00000280: ad7a 513c dbc9 7a3d a1e3 e73c 1dbf 06be
00000290: bbb9 8c3d 4438 fabd abcb 36bd 28ba 0cbe
000002a0: 16bc a2bd f560 0b3d 77ef 05be 3322 56bc
000002b0: 9fcc 833d 3ab5 01b6 f588 2bbe ddfd 1d3d
000002c0: 9df6 a2b7 ff73 81bc c6ef 6b1c 416c ff3a
000002d0: 08dd 34bd 4462 083c 89a7 a0bd 283a 483d
000002e0: 7ea8 113e f293 1bbe b50d 283e a0b6 a2b7
000002f0: 334d e5bd d354 ae1d 6542 93bc 5419 69bd
00000300: 2173 09be b760 70b9 6c25 db3d 718c 46b8
00000310: 32dd ffbd 19a2 863d 7b96 ae3d d8b3 549c
00000320: 83c0 ae3c 1172 ed3d cd15 353d 5964 4338
00000330: 2205 07bc 35ff 42bd 3eb3 fe22 6e40 383d
00000340: e496 d83d 5e58 9998 721c 443d 69b1 d83d
00000350: 3276 20ba 9403 7c3c 2dbb 4b9a 109e f2bd
00000360: 98fb bcbd be93 fa3c 0297 23bd e40c 9c3c
00000370: 2733 2d3d b08a 8d3b 0efe 01bd 959a 8abc
00000380: bcca c7bd fa41 243c 7d22 e83c beb0 ddbd
00000390: 62b7 4a3d 0047 01bc ed80 e8b1 35db 273c
000003a0: e58c 28bd 3b0e 01be 370b 0c3c 4657 f13c
000003b0: 06da 89bd 033d 0f99 5152 c0bb 6596 c03c
000003c0: 2e12 e9bd aa2d 9d3d ba10 70bd 7440 3ebd
000003d0: f460 22bb 3f36 0dbd e164 613c 5982 2e3b
000003e0: edd7 b6bd f778 233d 56f2 81a9 7d85 2bbc
000003f0: 4ae4 6cae 1cfb e8bd 2b08 34bc d1cb f8bd
0.03156724 0.1623773 0.1007147 0.026874041 -8.9500185e-09 0.055689894 0.16240601 0.13659617
0.081310146 -0.015024881 -0.11020008 -0.0461789 -0.028277913 -0.023008922 0.0890077 -0.07596298
-0.0018790183 -0.10831347 0.07281176 -0.15577094 -0.034010172 1.0512011e-07 0.018693369 -0.12327578
-0.07143947 0.11828899 0.05386655 6.2778383e-07 0.15936683 -0.042169582 -4.7776608e-20 -0.095408954
-2.4027797e-05 -0.15971562 -3.0349564e-16 1.1904894e-12 0.011000906 -0.13126023 -0.16215974 -0.12455692
-0.052334487 0.16068263 0.15709619 -0.0019513828 0.16695261 0.1673885 0.061483186 -0.13689137
-1.9597245e-23 0.0005497938 -0.010058215 -0.07778936 -0.006193531 0.0786442 -0.12734278 0.06669338
0.041327856 0.011861723 1.6687858e-06 0.11001158 -0.00082205405 -0.04429167 0.0079841865 0.12651698
0.049657416 -0.00011269133 -0.000181825 2.6387999e-16 -0.010450005 0.030672206 0.09086707 -0.037197437
0.014520768 -0.121968105 0.036610227 1.0007173e-12 -0.14668474 5.724828e-08 -1.0197432e-05 -0.010319296
0.11752888 0.104974486 0.083518356 0.012203899 0.12578863 -0.0045565707 -0.09755926 -0.052229963
-0.000116436946 0.10351839 1.0261788e-23 -0.0012625521 -0.15194902 -0.13467929 -0.003220999 0.009726778
-0.011697216 0.14208117 -0.10204037 0.13665052 -0.13870114 -0.0036183381 -0.0255648 6.566846e-05
-0.004390721 -0.0022909734 -0.12803748 0.014064321 0.07057751 -0.012399981 -1.716082e-10 0.09789282
-0.118709095 -0.051861692 0.16347542 1.150714e-23 -0.14450695 -0.0005956059 -0.15884875 0.11016052
0.12757343 0.09247871 0.03485767 -0.12824243 -4.090885e-18 0.0040437 -0.09289123 -0.15637317
-0.009049179 -0.053936724 -0.09765286 0.04497128 0.09454636 0.122268006 0.0349873 0.00032788175
0.15432262 -0.01982696 0.063900165 4.646345e-13 0.091968074 0.09151885 -0.15341753 -0.034255557
-0.113574065 0.16465217 0.009570073 -0.10123322 0.0019383625 -0.033127926 0.05660797 0.004776424
-0.009388753 -0.07660824 0.041746564 0.0346545 0.042210817 0.066323265 -2.1808556e-22 -0.08459594
0.012785596 0.06122766 0.028306784 -0.13158841 0.06871363 -0.12217763 -0.044627827 -0.13742888
-0.07946031 0.034028012 -0.1307963 -0.013069677 0.06435513 -1.9327986e-06 -0.16751464 0.03857218
-1.9426743e-05 -0.015802382 7.806488e-22 0.0019487218 -0.044156104 0.00832421 -0.07844455 0.048883587
0.14224431 -0.15193155 0.16411479 -1.9396946e-05 -0.11196365 4.6145123e-21 -0.017975995 -0.05690892
-0.13422824 -0.00022924213 0.10700497 -4.7337675e-05 -0.124933615 0.065738864 0.085247956 -7.037736e-22
0.021332031 0.11594022 0.044210244 4.658508e-05 -0.00824097 -0.047606666 6.903662e-18 0.04498332
0.10575655 -3.96388e-24 0.04787869 0.10580713 -0.0006121128 0.0153817125 -4.2130615e-23 -0.11846554
-0.09227675 0.030588027 -0.039938934 0.019049115 0.04228511 0.0043195114 -0.031736426 -0.016919414
-0.097554654 0.010025496 0.028336758 -0.108247265 0.049491294 -0.007890463 -6.766746e-09 0.010245134
-0.041149992 -0.12603085 0.008547596 0.02946056 -0.06731038 -7.405248e-24 -0.005869188 0.023509214
-0.113804206 0.07674725 -0.0586097 -0.046448186 -0.0024777027 -0.03447556 0.013756962 0.0026627986
-0.08927903 0.039910283 -5.7707894e-14 -0.010468838 -5.386295e-11 -0.1137602 -0.0109882755 -0.1214825

rnn.bias_ih_l2 f4 [16]
00000000: 8dbf 833b 6185 8cbc 70b5 13be 88e4 f631
00000010: 811b 43b2 772a b2bd fca4 05be e74c c2b8
00000020: 6cf1 df3d e8c2 2b3e 7863 29be 491d 133d
00000030: 2bd9 19be ae41 12be 68b5 8e3d 9905 8f3a
0.0040206374 -0.017153444 -0.14424682 7.1855233e-09 -1.13567475e-08 -0.08699506 -0.13051218 -9.264965e-05
0.109347194 0.1677357 -0.1654185 0.0359166 -0.1502425 -0.14282867 0.06968194 0.0010911702

rnn.bias_hh_l2 f4 [16]
00000000: e8f4 0c3e e35e 07be 273d 923c 5066 d3ba
00000010: dd26 123e 21f7 8c3d 1509 19be cb88 e6bd
00000020: 1974 95bd ae97 b5bd d897 1c3e d104 083e
00000030: 818f 113b ca65 0fbe 42d5 f2bd 8942 c03d
0.137653 -0.1321979 0.017851425 -0.0016128514 0.14272638 0.068830736 -0.14944871 -0.1125656
-0.072975345 -0.08866821 0.15292299 0.13283087 0.002221078 -0.14003673 -0.11857082 0.093876906

rnn.weight_ih_l3 f4 [16, 16]
00000000: a411 1b17 2554 0338 62d4 16be f00a 7c3d
00000010: aa35 e3bd 5f4d 14be 95e1 21ba 4820 3d3d
00000020: aabb 7c3d 489b 93bc e869 6b3b 43c6 0036
00000030: bd92 5bbd 3f9b a9ba d874 153e 09df 4abc
00000040: 7ac6 d0bc 6136 203e 44de 11ba 5154 033e
00000050: 8223 6d3b a6f8 ff3a 3dec 83bd b0f4 0aba
00000060: b10e cbbd 78b1 ecbc ad03 b8bd d226 973a
00000070: 4f36 833d 69c7 ac3d 7140 ea3d 5cc4 28bb
00000080: 4c83 62bd 526f e6bd d5bb 5b3d 3615 303d
00000090: f827 193e ab7c 8f3d 301b daa0 1224 26be
000000a0: 9fac ef3d b9ae acbd d56b 4ebd 3547 81bc
000000b0: ef1b d23d 011f b3b8 18c6 a3bd f801 9ebd
000000c0: ca90 2dbe 78dd b6bd 3323 17be 5d32 f73c
000000d0: 9de4 203d 5740 2d3e c59b af3c 9482 c634
000000e0: d01a 16be b943 2a3d 6c85 8a3c ee88 10be
000000f0: ff58 5f3c b70e 27be 4008 eb3d e8b8 f73b
00000100: ac3c fa3d ba2b 99bd af49 033e 2573 93bb
00000110: ce3f 2dbe b53f 9e3c 160c e5bb c8d5 11be
00000120: 3022 0ebc 408c 20b4 9193 9abd 5c75 bc18
00000130: 19b7 05be 131e 2ebb f988 8dbd 37e8 353c
00000140: eda3 bebd 8eb7 103d b5c6 0435 4d26 edbc
00000150: 4e72 9dbd a0ab 851c f23a 7e3c 2e5f 23be
00000160: 4087 ee3d 292b a13d 68ea 8fbd cee8 debd
00000170: 04cc 743a aeb6 8b21 1cdc 2b3d 75f5 cdbd
00000180: 658e 8dbd 803c 89b3 e15f a5bd 1641 bf36
00000190: 9982 0cbc 1e9a 25be bf28 05a9 71c0 393c
000001a0: db98 d2bd 77a8 1a3e f11e 87b4 2b23 f6bc
000001b0: 1a77 19be 3836 373c 38f0 833d baa0 403c
000001c0: a773 90bd e0c2 dcb8 6877 ee3a cd19 0b3e
000001d0: fc85 b83d 8982 98b2 d779 ab3d bef0 a137
000001e0: 2606 b63d e085 44bc 4615 9f2d 2821 f8b9
000001f0: 3467 10be 30f0 c6bd da10 903b cf7c dfbd
00000200: 4145 943d 288a 26be a4b2 c13b ebb4 0d3d
00000210: 0497 aebc 02e4 273e 5a0d 213e 9c85 86bd
00000220: 2332 1e3e 75b9 1dbe 98b9 1e30 0eec 473b
00000230: 69fb 143e 1577 e9bb 2b4f 553b b9e1 3a3b
00000240: 5d7d d3bc 5996 013e a69e 1238 aac6 25bd
00000250: 705c 543c 9a33 443d 347b f03d c48f cc3c
00000260: f53b 1cbe 2cf2 a8b6 6fdd 1b37 814d ba3d
00000270: 8711 9eb9 b6ce b919 a0e6 079c 0228 0abd
00000280: 922a abbc 3fba d43d 70d0 acbd 86ea 0d3e
00000290: 687b b2b9 b4c9 d6bd 2f50 c83d 368b 0e1e
000002a0: 3438 e23d 3345 8abc deb6 083d cf51 73bc
000002b0: 527c f43d fe22 fb3c d158 8cbb 8e3e 9e3d
000002c0: 8ba3 073e 25b4 633d b598 e03a 450e 703d
000002d0: 975f 033d 31cf fdbd 3d1b 673d c130 6a36
000002e0: 13a0 d4bd 65f2 cdbd 783c dd35 ca43 25be
000002f0: 13d2 013a 520a 529f 67ed f73d 12eb 8abd
00000300: c763 4938 cb15 51bc 7413 00be e8b4 09be
00000310: 50a8 10be 6298 7719 9864 9c32 3081 e0bb
00000320: 86c8 c1bd b4ac fabd 709b 603c 3231 063e
00000330: c05d 053e d16c c43c 9bdd c33b 8c1d 9936
00000340: 92e7 9bab 240c a2bc cda5 14be 4825 6e2d
00000350: 007f d5bc fc89 a02e fef7 0ebb db8e d23d
00000360: 934e 21be c651 60bb 6451 f53d 512e 223e
00000370: a6f0 28b8 bbb4 c6bc 210d b13d 29d6 99aa
00000380: b8b8 1a3e af3c c13d ac52 c0bb 8430 02be
00000390: d101 96bd c861 9020 d848 20be 956e c1bd
000003a0: 8bdb a03d 69e0 d4bd 2c76 071a ca42 4b3d
000003b0: 5f18 a5bb c10e 87bd 7db5 913d 8b67 613d
000003c0: 9f4e dd3d 1558 8ebd fdb9 f6bd 72e0 793c
000003d0: d1e7 c5b7 c11f bfba 9be3 efbd d3bf d73d
000003e0: cdd5 5eba f4e5 853d 3e63 283e c684 803d
000003f0: 4454 093e 92e4 103e 9970 19be bcd1 0c3e
5.0105467e-25 3.13112e-05 -0.14729455 0.06153387 -0.1109422 -0.1448264 -0.0006175277 0.046173364
0.061702408 -0.01801838 0.003592128 1.918889e-06 -0.053606737 -0.0012939944 0.14595354 -0.012382277
-0.025485266 0.15645744 -0.0005564431 0.12825133 0.0036184494 0.0019529059 -0.06441543 -0.00053007435
-0.099149115 -0.028893217 -0.08985076 0.0011531955 0.06406843 0.08436472 0.114380725 -0.0025751805
-0.055300996 -0.112517014 0.053645927 0.04298898 0.14956653 0.070062004 -3.6948628e-19 -0.16224697
0.11702847 -0.08431763 -0.050395805 -0.015781024 0.10259234 -8.54116e-05 -0.07996768 -0.07715219
-0.16949764 -0.089289606 -0.14759521 0.030175382 0.039280523 0.16919075 0.021436581 3.6975382e-07
-0.14658666 0.04156849 0.016909324 -0.14114735 0.013632058 -0.16314207 0.11476183 0.0075598843
0.122186035 -0.07479043 0.12821077 -0.0044998103 -0.16918871 0.019317487 -0.006989966 -0.14241707
-0.008675143 -1.4952184e-07 -0.07547677 4.8715364e-24 -0.13058127 -0.0026568219 -0.06910891 0.011102728
-0.0930861 0.0353313 4.946299e-07 -0.028948927 -0.076878175 8.845566e-22 0.015516983 -0.15954277
0.11646891 0.0786956 -0.07027131 -0.10884248 0.0009338262 9.467361e-19 0.04195796 -0.10056583
-0.06911925 -6.3905645e-08 -0.08074928 5.6998206e-06 -0.008576059 -0.16172072 -2.9567274e-14 0.0113373855
-0.10283061 0.15103327 -2.5168222e-07 -0.030046066 -0.1498684 0.01118236 0.064423025 0.01175707
-0.07053309 -0.00010526716 0.0018193545 0.13584061 0.090099305 -1.775449e-08 0.083728485 1.93048e-05
0.088878915 -0.011994809 1.8085655e-11 -0.0004732695 -0.14101869 -0.09713781 0.00439654 -0.10912477
0.07239772 -0.1626364 0.005911188 0.034596365 -0.021312244 0.16395572 0.1572775 -0.06568453
0.15448813 -0.15402777 5.774381e-10 0.003050569 0.1454903 -0.0071247914 0.0032548408 0.002851589
-0.025816614 0.1265501 3.4956865e-05 -0.040472664 0.012961492 0.047900774 0.11742249 0.024970897
-0.15257247 -5.0349827e-06 9.2902765e-06 0.09096814 -0.00030149167 1.9212042e-23 -4.496583e-22 -0.03372956
-0.020894323 0.10387086 -0.08438194 0.13858995 -0.0003404275 -0.104876906 0.09780919 7.5462056e-21
0.11045876 -0.0168787 0.03337752 -0.014851048 0.11937775 0.030656334 -0.0042830487 0.07726775
0.1324598 0.05559172 0.0017135354 0.05860736 0.032073583 -0.12393034 0.05642246 3.4897096e-06
-0.10382094 -0.10055999 1.6483382e-06 -0.1613914 0.0004952263 -4.4477766e-20 0.12105828 -0.06783117
4.801506e-05 -0.0127615435 -0.12507421 -0.13447917 -0.14126706 1.2800374e-23 1.8206535e-08 -0.006851338
-0.09462075 -0.12239972 0.013708934 0.13104704 0.13024044 0.023977669 0.005977345 4.563195e-06
-1.1077686e-12 -0.01978118 -0.14516373 1.3537012e-11 -0.026061535 7.3004686e-11 -0.0021815295 0.10281154
-0.1575263 -0.0034228428 0.11978415 0.15837981 -4.0278443e-05 -0.0242561 0.08645082 -2.7326863e-13
0.15109527 0.094354026 -0.0058692303 -0.1271382 -0.07324565 2.4459255e-19 -0.15652788 -0.0944492
0.078543745 -0.10394365 2.8012804e-23 0.049624242 -0.0050383057 -0.06594611 0.07114694 0.055030387
0.108060114 -0.06950394 -0.12047193 0.015251266 -2.3592178e-05 -0.0014581607 -0.11713334 0.105346344
-0.0008500487 0.06538001 0.16444108 0.062753245 0.13411051 0.14149693 -0.14984359 0.13751882
