TPnet/models/DNNs/PrevGraphs/VanillaRNN-14_10-19_31.pth (torch, 431549 bytes, 513 tensors)

fc.weight f4 [1, 16]
000000 01 6d ba 3d 0b eb bd 3d fc 51 2e bd 5b cc 42 be
       0.09102822 0.092733465 -0.042558655 -0.19023268
000010 e2 56 a7 3d a8 66 7f be 07 40 ec bd 59 ef 3a 3e
       0.081708685 -0.24941504 -0.1153565 0.18255366
000020 52 fa f5 bb 8a 68 d2 3d 60 a8 1b 3e 93 a7 0c be
       -0.007506647 0.102738455 0.15200949 -0.137358
000030 20 16 66 be f4 5a 5b 3d b1 77 c8 3d b7 bf 1e 3e
       -0.22469378 0.053553537 0.09788454 0.15502821

rnn.weight_ih_l0 f4 [16, 86]
000000 df 09 73 83 f2 e9 74 03 0c 9c 70 83 44 de f4 02
       -7.1422613e-37 7.197371e-37 -7.0708794e-37 3.5980152e-37
000010 1c 30 63 03 60 7e 28 83 06 f7 75 03 af bc 3e 03
       6.676453e-37 -4.9515834e-37 7.22826e-37 5.605258e-37
000020 02 08 41 83 9e be 4e 83 85 ca 6b 03 a2 3c 65 83
       -5.6726795e-37 -6.0756777e-37 6.9292774e-37 -6.7366655e-37
000030 8f 9b 73 03 89 47 7b 83 b0 ad 68 03 c2 be 60 03
       7.1589854e-37 -7.384439e-37 6.8378056e-37 6.6046663e-37
000040 35 36 6b 83 6e 83 64 83 7b 6e 68 03 e7 ee 69 83
       -6.912252e-37 -6.715405e-37 6.8305498e-37 -6.8746792e-37
000050 60 27 70 03 0f bd 71 83 6d 50 6d 83 55 3b 67 03
       7.057486e-37 -7.1040563e-37 -6.9740365e-37 6.795291e-37
000060 8b a8 60 83 46 b3 50 83 95 99 5c 83 17 ec 73 83
       -6.602116e-37 -6.13315e-37 -6.4828493e-37 -7.16823e-37
000070 74 79 73 03 b4 ab 58 83 49 9e 67 83 9c 7c 69 83
       7.1550703e-37 -6.36738e-37 -6.80665e-37 -6.861559e-37
000080 74 0c 75 03 a1 8e 61 03 a3 22 75 03 2b e6 62 03
       7.2013324e-37 6.6285287e-37 7.203879e-37 6.667965e-37
000090 b7 b8 5a 03 38 ee 6d 03 b1 b7 0b 03 35 cf 45 83
       6.4276484e-37 6.99215e-37 4.1059296e-37 -5.813096e-37
0000a0 00 0b 74 83 0c 70 6d 83 91 6d 6c 83 9f ad 6e 03
       -7.1717783e-37 -6.9776664e-37 -6.9479943e-37 7.014122e-37
0000b0 09 92 62 83 ae 82 6d 03 c4 38 50 03 49 14 5a 03
       -6.658307e-37 6.9798053e-37 6.119087e-37 6.408773e-37
0000c0 a5 f4 65 03 ff 90 64 03 a4 a9 6f 82 94 c2 54 83
       6.757789e-37 6.7169625e-37 -1.7607631e-37 -6.2524565e-37
0000d0 32 6d 68 03 3f 88 62 03 a3 71 65 03 3a 3b 33 03
       6.8304022e-37 6.6571834e-37 6.74275e-37 5.267136e-37
0000e0 bd 8a 70 03 79 0f 30 03 b0 b1 6f 83 53 cd 77 83
       7.0688925e-37 5.1739513e-37 -7.0439763e-37 -7.2822477e-37
0000f0 67 b1 5a 02 89 66 85 83 bf 5d 6f 83 e6 b3 63 03
       1.6067023e-37 -7.840578e-37 -7.0343403e-37 6.6915818e-37
000100 02 6b 68 83 87 de 4f 03 18 d8 72 83 d4 0f 6a 83
       -6.830151e-37 6.108728e-37 -7.136547e-37 -6.878459e-37
000110 46 ee 71 03 d7 ea 63 83 1d fe 6f 03 da a6 55 03
       7.109706e-37 -6.6978887e-37 7.0527495e-37 6.278661e-37
000120 2c cb 6d 03 81 fd 4b 83 9b ed 23 03 a8 01 71 83
       6.988127e-37 -5.9947347e-37 4.8174152e-37 -7.0825436e-37
000130 9f d7 6c 83 ff 92 4e 03 7e 5f 60 83 4c aa 62 03
       -6.9601688e-37 6.0706702e-37 -6.5937303e-37 6.661092e-37
000140 a8 23 18 03 75 ee 4e 03 c5 95 71 03 a8 bf 71 83
       4.4709717e-37 6.0811694e-37 7.099546e-37 -7.1043545e-37
000150 88 f8 72 03 ac 4d e8 00 e4 22 6a 83 60 01 72 03
       7.140271e-37 2.1333699e-38 -6.880647e-37 7.1118987e-37
000160 54 f3 78 03 67 9a 67 83 2b 96 6f 83 bc 6c 69 03
       7.3159977e-37 -6.8062044e-37 -7.040817e-37 6.8597367e-37
000170 01 fe 6f 83 a1 9c 74 83 35 3f 72 03 ef c9 61 03
       -7.052737e-37 -7.1884957e-37 7.1189966e-37 6.6353366e-37
000180 16 c2 52 83 4b aa 6a 83 87 77 6f 83 72 b8 62 03
       -6.1936253e-37 -6.8961906e-37 -7.0373e-37 6.6627164e-37
000190 0b a5 66 83 65 6f 65 83 c8 a3 70 03 02 ad 70 03
       -6.7780385e-37 -6.7424926e-37 7.0717673e-37 7.0728264e-37
0001a0 f3 d2 6b 03 07 9c 65 83 39 84 62 03 bc 72 61 03
       6.930245e-37 -6.747616e-37 6.6567215e-37 6.6253266e-37
0001b0 70 05 73 03 d6 ad 60 03 0d 3e 66 83 4d da 6a 83
       7.1417524e-37 6.6027238e-37 -6.7662156e-37 -6.9017017e-37
0001c0 21 75 61 03 4c dc 6a 03 3a ea 6a 83 f6 bc 75 83
       6.6256015e-37 6.901931e-37 -6.90353e-37 -7.2215946e-37
0001d0 0d 94 67 03 28 62 75 83 d2 09 71 83 cc 90 79 83
       6.8054753e-37 -7.2111707e-37 -7.083481e-37 -7.334074e-37
0001e0 31 82 6a 03 cc 19 6f 83 98 ac 68 03 fc e3 6d 03
       6.891587e-37 -7.02654e-37 6.83768e-37 6.9909754e-37
0001f0 5c 8a 64 83 26 1e 64 03 5e d5 70 03 d6 18 72 03
       -6.7162007e-37 6.7037787e-37 7.0774595e-37 7.114592e-37
000200 ee 5a 73 03 18 e0 74 83 9b 71 70 03 68 a1 5c 03
       7.1515664e-37 -7.1962402e-37 7.0660074e-37 6.4837475e-37
000210 55 14 65 03 f3 69 4c 03 48 8d 68 83 94 22 76 83
       6.732039e-37 6.0071836e-37 -6.8340855e-37 -7.2332596e-37
000220 21 ae 47 83 dc 81 6f 83 4f 67 74 83 4e 5a 61 83
       -5.8680734e-37 -7.038486e-37 -7.182375e-37 -6.622522e-37
000230 af 17 41 03 08 80 73 03 92 e1 69 83 2a 10 77 03
       5.674479e-37 7.1558254e-37 -6.873149e-37 7.260533e-37
000240 09 dc 76 03 e4 56 64 03 d0 2a 76 03 57 c2 67 83
       7.254549e-37 6.7102924e-37 7.234205e-37 -6.810789e-37
000250 18 ba 62 03 39 1b 72 83 dc 94 6a 83 7e db 70 83
       6.6629056e-37 -7.114866e-37 -6.89373e-37 -7.0781626e-37
000260 40 81 6f 03 6d d1 6f 03 ae 4a 4a 83 38 d2 64 03
       7.038416e-37 7.0476196e-37 -5.9448193e-37 6.7244497e-37
000270 c2 da 09 83 e3 b9 6e 83 d0 84 bc 03 ee 4f 15 03
       -4.0511803e-37 -7.01553e-37 1.1080139e-36 4.387892e-37
000280 b5 a9 6d 03 59 33 6d 03 0f 25 6f 83 a4 e0 68 83
       6.9842854e-37 6.9706985e-37 -7.027833e-37 -6.8436547e-37
000290 eb 10 5f 83 e4 de 75 03 38 e3 50 03 1c 20 62 83
       -6.555323e-37 7.2254895e-37 6.138654e-37 -6.645229e-37
0002a0 f6 6a 69 03 8a 87 73 83 58 16 77 83 3a af 66 83
       6.859533e-37 -7.1566873e-37 -7.2612426e-37 -6.7792075e-37
0002b0 4d 3b 61 03 fe 52 f2 82 b7 89 1d 82 ef f2 73 03
       6.618963e-37 -3.560634e-37 -1.157406e-37 7.1690156e-37
0002c0 42 f9 50 03 65 95 3e 03 c4 61 79 83 8d 5a 6a 03
       6.141184e-37 5.600748e-37 -7.3286753e-37 6.8870367e-37
0002d0 90 76 42 83 6f 28 62 83 00 2a 3f 03 8a f8 72 83
       -5.714758e-37 -6.6461846e-37 5.617807e-37 -7.1402717e-37
0002e0 04 22 70 83 d4 3a 99 80 79 cf 58 83 49 d4 73 83
       -7.056871e-37 -1.4071934e-38 -6.371486e-37 -7.1654973e-37
0002f0 0c 74 75 83 77 af b8 82 b0 bf 6e 83 11 c8 67 83
       -7.2132244e-37 -2.7137082e-37 -7.016196e-37 -6.8114464e-37
000300 be fa 3b 83 f8 d5 6f 83 76 1b 59 03 9e 78 f2 82
       -5.52422e-37 -7.048141e-37 6.380209e-37 -3.5627935e-37
000310 ac 35 68 03 aa ae 1c 83 5d 34 73 03 ba 40 6a 03
       6.8240285e-37 -4.6044784e-37 7.147139e-37 6.884072e-37
000320 f3 ae 72 03 64 7a 6e 03 1e 96 73 83 dd e5 71 03
       7.131824e-37 7.008241e-37 -7.158361e-37 7.1087405e-37
000330 1b 05 f0 02 ca 12 6f 03 bd 2e 65 83 b4 24 6d 03
       3.526776e-37 7.0257356e-37 -6.7350705e-37 6.9690173e-37
000340 35 02 70 03 be e2 7a 83 0e 88 71 83 af ae 64 83
       7.0532195e-37 -7.3728684e-37 -7.097972e-37 -6.7203705e-37
000350 83 1b 69 03 ac f2 4e 03 7e 9c 78 03 3b da 65 03
       6.850413e-37 6.0816533e-37 7.3060294e-37 6.754757e-37
000360 fe 6b 76 03 b8 06 6b 83 fb 9b 59 83 30 b1 05 80
       7.241687e-37 -6.9068006e-37 -6.3949625e-37 -5.2274e-40
000370 5b 21 6a 03 20 83 67 03 a5 23 62 83 9b b6 67 83
       6.880471e-37 6.8035323e-37 -6.645635e-37 -6.809442e-37
000380 f4 0d 78 03 f4 58 6e 03 ff 04 67 83 f4 8f 69 03
       7.2896667e-37 7.0044027e-37 -6.7890534e-37 6.8637796e-37
000390 1e 41 22 82 e0 e7 6c 83 b4 17 7a 03 17 52 69 03
       -1.1920568e-37 -6.9620346e-37 7.3495607e-37 6.856678e-37
0003a0 50 8e 77 83 20 e7 73 03 c6 07 73 03 bb 80 66 03
       -7.2750143e-37 7.16766e-37 7.1420205e-37 6.77387e-37
0003b0 a0 85 71 83 d1 47 4d 83 2c 04 69 83 6b 2e 70 03
       -7.097693e-37 -6.0326527e-37 -6.8477335e-37 7.0582946e-37
0003c0 72 e6 64 83 de 3b 79 83 b7 13 65 03 71 c2 63 83
       -6.7267716e-37 -7.3243247e-37 6.7319683e-37 -6.693251e-37
0003d0 3d f4 6b 03 dd e9 72 03 0d e5 35 03 dd a2 6a 03
       6.9340665e-37 7.138587e-37 5.3454057e-37 6.8953377e-37
0003e0 04 01 71 03 38 f4 4a 83 4f 8f 74 83 04 37 68 83
       7.08247e-37 -5.9642814e-37 -7.1869666e-37 -6.8241827e-37
0003f0 2d 0e 61 83 08 b2 6c 03 c6 a6 69 83 88 5f 6a 83
       -6.613783e-37 6.9558537e-37 -6.8663992e-37 -6.8876084e-37

rnn.weight_hh_l0 f4 [16, 16]
000000 fe 41 3e 83 0e 27 5c 03 cf 0d 76 03 e7 c2 6d 83
       -5.5911737e-37 6.469702e-37 7.2308754e-37 -6.9871777e-37
000010 0d 51 79 03 8b cd 1b 83 5a aa 64 83 1c e9 5f 83
       7.3267565e-37 -4.578636e-37 -6.719873e-37 -6.5801406e-37
000020 35 8a 73 83 fa 5a 78 03 27 5b dc 83 48 22 5f 83
       -7.1569936e-37 7.2985086e-37 -1.2951365e-36 -6.5573163e-37
000030 93 72 72 83 ab 6d 68 03 da 88 6b 83 51 ce 64 83
       -7.1248933e-37 6.8304565e-37 -6.921739e-37 -6.7240018e-37
000040 84 d7 71 83 df 60 68 03 50 64 6e 03 8e 1e 74 83
       -7.1070934e-37 6.8289875e-37 7.0057067e-37 -7.174023e-37
000050 43 de 51 02 07 65 62 03 e0 7f db 03 ce e5 68 83
       1.5418681e-37 6.6531405e-37 1.2901022e-36 -6.8442475e-37
000060 d0 c2 71 83 28 d2 71 03 36 f2 6c 83 9c 79 5f 03
       -7.104717e-37 7.106478e-37 -6.963221e-37 6.567341e-37
000070 c0 a3 73 83 d7 4d f5 01 17 e4 41 83 78 b1 28 83
       -7.1599258e-37 9.011048e-38 -5.6979437e-37 -4.9574487e-37
000080 17 a4 5d 83 68 2b 4e 83 e4 5f 70 83 a2 23 6d 83
       -6.513443e-37 -6.0587787e-37 -7.063974e-37 -6.9688945e-37
000090 f8 03 95 83 38 29 6e 83 11 ae 70 03 c4 a7 ac 03
       -8.758344e-37 -6.998923e-37 7.072948e-37 1.01477685e-36
0000a0 39 8b 77 03 a9 14 67 03 27 ca 76 03 43 b3 3e 03
       7.2746596e-37 6.7908515e-37 7.252496e-37 5.6041764e-37
0000b0 e0 7e 62 83 44 8a 68 83 ff 7a 6d 03 78 d4 68 03
       -6.6561076e-37 -6.8337394e-37 6.9789233e-37 6.8422575e-37
0000c0 2c 07 6a 83 c0 86 34 03 29 1f ed 02 91 15 68 83
       -6.8774652e-37 5.305193e-37 3.4841905e-37 -6.820343e-37
0000d0 f9 a2 3b 03 6e 5e 5d 03 10 a5 59 03 52 95 59 83
       5.5141444e-37 6.5054463e-37 6.396005e-37 -6.394198e-37
0000e0 b9 16 6b 83 be 2f 56 83 90 a1 3d 03 c5 19 69 03
       -6.9086377e-37 -6.2943753e-37 5.5727573e-37 6.850213e-37
0000f0 e7 33 65 03 56 04 79 03 8a e2 76 83 77 95 6a 03
       6.7356633e-37 7.31795e-37 -7.2552957e-37 6.8937997e-37
000100 ec ac 65 83 ef e4 69 83 74 e5 5b 83 60 78 6b 03
       -6.7495556e-37 -6.873535e-37 -6.4621715e-37 6.9198477e-37
000110 5f e6 61 83 df 7f 70 03 6f 65 35 03 4c b2 90 03
       -6.638601e-37 7.067645e-37 5.330756e-37 8.504494e-37
000120 35 79 6a 83 85 16 73 03 3e d5 31 03 fe 47 cd 83
       -6.890556e-37 7.1437133e-37 5.2260415e-37 -1.2065346e-36
000130 80 99 54 83 c4 a0 6f 03 bd ff 74 83 dc f0 64 03
       -6.247741e-37 7.0420337e-37 -7.199873e-37 6.727967e-37
000140 07 39 6e 03 bc f9 78 03 e5 87 6f 83 e4 d5 ae 81
       7.000738e-37 7.316733e-37 -7.0391787e-37 -6.4224423e-38
000150 c6 93 36 03 55 18 6f 83 8d 28 6d 03 b7 ba 64 03
       5.365463e-37 -7.026372e-37 6.969459e-37 6.7217516e-37
000160 1e 88 60 83 e4 84 7a 83 4b 53 4d 83 00 69 73 03
       -6.598394e-37 -7.362095e-37 -6.03397e-37 7.1531816e-37
000170 10 91 77 03 24 61 3a 03 e6 d5 70 03 65 36 5c 83
       7.27533e-37 5.4772e-37 7.0775204e-37 -6.471463e-37
000180 8b 63 6b 03 e0 aa 1b 03 6f 0a 63 03 85 50 ff 02
       6.9174563e-37 4.574656e-37 6.672128e-37 3.7515098e-37
000190 75 15 64 03 23 a4 49 82 d4 78 77 03 09 02 5a 83
       6.702781e-37 -1.4814253e-37 7.272548e-37 -6.406678e-37
0001a0 1c 52 74 83 d3 fb 77 83 ba 4b 65 83 1c dd 77 03
       -7.1799412e-37 -7.2875856e-37 -6.738398e-37 7.2840597e-37
0001b0 91 88 78 83 5b 75 83 02 7e ee 67 03 53 5e 64 03
       -7.303742e-37 1.9316079e-37 6.8158574e-37 6.7111457e-37
0001c0 09 af 74 83 a4 d7 6c 83 85 d7 6e 03 76 d7 68 03
       -7.1906086e-37 -6.960171e-37 7.018932e-37 6.842601e-37
0001d0 96 9a 7a 03 18 68 50 83 41 06 76 83 55 db 64 83
       7.3645853e-37 -6.12452e-37 -7.230008e-37 -6.725496e-37
0001e0 53 2e 66 03 30 08 64 03 9a 9d 6e 03 a4 5e 65 03
       6.7644103e-37 6.7012577e-37 7.012283e-37 6.7405694e-37
0001f0 06 a2 04 03 55 18 66 03 6e 7b 7a 83 88 88 65 03
       3.8977307e-37 6.7618857e-37 -7.3610087e-37 6.745378e-37
000200 08 60 5b 03 ea 86 65 03 5a 80 6d 03 85 41 71 83
       6.4468554e-37 6.7451925e-37 6.979538e-37 -7.0898747e-37
000210 48 5e 6d 83 34 2e 70 03 3f a5 5f 83 ac d7 73 03
       -6.975627e-37 7.05827e-37 -6.5723503e-37 7.165886e-37
000220 d6 4d 64 83 fd ac 61 03 95 24 5d 83 da b8 2a 03
       -6.709253e-37 6.632014e-37 -6.4988057e-37 5.017071e-37
000230 40 64 54 03 aa 5b 74 03 ec a8 6d 83 9d a4 7a 83
       6.241628e-37 7.181038e-37 -6.9841953e-37 -7.3657364e-37
000240 50 5a 2c 83 41 54 61 03 51 35 68 83 57 2a 65 83
       -5.064993e-37 6.6218276e-37 -6.8239877e-37 -6.7345655e-37
000250 0d 21 74 03 dc 68 69 83 01 32 6c 83 e5 2f 5a 83
       7.1743096e-37 -6.859292e-37 -6.941157e-37 -6.4119422e-37
000260 1f 59 3b 83 5a bb 5d 03 31 e4 67 03 1f a5 36 83
       -5.5056667e-37 6.516113e-37 6.814675e-37 -5.3674543e-37
000270 6d f7 63 03 e0 ab 0d 03 57 ed 55 03 d2 de 2b 03
       6.6993335e-37 4.163348e-37 6.2867527e-37 5.050817e-37
000280 58 29 74 03 bf 43 72 03 9a e0 67 03 f3 c3 58 83
       7.1752616e-37 7.1195177e-37 6.814263e-37 -6.3701634e-37
000290 cf 6d 46 83 2e 6e 62 83 f1 a0 65 83 f9 3d 65 03
       -5.8313024e-37 -6.654191e-37 -6.7481803e-37 6.7368193e-37
0002a0 3e 7c 62 83 ef c1 a1 82 ec c0 74 83 55 53 22 03
       -6.6558054e-37 -2.3768136e-37 -7.192662e-37 4.770318e-37
0002b0 57 e3 75 03 6e 92 76 03 fd 81 75 83 cd 08 77 83
       7.2260002e-37 7.2460996e-37 -7.214825e-37 -7.259688e-37
0002c0 94 8d 77 03 4e 78 77 83 11 83 62 03 28 23 6c 03
       7.27493e-37 -7.272488e-37 6.6565888e-37 6.9394524e-37
0002d0 67 d6 6c 03 d3 42 6b 83 fc 12 71 83 5f 2b 61 83
       6.960029e-37 -6.9137004e-37 -7.0845328e-37 -6.6171345e-37
0002e0 15 93 28 03 a7 b9 64 03 cc b6 71 83 64 1f 74 83
       4.9539605e-37 6.7216296e-37 -7.1033375e-37 -7.174119e-37
0002f0 43 1c 64 03 4c d3 6a 83 48 55 66 03 2a fe 6d 83
       6.703562e-37 -6.9008976e-37 6.7688823e-37 -6.9939806e-37
000300 ac 55 6d 03 8c 1c 70 03 cb 65 74 03 f3 26 4a 03
       6.9746387e-37 7.056243e-37 7.182201e-37 5.9407176e-37
000310 4e 29 6a 83 9a 33 7b 03 69 fa 61 03 38 1b 52 83
       -6.8813835e-37 7.3821506e-37 6.6409014e-37 -6.17447e-37
000320 47 14 56 03 ca 1a b3 02 52 dd 6c 03 cf 8d d3 02
       6.2912225e-37 2.6317062e-37 6.960823e-37 3.1085058e-37
000330 37 cc 6e 03 80 e5 6f 03 76 d2 6f 03 06 db 59 03
       7.017634e-37 7.049924e-37 7.0477385e-37 6.4021995e-37
000340 71 0f 60 83 de d4 78 83 e1 83 6a 83 96 23 70 03
       -6.584541e-37 -7.312501e-37 -6.891781e-37 7.057051e-37
000350 c5 67 63 83 61 62 50 83 a8 17 76 03 b2 29 75 03
       -6.6828426e-37 -6.123864e-37 7.232006e-37 7.2046893e-37
000360 01 e7 67 83 f9 71 66 03 df 56 6a 83 b5 fb 65 03
       -6.814998e-37 6.772176e-37 -6.8866143e-37 6.7585997e-37
000370 b7 ef 70 83 61 d3 6b 83 40 6b 7a 03 44 f4 67 03
       -7.080484e-37 -6.9302944e-37 7.3591514e-37 6.81652e-37
000380 0e 28 6f 03 08 3d 70 03 89 5c e1 83 31 98 70 03
       7.028177e-37 7.059972e-37 -1.32455565e-36 7.070437e-37
000390 89 38 61 83 b9 53 69 83 c3 2c 6c 83 3a 17 62 83
       -6.6186456e-37 -6.8568655e-37 -6.940555e-37 -6.6442094e-37
0003a0 62 2e 67 03 14 63 6b 03 6f 97 79 82 62 a7 65 03
       6.7938044e-37 6.917403e-37 -1.833709e-37 6.7489198e-37
0003b0 00 a3 79 03 52 8e 57 83 fd 23 91 01 42 09 56 83
       7.336164e-37 -6.3346197e-37 5.331623e-38 -6.2899575e-37
0003c0 12 84 66 03 73 db 73 03 f5 60 73 03 44 37 a7 03
       6.7742534e-37 7.1663197e-37 7.1522583e-37 9.828066e-37
0003d0 a3 c9 71 03 1e 63 20 03 90 f0 5e 03 bb ba 7a 83
       7.1055e-37 4.7133555e-37 6.551609e-37 -7.3682753e-37
0003e0 ad 35 67 03 00 ae 69 03 70 a7 72 03 33 ce 5c 83
       6.7946416e-37 6.867229e-37 7.1309617e-37 -6.4888894e-37
0003f0 e4 de 1a 03 8c 5a 1d 03 f8 f7 5d 83 46 2a 6f 03
       4.55124e-37 4.6242096e-37 -6.5230717e-37 7.0284315e-37

rnn.bias_ih_l0 f4 [16]
000000 b2 ca 6c 83 f7 a8 67 03 da df 6a 03 4d fc 6b 03
       -6.958685e-37 6.807876e-37 6.902339e-37 6.934992e-37
000010 ab 31 49 03 ba 41 4f 83 a0 21 74 03 6c d0 3e 03
       5.9125607e-37 -6.0907283e-37 7.1743755e-37 5.607524e-37
000020 71 42 62 03 1b 57 67 83 51 97 6a 03 0c 19 56 03
       6.64917e-37 -6.798479e-37 6.894012e-37 6.29177e-37
000030 a2 70 73 83 df 9a 0e 03 34 35 74 03 25 00 67 03
       -7.154058e-37 4.1907833e-37 7.176623e-37 6.7884965e-37

rnn.bias_hh_l0 f4 [16]
000000 a8 8b 70 03 7b 73 65 03 e8 d8 35 83 fb 2d 65 03
       7.068998e-37 6.7429617e-37 -5.3440116e-37 6.7349835e-37
000010 bf ea 5c 03 d7 a0 6d 03 a0 26 5f 03 ba bf 9d 03
       6.4921665e-37 6.9832675e-37 6.557815e-37 9.271649e-37
000020 fe 89 67 03 39 1d 76 03 d9 72 74 83 32 1a 81 81
       6.8043206e-37 7.232645e-37 -7.1836994e-37 -4.7424704e-38
000030 48 6b 7a 03 80 23 64 83 bf 00 4d 03 09 ba 71 83
       7.359155e-37 -6.704393e-37 6.024494e-37 -7.1037093e-37

rnn.weight_ih_l1 f4 [16, 16]
000000 05 19 50 83 74 e9 75 03 3c d9 52 03 20 7f 72 03
       -6.1154427e-37 7.226702e-37 6.1962826e-37 7.126334e-37
000010 48 7b 63 03 9c e7 bf 03 42 9a 6f 03 25 6e 66 83
       6.6850824e-37 1.1279146e-36 7.0412867e-37 -6.7717365e-37
000020 57 23 5f 03 fe 5e 5c 83 ef a5 56 83 4f 88 69 83
       6.557438e-37 -6.4761235e-37 -6.307943e-37 -6.862902e-37
000030 7f 20 be 03 af b1 5e 83 9c f4 72 83 d8 9d 5e 83
       1.1174657e-36 -6.5443907e-37 -7.1398206e-37 -6.542113e-37
000040 71 2f 76 83 57 5c 68 83 dc 95 5a 83 5e 49 69 83
       -7.2347363e-37 -6.8284673e-37 -6.4236472e-37 -6.8556767e-37
000050 14 fc 3e 03 a2 ab 62 83 53 60 55 03 5f 84 64 83
       5.6125353e-37 -6.6612456e-37 6.270565e-37 -6.7155133e-37
000060 18 09 73 03 34 3e 5c 03 cc ae 78 03 ec 1e 75 03
       7.142172e-37 6.4723595e-37 7.3081307e-37 7.2034526e-37
000070 89 9e 63 83 6f ef 5d 03 4e c1 6c 03 46 e8 0d 03
       -6.6891294e-37 6.522092e-37 6.957607e-37 4.1702813e-37
000080 c8 8b 3a 83 bd 08 f8 82 a7 fb 6c 03 f8 03 72 83
       -5.482095e-37 -3.644534e-37 6.964305e-37 -7.1121964e-37
000090 45 53 3f 03 b9 ca 71 83 97 a4 73 03 ad bd 77 83
       5.6225444e-37 -7.105625e-37 7.160022e-37 -7.2804513e-37
0000a0 6d d6 6a 83 17 7e 6e 03 74 e2 5b 83 fa ba 66 03
       -6.901257e-37 7.008666e-37 -6.461827e-37 6.7805564e-37
0000b0 1f 4c 62 03 cd 12 6b 83 79 9e 07 83 87 87 5f 03
       6.6502814e-37 -6.9081875e-37 -3.985485e-37 6.568939e-37
0000c0 d0 aa 70 83 dc 54 6a 83 fd 47 72 83 ef 45 74 83
       -7.0725744e-37 -6.8863833e-37 -7.1200047e-37 -7.1785435e-37
0000d0 88 1a 25 81 45 bf 64 03 30 76 70 03 57 d3 76 83
       -3.032475e-38 6.7222745e-37 7.0665334e-37 -7.253551e-37
0000e0 44 77 6a 83 07 1b 74 03 2a a6 96 03 d9 77 64 83
       -6.890333e-37 7.173618e-37 8.854357e-37 -6.7140756e-37
0000f0 fb c6 8a 02 74 dc 65 83 18 d2 5d 03 3e dd 53 03
       2.0391487e-37 -6.755012e-37 6.518724e-37 6.22613e-37
000100 50 91 61 83 f6 79 6d 03 6f 5d 78 83 71 33 6e 03
       -6.628837e-37 6.9788045e-37 -7.2987906e-37 7.0000966e-37
000110 ba 43 79 83 cb b7 69 03 0d 33 61 83 0c 35 8c 81
       -7.325227e-37 6.868353e-37 -6.618016e-37 -5.1503996e-38
000120 f4 ad 67 83 c9 71 6c 03 c1 6a 68 83 92 35 78 83
       -6.8084487e-37 6.9484786e-37 -6.830122e-37 -7.2942145e-37
000130 c0 36 76 03 be 5b a4 02 f5 a6 64 03 70 84 64 83
       7.2355752e-37 2.4150292e-37 6.7194835e-37 -6.715521e-37
000140 6e 9b 66 83 bb ce 5f 03 bb f0 71 03 b4 9e 86 02
       -6.776935e-37 6.5771125e-37 7.109988e-37 1.9780622e-37
000150 1e 05 69 03 8a 0a 79 03 43 1a 67 03 0d 46 70 03
       6.847842e-37 7.318662e-37 6.7914946e-37 7.0610075e-37
000160 47 3c 63 83 7c e3 75 03 af c4 6f 83 51 5a 1a 83
       -6.67785e-37 7.226017e-37 -7.046157e-37 -4.536021e-37
000170 b6 2a 78 03 30 c5 71 83 e3 47 74 83 4f bb 70 03
       7.292968e-37 -7.1049895e-37 -7.1787677e-37 7.074468e-37
000180 0c ea 4f 83 38 67 6e 83 75 37 62 03 5f b3 74 83
       -6.1100505e-37 -7.0060403e-37 6.6479092e-37 -7.1911063e-37
000190 6b 9e 72 83 2a 9e 67 83 8a 1b 6c 83 5f 54 76 83
       -7.1299263e-37 -6.806636e-37 -6.938578e-37 -7.2389756e-37
0001a0 ba 64 2b 83 6b 4c 65 03 65 b6 75 83 24 c6 74 03
       -5.036801e-37 6.7384775e-37 -7.2208408e-37 7.193261e-37
0001b0 ae 73 76 03 52 f7 5e 03 f9 9f 6c 83 93 65 73 83
       7.2425696e-37 6.5523846e-37 -6.9537806e-37 -7.1527883e-37
0001c0 e5 d4 69 03 d2 44 6e 83 33 e5 6b 83 6d 9d 5a 83
       6.8716937e-37 -7.0020916e-37 -6.93234e-37 -6.424516e-37
0001d0 0d 78 9e 83 6b 90 6e 83 c3 40 68 03 57 1f 62 83
       -9.313968e-37 -7.0107698e-37 6.8253015e-37 -6.6451407e-37
0001e0 54 e9 77 03 31 c1 6d 03 a4 46 2e 03 ed c2 67 83
       7.2854624e-37 6.9869813e-37 5.1215096e-37 -6.8108563e-37
0001f0 f3 b6 2e 03 b7 4b 75 83 4f 91 77 83 c4 06 70 03
       5.134402e-37 -7.2085945e-37 -7.2753582e-37 7.0537428e-37
000200 5c 4a 52 03 6d b1 77 03 f8 4c 72 83 20 44 79 03
       6.1798814e-37 7.279045e-37 -7.1205764e-37 7.3252727e-37
000210 82 93 53 83 ee df f9 82 fc f8 63 03 a4 f3 5e 81
       -6.2176658e-37 -3.671579e-37 6.6995124e-37 -4.0949764e-38
000220 bd ef 4c 83 20 69 68 03 d6 ba 0a 03 f3 f1 6b 03
       -6.022542e-37 6.829935e-37 4.076903e-37 6.9338037e-37
000230 93 c8 64 03 d5 69 6b 83 c8 ea 6c 83 01 e3 63 83
       6.7233426e-37 -6.9181782e-37 -6.9623682e-37 -6.696989e-37
000240 5c ce 6e 83 f5 68 3e 03 46 3b 73 83 06 bd 64 83
       -7.0178803e-37 5.5956466e-37 -7.1479324e-37 -6.7220166e-37
000250 c9 2e 19 83 c6 79 57 83 a1 cb 68 83 f9 f1 66 03
       -4.5016366e-37 -6.332261e-37 -6.8412427e-37 6.7868696e-37
000260 a9 09 59 83 9a 9b 67 83 a1 c3 6c 03 23 da 6a 83
       -6.378166e-37 -6.806342e-37 6.9578738e-37 -6.901683e-37
000270 18 7d 73 03 71 40 6b 83 5a dc 67 03 58 4f 68 83
       7.1554882e-37 -6.913427e-37 6.813775e-37 -6.8269755e-37
000280 4f 44 31 03 86 af 6f 03 ba a0 74 03 d5 ac 6c 03
       5.209404e-37 7.043728e-37 7.188966e-37 6.955257e-37
000290 ad f6 70 83 1f 62 63 03 e3 71 79 03 09 7d 6c 03
       -7.081283e-37 6.682194e-37 7.330526e-37 6.94977e-37
0002a0 c9 a6 6f 03 fc 09 49 03 8f 06 72 03 c3 6a 6a 83
       7.0427247e-37 5.9080053e-37 7.1124937e-37 -6.8888976e-37
0002b0 f5 45 74 83 98 02 6f 03 a5 ee 6a 83 39 4e 5e 03
       -7.178546e-37 7.0238765e-37 -6.904037e-37 6.532973e-37
0002c0 b1 21 68 03 99 38 d3 83 f7 ff 67 03 d5 fe 1d 03
       6.821735e-37 -1.241446e-36 6.817863e-37 4.6430686e-37
0002d0 17 c5 62 83 6e 7a 65 83 c8 b9 6d 83 7f 64 6a 03
       -6.664168e-37 -6.7437594e-37 -6.9861307e-37 6.8881783e-37
0002e0 04 7a 69 83 b7 26 72 03 dd db 76 83 2c b3 6d 83
       -6.8612613e-37 7.116185e-37 -7.2545293e-37 -6.985372e-37
0002f0 63 f7 6b 83 06 3c 74 83 fb 9f 6c 03 70 48 78 03
       -6.934428e-37 -7.177406e-37 6.9537815e-37 7.2963804e-37
000300 a7 91 68 83 88 a3 c9 03 e6 40 6a 83 ec 6b 5a 83
       -6.8345873e-37 1.1851263e-36 -6.884092e-37 -6.418833e-37
000310 30 eb 64 83 35 56 62 83 ca 49 72 03 43 ab 63 03
       -6.727316e-37 -6.651439e-37 7.1202114e-37 6.6905903e-37
000320 9a 19 61 03 03 6e 70 83 0b b2 60 83 3a 75 69 03
       6.6150946e-37 -7.065595e-37 -6.6032067e-37 6.8607115e-37
000330 67 5e 50 83 9a f5 54 03 7a 4f 5c 83 73 b9 78 03
       -6.1234075e-37 6.2583137e-37 -6.4743424e-37 7.3093535e-37
000340 63 97 20 03 4f 43 63 03 e9 6a 5d 83 b8 6c 6d 83
       4.7193557e-37 6.678657e-37 -6.506879e-37 -6.9772843e-37
000350 51 06 6b 03 3d bd 6c 03 ef 6e 64 03 48 a9 76 03
       6.9067544e-37 6.95714e-37 6.7130524e-37 7.248723e-37
000360 9d 50 6f 03 80 bf 4d 00 2c 80 c8 81 9c b4 68 03
       7.0328327e-37 7.14003e-39 -7.3652315e-38 6.8386e-37
000370 8d a8 6a 83 1b a8 6c 03 11 52 78 03 0a a0 66 83
       -6.8959906e-37 6.9547142e-37 7.2974857e-37 -6.777464e-37
000380 2d e4 69 83 01 36 77 83 b2 2b 67 03 10 4b 76 83
       -6.873448e-37 -7.264877e-37 6.793496e-37 -7.237907e-37
000390 70 41 94 82 4f 1e 66 03 db 4c 64 83 20 65 69 83
       -2.1784205e-37 6.7625718e-37 -6.7091404e-37 -6.858863e-37
0003a0 32 81 65 83 78 13 f4 81 16 0a 69 83 14 ab 68 83
       -6.744536e-37 -8.965938e-38 -6.8484124e-37 -6.837506e-37
0003b0 56 af 68 83 88 25 da 80 e4 e0 6d 03 d7 ab 61 83
       -6.837995e-37 -2.0033602e-38 6.99062e-37 -6.631882e-37
0003c0 a0 eb 4d 03 d5 eb 6f 03 dd 6e 65 83 ed 1d 73 83
       6.051457e-37 7.050651e-37 -6.7424316e-37 -7.1445635e-37
0003d0 14 e5 77 83 44 d3 67 03 e5 0f 6e 83 10 be 6b 83
       -7.2849745e-37 6.812732e-37 -6.996016e-37 -6.9278474e-37
0003e0 fe 72 79 03 f8 10 6b 83 41 de 68 83 31 0e 61 03
       7.330653e-37 -6.9079772e-37 -6.8433807e-37 6.613785e-37
0003f0 07 64 59 03 06 20 6e 03 9d 06 70 03 4a be e1 03
       6.3885394e-37 6.9978675e-37 7.0537253e-37 1.3268e-36

rnn.weight_hh_l1 f4 [16, 16]
000000 49 e6 77 03 44 d1 3c 03 3c 27 6d 03 ee d0 60 83
       7.285113e-37 5.548846e-37 6.969308e-37 -6.6067523e-37
000010 89 cc 69 03 62 c9 70 83 f4 5f 79 83 81 04 6a 83
       6.870734e-37 -7.0760837e-37 -7.328467e-37 -6.877159e-37
000020 0d 6d 77 03 8e d8 96 83 00 6f 66 03 73 c6 67 03
       7.271196e-37 -8.865926e-37 6.7718347e-37 6.8112607e-37
000030 1d 88 1d 83 9a 5c 64 03 c9 8b 68 03 7b f0 4e 83
       -4.6294404e-37 6.710948e-37 6.833914e-37 -6.0814017e-37
000040 fd a3 7a 83 5d 1f 5e 03 1f 08 64 03 67 51 5f 03
       -7.3656646e-37 6.527594e-37 6.70125e-37 6.5627255e-37
000050 76 95 72 03 74 f9 5b 83 ee 0c 65 03 14 99 79 82
       7.128898e-37 -6.4644674e-37 6.7311894e-37 -1.8337562e-37
000060 e8 7e 77 83 42 c9 67 03 40 96 39 80 2d 1f 67 83
       -7.2732457e-37 6.811583e-37 -5.288523e-39 -6.7920587e-37
000070 08 08 66 83 92 d5 70 83 50 61 64 03 51 7c 50 83
       -6.7600145e-37 -7.0774828e-37 6.7114887e-37 -6.1268414e-37
000080 2f 7b 55 03 d6 84 68 83 1d 5c 62 03 f6 2c 78 03
       6.273648e-37 -6.833116e-37 6.652117e-37 7.2932262e-37
000090 76 13 50 03 5e 33 16 03 03 34 67 83 55 8a 6c 83
       6.1148046e-37 4.4140005e-37 -6.7944505e-37 -6.9512964e-37
0000a0 46 62 6d 03 53 bd 6e 83 22 67 40 03 2f ca 65 83
       6.9760853e-37 -7.0159247e-37 5.654212e-37 -6.7529147e-37
0000b0 e9 5e 64 03 ea b3 47 83 e2 8b 64 83 d2 90 58 83
       6.711213e-37 -5.8687375e-37 -6.7163756e-37 -6.364294e-37
0000c0 d0 ab 72 03 6d 41 77 03 af 59 4b 03 fc f7 68 03
       7.131464e-37 7.266188e-37 5.975929e-37 6.8463344e-37
0000d0 10 1e 21 03 d8 c4 13 03 34 c4 42 03 96 05 72 83
       4.7348158e-37 4.3425383e-37 5.7236706e-37 -7.112382e-37
0000e0 8c 9e 68 83 84 ef 72 83 9c a2 61 03 38 72 72 83
       -6.8360675e-37 -7.139236e-37 6.6308224e-37 -7.1248525e-37
0000f0 d3 7b 61 83 fd 51 b0 02 e1 2a 67 03 26 b6 5a 03
       -6.62637e-37 2.5907935e-37 6.793402e-37 6.427354e-37
000100 f2 e6 1f 03 50 64 6f 03 6c eb b0 82 1b 34 78 03
       4.6991013e-37 7.035094e-37 -2.5996001e-37 7.2940464e-37
000110 d6 df 68 83 9c 26 22 83 7c 0f 12 82 37 ef 41 83
       -6.8435623e-37 -4.7651843e-37 -1.073083e-37 -5.6992208e-37
000120 b7 d5 78 03 70 82 5d 03 f5 90 6c 83 c2 27 66 83
       7.3125982e-37 6.50958e-37 -6.952057e-37 -6.7636565e-37
000130 56 75 55 03 83 87 71 83 fa a3 66 83 9c 9d 0c 83
       6.272977e-37 -7.0979094e-37 -6.777916e-37 -4.132323e-37
000140 84 e8 71 83 8a c8 60 83 4f fa 64 03 6f 6d 5d 83
       -7.109045e-37 -6.605789e-37 6.729052e-37 -6.5071686e-37
000150 e5 c4 4b 03 ce 40 71 03 59 c6 58 83 db c7 67 03
       5.988236e-37 7.0897927e-37 -6.3704387e-37 6.811422e-37
000160 30 16 76 83 3c b3 33 03 18 d7 6f 83 70 a2 72 03
       -7.2318373e-37 5.2809123e-37 -7.0482703e-37 7.1303877e-37
000170 1e d9 79 03 9f 56 72 03 ff 66 47 03 8e 89 6a 83
       7.342376e-37 7.1216844e-37 5.8599078e-37 -6.8924325e-37
000180 da 0b 63 83 13 da a9 02 10 d2 69 03 3b aa 63 03
       -6.672291e-37 2.4957487e-37 6.8713686e-37 6.690472e-37
000190 a5 a8 3f 83 ca 54 67 03 ce a3 4f 83 16 34 6a 03
       -5.632345e-37 6.798213e-37 -6.101987e-37 6.882621e-37
0001a0 c7 e0 da 82 bd 53 30 03 9e a7 6d 03 c0 6d 6c 03
       -3.2161237e-37 5.181788e-37 6.9840455e-37 6.9480154e-37
0001b0 85 3f 4f 03 69 54 38 03 54 e8 68 83 d9 44 6e 03
       6.090475e-37 5.416964e-37 -6.844537e-37 7.0020947e-37
0001c0 87 63 54 03 c8 e4 52 83 03 e8 57 03 5b 25 77 03
       6.2415452e-37 -6.197608e-37 6.3449158e-37 7.262966e-37
0001d0 01 87 66 03 61 b4 68 83 73 57 6d 03 64 0b 6c 03
       6.77459e-37 -6.8385737e-37 6.9748427e-37 6.9367242e-37
0001e0 b3 07 6b 83 1c 63 61 03 a5 05 6c 03 9e 2e 67 83
       -6.906913e-37 6.623533e-37 6.9360646e-37 -6.7938313e-37
0001f0 9d 70 65 83 80 a7 63 03 8d b4 71 83 a4 4f 76 03
       -6.7426325e-37 6.6901585e-37 -7.1030797e-37 7.2384326e-37
000200 93 0d 38 03 ae f8 72 83 15 47 54 83 72 b3 35 03
       5.4088323e-37 -7.140288e-37 -6.23828e-37 5.3397112e-37
000210 4b 6d 5e 03 75 3e 74 83 48 3b 60 03 01 b6 67 03
       6.53654e-37 -7.1776853e-37 6.5895735e-37 6.809373e-37
000220 93 76 72 03 ce 80 62 03 a6 50 62 03 47 84 73 03
       7.1253525e-37 6.656329e-37 6.650801e-37 7.156313e-37
000230 d2 ca 7b 03 9d fc 76 03 34 f5 74 03 5c 33 69 03
       7.3995097e-37 7.258289e-37 7.1986635e-37 6.8531504e-37
000240 f6 a8 56 83 13 c1 77 03 a5 d8 92 03 5b fc 72 83
       -6.3082905e-37 7.2808414e-37 8.630848e-37 -7.14071e-37
000250 72 71 69 03 ce a7 72 83 fe 47 4c 03 f2 e3 40 83
       6.8602775e-37 -7.131004e-37 6.0032855e-37 -5.6685397e-37
000260 08 cb 35 83 8c b0 25 83 75 4a 52 03 58 72 5a 03
       -5.342419e-37 -4.869181e-37 6.1798926e-37 6.4195702e-37
000270 63 68 5e 83 4d 4d 64 03 2a bb 77 83 a0 fb 71 03
       -6.5359767e-37 6.7091915e-37 -7.280163e-37 7.1112386e-37
000280 e9 28 6e 83 3e fe 6a 83 92 24 55 83 91 3b b2 02
       -6.9988876e-37 -6.9058275e-37 -6.2637055e-37 2.6188939e-37
000290 2c ab 6a 83 58 f6 6f 83 b4 98 59 03 7e 63 4f 83
       -6.8962915e-37 -7.0518576e-37 6.3945863e-37 -6.0946044e-37
0002a0 1b 52 5b 83 ad fe 6d 03 55 eb 71 83 70 58 64 03
       -6.445257e-37 6.9940394e-37 -7.1093683e-37 6.71047e-37
0002b0 19 95 65 03 b5 bb 67 03 81 c1 6a 03 91 24 59 83
       6.7468207e-37 6.8100276e-37 6.898855e-37 -6.3812545e-37
0002c0 06 55 78 03 32 98 78 03 2f f0 66 83 bf 00 6c 83
       7.297825e-37 7.305536e-37 -6.7866642e-37 -6.9355023e-37
0002d0 24 55 65 03 3d 7e 62 03 20 16 86 82 ca c9 6f 03
       6.739479e-37 6.6560345e-37 -1.970223e-37 7.046743e-37
0002e0 b5 d7 5e 83 98 42 66 83 62 36 65 03 ac 4a 68 03
       -6.5487556e-37 -6.766737e-37 6.735948e-37 6.826439e-37
0002f0 05 de 6f 83 15 8e 72 83 e8 7b 76 03 9c 07 0f 03
       -7.0490653e-37 -7.128051e-37 7.243514e-37 4.203266e-37
000300 e9 3b 6c 83 90 23 5b 03 bb da 29 03 12 f8 59 03
       -6.942294e-37 6.439914e-37 4.9915727e-37 6.405534e-37
000310 db 38 8c 02 91 57 28 83 ad f7 6c 03 6c bf 74 83
       2.0603785e-37 -4.9471284e-37 6.9638485e-37 -7.1924897e-37
000320 6a cf 28 83 42 53 4e 03 1d fc 66 03 31 73 7c 03
       -4.9608862e-37 6.0633534e-37 6.7880337e-37 7.4188377e-37
000330 62 81 64 83 a0 6d 70 83 0c c2 6a 83 45 22 6a 03
       -6.71517e-37 -7.0655504e-37 -6.8989174e-37 6.880576e-37
000340 2f d3 69 83 f4 24 78 83 74 ee 69 83 50 b8 6b 03
       -6.8714973e-37 -7.292307e-37 -6.8746277e-37 6.9271873e-37
000350 56 02 74 03 e2 ef 64 03 68 98 4d 83 d6 61 b6 83
       7.1707837e-37 6.727855e-37 -6.041904e-37 -1.0719461e-36
000360 d0 b8 76 03 71 9e 61 03 6c b1 64 83 da 3a 65 83
       7.2505057e-37 6.630344e-37 -6.720685e-37 -6.736461e-37
000370 8b 9e 63 03 90 24 6b 83 0e ff 71 83 6e 7b 6b 03
       6.6891303e-37 -6.9102265e-37 -7.1116323e-37 6.9201983e-37
000380 72 f5 73 83 5b b8 6b 83 d9 44 1a 83 58 2a 6c 83
       -7.169304e-37 -6.9271923e-37 -4.5335566e-37 -6.9402775e-37
000390 cd 53 75 03 67 fa 4c 03 63 b3 63 03 59 bc 67 03
       7.2095228e-37 6.023766e-37 6.691523e-37 6.810101e-37
0003a0 13 29 70 03 38 10 77 03 97 4a 7a 83 58 e6 74 03
       7.057681e-37 7.2605394e-37 -7.355402e-37 7.1969577e-37
0003b0 4c 38 68 83 cc cf 70 03 14 bc 0c 83 2b c1 4d 83
       -6.82433e-37 7.07682e-37 -4.1358205e-37 -6.046583e-37
0003c0 41 1a e9 83 d2 3b 67 83 8f b4 79 03 bd ae 73 03
       -1.3700537e-36 -6.795347e-37 7.3381794e-37 7.161187e-37
0003d0 3d 75 77 83 21 c8 59 83 3b f1 63 03 c9 e5 69 03
       -7.272136e-37 -6.4000305e-37 6.6986223e-37 6.8736326e-37
0003e0 15 17 b2 02 26 fe 44 83 1d 19 75 83 30 02 75 03
       2.6167998e-37 -5.789097e-37 -7.2027858e-37 7.200154e-37
0003f0 97 ea 22 83 cc 71 6a 83 53 43 63 83 f9 13 6a 03
       -4.7876817e-37 -6.889705e-37 -6.678659e-37 6.8789347e-37

rnn.bias_ih_l1 f4 [16]
000000 8e 6f d0 83 1c 32 69 03 59 b6 6d 03 d0 88 62 83
       -1.2250753e-36 6.853007e-37 6.9857365e-37 -6.6572484e-37
000010 e5 48 5f 83 00 47 e8 82 6c e9 6a 83 7f 45 67 83
       -6.561749e-37 -3.4130088e-37 -6.9034375e-37 -6.7964576e-37
000020 30 f6 6b 83 62 af e1 81 37 68 39 03 37 0b 2f 83
       -6.9342903e-37 -8.290361e-38 5.4486246e-37 -5.144075e-37
000030 70 01 6a 83 7e 4c 39 83 2c 57 75 03 c7 c4 6f 83
       -6.876807e-37 -5.4454422e-37 7.2099097e-37 -7.0461677e-37

rnn.bias_hh_l1 f4 [16]
000000 76 77 69 83 12 87 9b 82 85 e1 72 83 1e e7 6a 83
       -6.860968e-37 -2.285273e-37 -7.137629e-37 -6.903173e-37
000010 27 ad 76 83 ca bc c0 81 68 d2 6b 83 70 1e 72 03
       -7.249167e-37 -7.080056e-38 -6.9301828e-37 7.115235e-37
000020 f3 80 6a 83 6a 3c e2 83 ff f8 70 03 23 2a 67 03
       -6.8914446e-37 -1.3296957e-36 7.0815495e-37 6.793317e-37
000030 e4 d0 69 83 3d a1 74 83 66 70 4e 03 ad fa 63 83
       -6.871234e-37 -7.189025e-37 6.0666986e-37 -6.6997066e-37

rnn.weight_ih_l2 f4 [16, 16]
000000 a2 7e 66 83 94 7b 6e 03 ba 0c 6d 83 7c 68 65 03
       -6.7736293e-37 7.0083775e-37 -6.966265e-37 6.7416994e-37
000010 fc 58 50 83 8f bb d1 81 e9 18 66 83 91 41 56 03
       -6.1227855e-37 -7.704361e-38 -6.761952e-37 6.2964214e-37
000020 d2 49 74 03 20 8d 68 03 c7 db 67 03 84 5e 11 83
       7.1789897e-37 6.8340676e-37 6.813709e-37 -4.272017e-37
000030 96 b4 47 83 b1 43 67 83 f7 c1 81 82 73 48 67 03
       -5.8688146e-37 -6.7962505e-37 -1.9066177e-37 6.7967966e-37
000040 e5 a1 6a 83 6f 2e 66 03 be 95 79 03 32 4c 48 83
       -6.8952265e-37 6.764423e-37 7.334642e-37 -5.8862185e-37
000050 fb 83 3e 03 a7 12 69 03 59 ae 62 83 ff 87 6f 03
       5.598749e-37 6.849396e-37 -6.661557e-37 7.0391903e-37
000060 29 d6 64 03 55 da 55 03 1a 63 64 03 0e b0 68 83
       6.724902e-37 6.2845707e-37 6.711694e-37 -6.8380773e-37
000070 86 a9 1b 03 e1 11 70 83 bc 55 a9 03 c8 79 6d 03
       4.574501e-37 -7.0550185e-37 9.952611e-37 6.978784e-37
000080 8c 68 cf 03 9c ef ce 02 8b 74 ba 02 87 4e 71 03
       1.2190369e-36 3.0406509e-37 2.7397136e-37 7.091368e-37
000090 98 b5 5a 83 fd a8 60 03 10 58 69 83 1b 0d 63 83
       -6.42729e-37 6.6021673e-37 -6.8573637e-37 -6.672435e-37
0000a0 62 6a 6b 83 f4 e6 74 83 97 8b 73 03 e1 e5 ed 03
       -6.9182415e-37 -7.1970277e-37 7.1571523e-37 1.3982386e-36
0000b0 08 4c 76 03 e0 12 64 03 a8 ac 71 03 02 b2 67 83
       7.238018e-37 6.7024845e-37 7.1021734e-37 -6.808914e-37
0000c0 5e bd 5b 03 57 ce 6c 03 c2 5d 6b 03 3b 31 4b 83
       6.45757e-37 6.9591033e-37 6.916792e-37 -5.971285e-37
0000d0 0f 3b 67 03 fa 54 65 03 d2 c9 e8 82 d5 5c 79 83
       6.7952595e-37 6.73946e-37 -3.4205175e-37 -7.328109e-37
0000e0 27 fe 66 03 6f 0f 71 03 38 00 6a 03 01 7f 74 83
       6.7882678e-37 7.084125e-37 6.876667e-37 -7.185095e-37
0000f0 a8 a5 74 03 c9 02 67 83 45 56 70 83 39 59 5d 83
       7.189532e-37 -6.7887996e-37 -7.0628694e-37 -6.5048485e-37
000100 79 75 b9 03 66 16 d1 81 be 9f 69 03 39 39 6e 03
       1.0900293e-36 -7.6806615e-38 6.865592e-37 7.0007602e-37
000110 40 8f 77 03 ec 44 6f 83 b8 38 6a 83 dd a9 6f 83
       7.275122e-37 -7.0314906e-37 -6.883153e-37 -7.043078e-37
000120 63 77 79 03 6d b9 64 83 e5 1d 06 03 8e 32 70 83
       7.3311573e-37 -6.7216036e-37 3.941338e-37 -7.0587695e-37
000130 3f 0c 50 03 8c a9 e3 82 09 0f 71 83 b1 11 73 83
       6.1139764e-37 -3.3451967e-37 -7.0840794e-37 -7.143159e-37
000140 10 82 6f 83 8a 69 70 83 ca 68 53 83 ac 77 62 83
       -7.038509e-37 -7.0650814e-37 -6.212762e-37 -6.6552807e-37
000150 8a cd 75 83 10 3e 6b 83 c6 e3 5e 83 6d 42 6b 83
       -7.2234976e-37 -6.9131537e-37 -6.5501408e-37 -6.9136546e-37
000160 17 16 7b 83 b8 a8 22 83 66 30 78 03 de ba 77 03
       -7.378763e-37 -4.78012e-37 7.293621e-37 7.280129e-37
000170 be ae 73 83 89 77 72 03 ca 30 35 03 c1 3b 60 83
       -7.1611876e-37 7.125463e-37 5.3247126e-37 -6.589628e-37
000180 81 e9 68 83 ce 10 09 83 f2 0b 5e 83 2a d3 50 83
       -6.844672e-37 -4.0279972e-37 -6.525365e-37 -6.136811e-37
000190 2d a4 79 03 98 98 67 03 2c ea 6f 03 41 52 6a 83
       7.336299e-37 6.805997e-37 7.0504604e-37 -6.8860842e-37
0001a0 33 2f 79 83 15 2f 6c 83 c2 4c 0f 82 70 d2 64 83
       -7.3228705e-37 -6.9408214e-37 -1.0528009e-37 -6.724475e-37
0001b0 a7 27 5f 03 ad 58 71 83 da d7 66 03 95 1f 75 03
       6.557933e-37 -7.092533e-37 6.783871e-37 7.2035283e-37
0001c0 aa f1 61 83 e9 af 64 03 d0 f0 77 03 61 6a 79 83
       -6.6398974e-37 6.7205113e-37 7.2863215e-37 -7.329664e-37
0001d0 97 b8 62 03 84 2a 5d 83 91 91 75 03 33 ad 36 03
       6.662733e-37 -6.499487e-37 7.216613e-37 5.3683816e-37
0001e0 7a 15 4e 03 6f e5 1e 03 80 f6 70 03 77 eb 72 83
       6.0562613e-37 4.6695404e-37 7.081263e-37 -7.138771e-37
0001f0 5c 0d 2c 03 48 90 32 83 14 e2 6b 03 d7 ab 6a 03
       5.0561593e-37 -5.2475125e-37 6.931982e-37 6.896368e-37
000200 f3 6e 67 83 47 39 65 83 67 02 67 83 28 3d 66 83
       -6.801216e-37 -6.7362803e-37 -6.7887557e-37 -6.766113e-37
000210 55 9b 75 83 3b 96 68 83 e3 0b d7 83 e2 6d 76 03
       -7.217734e-37 -6.835113e-37 -1.2639293e-36 7.241904e-37
000220 28 0b 95 83 af 28 7a 83 98 f6 29 02 c0 9f 68 03
       -8.759994e-37 -7.35151e-37 1.2486928e-37 6.8362056e-37
000230 49 52 48 83 92 9b f6 82 a6 b4 6f 03 5d 89 64 03
       -5.8869176e-37 -3.6235744e-37 7.044316e-37 6.7160863e-37
000240 37 ae 0a 83 c6 8c 42 03 dd 10 5f 83 18 81 77 83
       -4.0754544e-37 5.7173076e-37 -6.555317e-37 -7.273497e-37
000250 29 ea 72 83 a4 71 6a 83 db 09 66 03 04 2e 78 83
       -7.138621e-37 -6.8896873e-37 6.760224e-37 -7.2933473e-37
000260 27 e4 76 83 2f f2 37 83 57 79 71 83 85 b5 62 03
       -7.255481e-37 -5.405688e-37 -7.0962826e-37 6.6623805e-37
000270 e1 14 64 03 c8 04 6e 03 b9 ec 71 03 39 35 53 03
       6.7027146e-37 6.9947402e-37 7.109528e-37 6.2068424e-37
000280 05 07 6d 83 96 48 6f 83 1e 7a 6f 83 81 9e 67 83
       -6.96561e-37 -7.031911e-37 -7.037597e-37 -6.8066752e-37
000290 64 1b 5d 83 d4 dd 08 81 df 65 5f 03 4f b0 57 83
       -6.4977506e-37 -2.513841e-38 6.5650752e-37 -6.3385214e-37
0002a0 9f f4 5d 03 cc 46 61 03 01 90 63 03 45 7b 64 03
       6.5226874e-37 6.620283e-37 6.6874613e-37 6.7144684e-37
0002b0 bc 58 73 83 54 b4 6f 03 fc f6 a0 82 b3 32 7a 83
       -7.1513144e-37 7.0442794e-37 -2.365165e-37 -7.3526597e-37
0002c0 f9 83 65 03 e1 26 70 03 c3 c9 66 83 e2 22 72 83
       6.744855e-37 7.057429e-37 -6.7822536e-37 -7.115745e-37
0002d0 03 54 5b 83 cd 44 61 03 49 87 34 83 86 e2 6e 03
       -6.4454756e-37 6.6200537e-37 -5.3052546e-37 7.020195e-37
0002e0 7f b0 65 83 4a 4e 5f 03 e5 97 11 83 d2 d7 76 83
       -6.749966e-37 6.562368e-37 -4.2786037e-37 -7.254065e-37
0002f0 d8 e6 c9 82 7a 83 6d 03 09 f2 65 83 93 94 6c 83
       -2.9666793e-37 6.979897e-37 -6.7574894e-37 -6.952472e-37
000300 d5 7f 69 03 fa ff 65 03 64 6c 63 03 73 67 49 83
       6.861929e-37 6.75909e-37 6.683373e-37 -5.9187345e-37
000310 2e 7c 64 03 40 e6 60 03 95 d1 71 03 26 5f 5c 03
       6.714573e-37 6.6091998e-37 7.1064123e-37 6.4761414e-37
000320 2a b1 5b 83 00 7b 64 03 fb 45 64 03 0d 54 6f 03
       -6.456169e-37 6.7144375e-37 6.708351e-37 7.0332273e-37
000330 78 d6 71 03 c4 fe 7a 83 13 04 5b 83 f3 37 6e 83
       7.1069733e-37 -7.3760854e-37 -6.4362993e-37 -7.000614e-37
000340 da 07 7a 83 b5 29 77 83 e4 f1 74 83 06 b5 6c 03
       -7.347741e-37 -7.2634653e-37 -7.198283e-37 6.956197e-37
000350 f8 26 22 02 2c 4d 5c 83 cc 60 74 03 55 09 72 03
       1.1913064e-37 -6.474078e-37 7.1816273e-37 7.112812e-37
000360 a1 ef 6c 03 65 18 73 83 b7 89 6d 03 a2 ec 6c 03
       6.9629247e-37 -7.1439285e-37 6.980613e-37 6.962581e-37
000370 06 69 61 83 5a 9e 6d 03 76 d1 58 83 a6 a3 6c 03
       -6.624212e-37 6.982982e-37 -6.3717144e-37 6.9542026e-37
000380 4e c5 9c 83 99 57 77 83 17 74 68 03 f1 9f 6b 83
       -9.214155e-37 -7.2687333e-37 6.8311937e-37 -6.9243897e-37
000390 56 ba 5f 83 cc b9 70 03 2c 72 57 83 65 36 6f 03
       -6.5747713e-37 7.0742945e-37 -6.3313884e-37 7.029823e-37
0003a0 5b 22 77 03 d8 d0 38 83 78 93 75 03 bb 9d 1f 03
       7.2626214e-37 -5.431248e-37 7.2168315e-37 4.6906966e-37
0003b0 9d ca 76 03 fd d4 75 03 31 53 4b 03 ef 0c 74 03
       7.252549e-37 7.2243528e-37 5.9751837e-37 7.1720002e-37
0003c0 6d 65 58 03 28 b7 72 03 07 f5 7a 03 af ab 72 03
       6.3593126e-37 7.132766e-37 7.3749675e-37 7.131449e-37
0003d0 6c 92 68 83 6c 37 79 03 91 c2 76 03 02 f4 71 03
       -6.8346756e-37 7.3238145e-37 7.2516254e-37 7.110364e-37
0003e0 cb bf 6b 83 b5 41 6c 03 71 b3 71 03 8e 2d 70 03
       -6.928046e-37 6.9429595e-37 7.1029523e-37 7.0581955e-37
0003f0 84 6e 78 03 fe b9 4c 03 09 78 6c 83 e3 9a 64 03
       7.3007515e-37 6.016372e-37 -6.949196e-37 6.718098e-37

rnn.weight_hh_l2 f4 [16, 16]
000000 ac 4c 66 83 a1 18 6a 03 17 93 65 03 8d eb d8 03
       -6.767894e-37 6.879469e-37 6.7465902e-37 1.2749419e-36
000010 d4 63 16 83 f9 99 71 83 19 27 6f 03 7a 2a 74 83
       -4.4195635e-37 -7.1000287e-37 7.028067e-37 -7.1753916e-37
000020 f0 89 6f 03 ed e6 6e 83 97 7d 62 83 16 c5 5c 83
       7.039413e-37 -7.0207004e-37 -6.65596e-37 -6.4878433e-37
000030 5e 53 71 83 63 a5 6d 02 10 94 08 83 56 84 6b 03
       -7.0919235e-37 1.7459474e-37 -4.0136775e-37 6.9212207e-37
000040 8f 5b 65 03 1a c6 22 03 95 90 07 83 32 1b 66 03
       6.7402156e-37 4.783493e-37 -3.9838906e-37 6.7622144e-37
000050 40 5d 65 83 31 5e 77 03 c4 8e 72 83 85 75 65 03
       -6.7404097e-37 7.2694903e-37 -7.1281295e-37 6.7431957e-37
000060 a0 48 69 03 e0 7b 64 83 f4 2b 74 03 60 f8 4b 83
       6.8555915e-37 -6.714538e-37 7.175561e-37 -5.994146e-37
000070 46 8e 5f 83 c3 0e 63 83 ae 2e 69 83 18 d2 4e 03
       -6.569713e-37 -6.672625e-37 -6.852613e-37 6.0779135e-37
000080 41 d2 71 83 de 82 6f 83 19 27 70 03 ac 3e 6b 03
       -7.1064894e-37 -7.0386016e-37 7.0574543e-37 6.9132237e-37
000090 c8 16 73 83 b5 0b 66 83 d4 f4 41 03 7f 23 65 03
       -7.1437433e-37 -6.7604364e-37 5.699865e-37 6.73378e-37
0000a0 55 aa 6b 03 67 20 72 03 a4 b7 70 03 aa 96 78 03
       6.9255825e-37 7.1154604e-37 7.074047e-37 7.3053604e-37
0000b0 08 cf 59 83 98 c2 61 83 cc 44 78 03 6a 01 de 82
       -6.400823e-37 -6.634494e-37 7.2959625e-37 -3.262078e-37
0000c0 64 8f 60 83 aa e6 6b 03 34 24 13 81 79 32 d3 03
       -6.599229e-37 6.9325082e-37 -2.702561e-38 1.2413053e-36
0000d0 82 9f 72 83 6a a8 62 03 bb 0d 70 03 97 63 6d 03
       -7.1300514e-37 6.660876e-37 7.0545423e-37 6.9762364e-37
0000e0 5b 63 6b 83 c2 91 5c 83 08 1a 62 83 59 b2 5b 83
       -6.9174348e-37 -6.481951e-37 -6.6445313e-37 -6.456305e-37
0000f0 6e 02 74 03 57 b7 72 03 42 cf 78 83 22 bc 72 03
       7.1707945e-37 7.132787e-37 -7.311857e-37 7.1333374e-37
000100 e2 3f 5c 03 26 d5 64 83 7a f3 69 03 1f 1b 46 03
       6.4725523e-37 -6.724786e-37 6.8752043e-37 5.8218104e-37
000110 35 03 5a 03 40 75 6d 03 ea 17 71 03 07 b1 0b 03
       6.4068124e-37 6.9782637e-37 7.0850987e-37 4.1051646e-37
000120 79 e7 56 03 71 96 e1 02 2b 3c 6e 83 3d e8 66 83
       6.3154665e-37 3.3147128e-37 -7.0010983e-37 -6.785752e-37
000130 c4 d3 71 03 50 cd 70 03 bd 14 6d 03 c7 25 62 83
       7.106663e-37 7.076535e-37 6.9671847e-37 -6.6458797e-37
000140 06 a5 6c 83 25 25 77 03 71 3a e4 83 95 ef bb 83
       -6.9543604e-37 7.2629416e-37 -1.3414053e-36 -1.10458775e-36
000150 55 d0 47 83 04 9a 7a 03 e6 81 68 83 02 02 79 03
       -5.8719997e-37 7.36452e-37 -6.832779e-37 7.317683e-37
000160 7e 80 73 83 20 b7 76 03 61 b6 6d 83 f6 fb ce 83
       -7.1558784e-37 7.250312e-37 -6.98574e-37 -1.2165439e-36
000170 c4 fd 6b 03 27 6b 73 83 8e c8 1f 03 3d 20 6c 03
       6.93516e-37 -7.1534287e-37 4.6956126e-37 6.9391174e-37
000180 56 62 79 03 ab fa 73 03 41 95 71 03 1c fb 56 03
       7.3287407e-37 7.1699035e-37 7.099487e-37 6.3177207e-37
000190 b5 ed 69 03 08 2d 66 83 e5 02 fc 02 64 12 72 83
       6.874542e-37 -6.764262e-37 3.7029733e-37 -7.113852e-37
0001a0 10 4c 6f 83 51 cf 64 03 83 52 64 03 49 b3 76 83
       -7.0323103e-37 6.7241166e-37 6.7097897e-37 -7.249871e-37
0001b0 42 bc 57 83 69 ee 58 83 eb 2b 78 03 7e 2b 69 83
       -6.339893e-37 -6.3750376e-37 7.2931065e-37 -6.8522473e-37
0001c0 b1 a1 6c 83 f6 e8 74 83 30 94 6d 03 9a f9 6f 83
       -6.953978e-37 -7.197258e-37 6.981815e-37 -7.0522316e-37
0001d0 94 a1 78 03 3f b1 ab 83 9f aa 62 83 1f b4 60 03
       7.3066132e-37 -1.009117e-36 -6.6611294e-37 6.6034453e-37
0001e0 98 a6 62 83 b5 8d 78 83 ff e1 71 83 9b 17 5f 03
       -6.660667e-37 -7.304332e-37 -7.1082965e-37 6.556091e-37
0001f0 9b 65 6b 03 16 b1 64 83 08 55 6a 03 88 6c 68 83
       6.917693e-37 -6.7206463e-37 6.886403e-37 -6.830326e-37
000200 9c b3 68 03 f9 de 70 03 2f d0 74 83 8b 21 08 03
       6.8384854e-37 7.078562e-37 -7.194414e-37 4.0005313e-37
000210 27 cf 71 03 3a b8 12 83 dc 45 6d 83 d9 28 64 83
       7.1061334e-37 -4.3117026e-37 -6.9728235e-37 -6.705007e-37
000220 7f 83 68 03 02 46 64 03 32 65 60 03 e0 e8 6c 83
       6.8329622e-37 6.7083543e-37 6.594385e-37 -6.9621494e-37
000230 e3 db 66 83 dd ee 62 03 e6 77 76 83 47 52 66 83
       -6.7843343e-37 6.6689632e-37 -7.243054e-37 -6.7685375e-37
000240 c6 45 77 03 45 62 68 83 1e a2 67 03 47 64 6e 83
       7.266687e-37 -6.829148e-37 6.80709e-37 -7.0057027e-37
000250 c9 17 65 03 37 54 74 83 62 34 57 03 1c fd 79 03
       6.7324356e-37 -7.180183e-37 6.3242954e-37 7.346508e-37
000260 ef bb 68 03 9f df 71 03 5f af 5f 03 f5 a8 70 03
       6.839441e-37 7.108024e-37 6.5735126e-37 7.0723614e-37
000270 99 1e 84 03 24 21 69 03 4b b8 61 03 c6 6d 56 03
       7.765288e-37 6.851059e-37 6.6333115e-37 6.301496e-37
000280 8b 2e 6c 03 a4 18 6c 83 e9 4b 62 83 ea 61 72 03
       6.9407595e-37 -6.9382453e-37 -6.650257e-37 7.122981e-37
000290 39 62 5e 03 f5 06 5d 83 f3 83 5b 03 ef b7 54 03
       6.535269e-37 -6.495405e-37 6.4509786e-37 6.2512346e-37
0002a0 f7 0b 77 03 49 3d 70 03 6d 97 74 83 45 e9 73 83
       7.260051e-37 7.0600013e-37 -7.1878984e-37 -7.167906e-37
0002b0 51 5c 6c 83 c8 25 68 83 da 36 6e 83 20 84 74 83
       -6.946014e-37 -6.8222043e-37 -7.000488e-37 -7.1856827e-37
0002c0 16 0c 5e 83 d0 b9 6c 83 d8 e9 59 03 5b 0c 70 03
       -6.525381e-37 -6.956747e-37 6.403901e-37 7.0543844e-37
0002d0 4c e7 6b 03 e2 98 56 03 13 58 75 83 9a 98 3e 03
       6.932581e-37 6.306445e-37 -7.2100133e-37 5.601116e-37
0002e0 8b d8 5f 83 56 1d 69 03 84 ca 6d 03 5d 1f 75 03
       -6.578239e-37 6.850622e-37 6.9880517e-37 7.2035032e-37
0002f0 d1 d6 78 03 e4 43 5f 83 87 83 62 83 61 95 5d 03
       7.3127247e-37 -6.5611745e-37 -6.6566417e-37 6.511754e-37
000300 e5 20 0a 83 95 d8 68 83 3d b4 63 03 70 55 60 03
       -4.0592316e-37 -6.8427296e-37 6.691621e-37 6.592576e-37
000310 3f 4e 70 03 f8 4e 71 03 9f 37 73 83 38 62 74 03
       7.0619483e-37 7.0914186e-37 -7.147513e-37 7.1817905e-37
000320 64 3d 77 83 0b f7 65 83 24 4c 6c 83 25 fb 66 83
       -7.265725e-37 -6.7580643e-37 -6.944157e-37 -6.7879225e-37
000330 ba 8d 70 83 51 1c 4e 83 c4 28 69 03 c1 10 3e 83
       -7.0692355e-37 -6.0570465e-37 6.8519343e-37 -5.5855214e-37
000340 a8 47 61 03 cc 9b 6f 03 89 ce 64 83 dc b6 6a 03
       6.6203815e-37 7.0414634e-37 -6.724027e-37 6.897633e-37
000350 d8 a5 74 83 00 6a 6c 03 4e de 4d 83 07 11 5a 83
       -7.1895535e-37 6.947585e-37 -6.049928e-37 -6.408399e-37
000360 fa e7 48 83 62 75 2b 03 7a 70 4f 83 93 9e 7a 03
       -5.9041014e-37 5.0387132e-37 -6.096095e-37 7.365043e-37
000370 c6 62 72 83 ad e1 6d 03 df f5 6a 83 c4 0a 51 03
       -7.1230795e-37 6.9907103e-37 -6.9048666e-37 6.143194e-37
000380 a7 79 64 83 62 c6 76 03 ae 6c 71 83 76 cb 6b 83
       -6.714283e-37 7.2520635e-37 -7.0948293e-37 -6.9293855e-37
000390 7d 80 72 03 66 75 6a 83 60 01 70 03 20 ee e1 00
       7.1264906e-37 -6.8901186e-37 7.053124e-37 2.074841e-38
0003a0 e2 f6 75 83 a5 32 6f 83 dd 0f 79 03 b8 c6 fe 02
       -7.2282437e-37 -7.0293925e-37 7.3192733e-37 3.7436005e-37
0003b0 1c 8a 76 83 4f 49 0d 03 ff 71 6d 83 be 04 6d 83
       -7.2451444e-37 4.152033e-37 -6.97789e-37 -6.9653484e-37
0003c0 49 15 67 03 5a fb 79 03 b8 18 72 83 76 ee 5c 83
       6.7909233e-37 7.346306e-37 -7.1145784e-37 -6.492593e-37
0003d0 99 2c 6e 83 02 bb 76 83 f7 58 5e 03 07 5d 6b 83
       -6.999311e-37 -7.2507577e-37 6.5342063e-37 -6.9167083e-37
0003e0 72 e3 63 03 48 d3 47 03 e6 7d 6e 03 3e 85 af 02
       6.69704e-37 5.8723383e-37 7.008644e-37 2.5790416e-37
0003f0 a8 eb 6f 03 00 8f 67 83 ed f7 42 83 b9 fb 72 83
       7.0506308e-37 -6.8048955e-37 -5.729608e-37 -7.140637e-37

rnn.bias_ih_l2 f4 [16]
000000 93 97 74 83 cc de 59 83 4b 74 12 83 2b 28 6c 03
       -7.1879154e-37 -6.4026327e-37 -4.303904e-37 6.9400277e-37
000010 6f c8 65 83 53 39 70 03 48 66 87 03 0e c1 6f 83
       -6.752714e-37 7.0595466e-37 7.9580695e-37 -7.0457403e-37
000020 32 7e 6f 03 03 7a 74 03 7d 58 5c 03 c7 cd 67 03
       7.0380653e-37 7.184522e-37 6.475377e-37 6.812102e-37
000030 5c 35 b8 03 22 09 7a 03 72 c8 8b 02 78 07 70 83
       1.0826799e-36 7.347888e-37 2.0539264e-37 -7.0538235e-37

rnn.bias_hh_l2 f4 [16]
000000 4d 3d 6e 83 3d 36 5e 03 4d 73 70 03 f0 7d 6b 83
       -7.0012284e-37 6.53022e-37 7.066202e-37 -6.9204862e-37
000010 ce 5e 56 03 9e 42 64 83 90 a4 79 03 5d 62 6a 03
       6.299778e-37 -6.707965e-37 7.336343e-37 6.8879335e-37
000020 4a ce 23 83 70 a6 79 03 5e 5d 65 83 ce da 63 83
       -4.8138203e-37 7.3365584e-37 -6.740423e-37 -6.696048e-37
000030 55 93 cc 82 dd 07 6d 83 47 73 74 83 5f 52 75 03
       -3.005967e-37 -6.9657067e-37 -7.1837487e-37 7.2093586e-37
