TPnet/models/mergedF_scaledF/LinearCNN-15_10-18_07.pth (torch, 161141 bytes, 13 tensors)

dnn.0.weight f4 [128, 33]
00000000: 5b4d 1138 0b23 ca39 1896 cabc 55ce 7ab9
00000010: 3eb0 a9bc 4fe3 013d b678 863c 56f5 be3a
00000020: 6e10 ba39 d071 293a caf0 29bd 6996 acbd
00000030: 8661 c3bc 4017 6eb9 b75b 8aa5 9410 e330
00000040: 01a8 0038 36d8 97b7 1adc 053e bf4e 8c3c
00000050: 0bdc 03bd 4ee3 4d3d 42ba d5bc fcc5 8fbd
00000060: 9852 f8bd 6e41 18b7 0931 b7b9 4795 f537
00000070: 061b a037 9b0b 063a da91 73b9 6bd4 d6bc
00000080: 2602 59b9 ac93 7039 ebc5 0eba be95 283c
00000090: ec66 5eba 2075 143d c1fc 0bbd df7b 87bd
000000a0: 5321 0bba 6615 d9b9 f2c6 99bb f301 09bd
000000b0: f5fa 633c 3551 0f3e 6eb4 cf38 4c59 33ac
000000c0: e4f2 11ac 3585 b635 1572 cdb8 a388 08be
000000d0: cde4 d13b 3182 12bb 0bbc 44bd 4d5d 0abe
000000e0: 8fc3 403e 5294 163e f72a 12ba 05f5 9aba
000000f0: 7004 dbb8 1dc1 0cba 0bf4 eeb9 bf35 223a
00000100: 01a6 9c3c db63 6f3d f58e c439 9252 0cba
00000110: b8a9 12bd 7137 7ab8 3de8 163b c2e6 17bd
00000120: 04ee f1bd f45c 013a 1803 03b9 97f0 56bb
00000130: 9dda 94bc 5c4a 473d 561a cb3c c309 5632
00000140: 4c4c 5e2d 5ae4 4a2f f205 5539 7bf8 2838
00000150: ce63 cd3d 806e 3b3c e4e5 ea3b 26d1 273d
00000160: d016 db3d 3a16 42bd 9b45 40bd d839 503a
00000170: 65f1 04bb 9f60 6eb9 a080 9cb9 d20a ea39
00000180: 081b c1ba 2a4e ecba 340b 3cbb 951a 423b
00000190: 8177 f53b 7da7 94bd da5c b93a 4eb9 d0bc
000001a0: 1ca5 033e 5507 cdbb 5fcd 0cbc aec9 1d3b
000001b0: 61cc af3c f217 de3d 4e9a 25be e98d ccbd
000001c0: 6bfb c3b9 8c5b 5d34 3d7d 66b6 724c 9f39
000001d0: 28bd 71ba 2a52 ebba 1d3c 11bc 5ed2 163d
000001e0: 76e4 90bd b9de 81bd 47ff 953d 1ccd 23be
000001f0: 6c10 f839 d85e b03b ab24 8eba 8d5b dcb9
00000200: 2d6e 9cbb de75 51bd f0e1 96bc d14d 133d
00000210: 8541 81b9 92b6 063a fa43 d83c b80f 043a
00000220: db43 1bbd eea8 a4bd 22c9 c23d 97fd 65bb
00000230: 553c 8bb8 8980 843a 44ce 153d fefd 8fbd
00000240: 5ba4 a93d b650 2c34 4ab8 a5b1 b314 a82f
00000250: ba22 df36 5364 7139 4a6e 86bd ee14 e0bc
00000260: 8fc0 86bc 2902 593d bc13 033e fd17 fb3d
00000270: ba17 253e ecb9 283a 3df3 533a 5ec6 5eb9
00000280: 6b2d 51b9 7d6d 4eb9 b079 a8b9 1c0b 5bbd
00000290: de34 863d e6fb 1eba 60ca 4fba 56e5 60bd
000002a0: 4845 2aba d487 0abd 25c2 10bd 054d d13d
000002b0: 87c1 2339 5b6d aa37 d734 72bb 4a29 983c
000002c0: fbc5 e93d 91e3 7cbd 17dd 13b7 7e3c 1433
000002d0: 4bb4 a3ae d0fa 3bb7 096b a138 7aa8 cbbd
000002e0: f2d7 713b 5f2b a939 66ca fc3c c55e b33c
000002f0: 5c2f bdbb 5563 1ebe 61d8 e139 4309 ceb8
00000300: 5659 55b7 69f9 d238 b6be e739 b02b 03bb
00000310: 20f6 8abc a3bf 773d 76a4 d339 b811 a439
00000320: 21f6 bdbc be11 9eb8 cd66 64bc 6aed 60bd
00000330: 7eed eabd 0071 4cba a86e e9b8 e327 b2bb
00000340: ea85 22bd d096 81bd ba3d 033e ac58 2cb8
00000350: 6629 02ad 1ccf ae2e 3557 f537 5997 cab8
00000360: 5963 88bc 7eb3 543b 38c3 c5bb 0aba fbba
00000370: a019 d0bb 4c91 33be af16 1e3e b517 c6ba
00000380: 982a c9b9 ebe4 bdb8 1260 26ba 4602 feba
00000390: f1d9 d33c b53e fe3c 39ca 453d b82a 92ba
000003a0: b614 c4ba f85c 95bc 203c 4cba 006e 90bc
000003b0: 68da 263d 40b9 1f3e 6858 343b d25d 3cb9
000003c0: f703 e2ba 08d2 00bd c59a 7c3d 21df 84bc
000003d0: 1e62 8238 8bce dfb4 0636 17ae 9fd5 d434
000003e0: 8037 92b9 39ea a7bd e4c7 30bb 1e97 fabb
000003f0: 974a 7fbd 35d3 d93b 1994 0ebd 5172 5bbd
3.4642737e-05 0.0003855455 -0.024729773 -0.00023918723 -0.020713922 0.03171092 0.016414981 0.0014568965
0.00035488926 0.0006463798 -0.0414894 -0.08427126 -0.023850214 -0.0002270611 -2.4001332e-16 1.6521136e-09
3.0674044e-05 -1.8101284e-05 0.13072243 0.017127393 -0.03219227 0.050265603 -0.026089791 -0.070201844
-0.121251285 -9.07514e-06 -0.00034941014 2.9275789e-05 1.908607e-05 0.00051134237 -0.0002322862 -0.026224336
-0.00020695533 0.00022943196 -0.0005446362 0.010289608 -0.00084839645 0.03624451 -0.03417659 -0.066154234
-0.0005307395 -0.00041405408 -0.0046929056 -0.033449125 0.013914813 0.13995822 9.904137e-05 -2.5487e-12
-2.074057e-12 1.3598825e-06 -9.796411e-05 -0.13333373 0.006405449 -0.0022355432 -0.048030894 -0.13512154
0.188246 0.14705017 -0.000557586 -0.0011822289 -0.0001044356 -0.00053693523 -0.00045576724 0.00061878184
0.019122126 0.05844484 0.00037490544 -0.000535288 -0.035806388 -5.965628e-05 0.0023026608 -0.037085302
-0.11812976 0.00049348106 -0.00012494286 -0.0032797211 -0.01817065 0.0486549 0.024792831 1.2458659e-08
1.263618e-11 1.845292e-10 0.00020315478 4.0285737e-05 0.10028802 0.0114399195 0.0071685184 0.040970944
0.106977105 -0.04738448 -0.04694138 0.00079431897 -0.0020285484 -0.00022733443 -0.00029850472 0.0004464002
-0.0014732787 -0.0018028666 -0.00286932 0.0029617895 0.0074910526 -0.07258508 0.0014142052 -0.025478985
0.12855953 -0.0062569776 -0.008593886 0.002407651 0.02145976 0.10844411 -0.16172144 -0.09988005
-0.0003738062 2.0615533e-07 -3.434557e-06 0.000303838 -0.0009221607 -0.0017953564 -0.00886443 0.036821716
-0.070748255 -0.06341309 0.07324081 -0.15996212 0.0004731448 0.0053824 -0.0010844668 -0.0004202988
-0.004773876 -0.051137798 -0.018418282 0.035962883 -0.00024653613 0.00051388994 0.026399601 0.00050377427
-0.03790651 -0.08040033 0.09511019 -0.0035093778 -6.639274e-05 0.0010109107 0.036573663 -0.07030867
0.082833014 1.6048111e-07 -4.8230833e-09 3.057373e-10 6.6499606e-06 0.00023020925 -0.06564005 -0.02735373
-0.016449241 0.052980576 0.12800497 0.12260435 0.16122332 0.0006436396 0.00080852566 -0.00021245467
-0.00019948713 -0.00019686478 -0.0003213412 -0.05347739 0.06553052 -0.00060647575 -0.00079265796 -0.05490621
-0.0006495309 -0.033820942 -0.0353414 0.102197684 0.00015616986 2.0316502e-05 -0.0036957765 0.018574376
0.11414715 -0.06174046 -8.813359e-06 3.4513953e-08 -7.444408e-11 -1.1204465e-05 7.697015e-05 -0.09944244
0.0036902395 0.00032266506 0.03085823 0.021895776 -0.005773468 -0.1546758 0.0004307656 -9.8245706e-05
-1.27165895e-05 0.000100600366 0.00044201844 -0.0020015053 -0.016963065 0.060485493 0.0004036759 0.0003129372
-0.023188652 -7.537332e-05 -0.013940525 -0.054913916 -0.11471079 -0.0007798821 -0.00011130917 -0.005436884
-0.03967849 -0.06327593 0.12816516 -4.1090578e-05 -7.398837e-12 7.949394e-11 2.9246885e-05 -9.660301e-05
-0.016648935 0.0032455618 -0.006035235 -0.0019205224 -0.006350711 -0.17535895 0.1543834 -0.0015113266
-0.00038369442 -9.0548616e-05 -0.0006346713 -0.001937934 0.025860758 0.03103576 0.048288558 -0.0011151647
-0.0014959786 -0.018232808 -0.0007790942 -0.017630577 0.040735632 0.15598011 0.0027518515 -0.00017964028
-0.0017243613 -0.0314503 0.061671037 -0.016219677 6.217159e-05 -4.1687267e-07 -3.4381407e-11 3.9643507e-07
-0.0002788864 -0.08198971 -0.0026974613 -0.007647409 -0.062326994 0.0066474923 -0.034809206 -0.053575817

dnn.0.bias f4 [128]
00000000: 752f f533 95c0 8ab6 5826 8137 2933 88b8
00000010: 382f d4b7 82a6 1635 1e4b 73b8 a63b 3eb8
00000020: c074 acb7 711c 09b7 9885 2bb7 da40 b5b4
00000030: 1133 e837 be6b da38 4c31 50b5 7d23 0237
00000040: b994 a9b7 51c7 b036 9a81 c738 dec8 5fb8
00000050: a28a 8ab6 a484 6338 3a69 85b6 0aef beb7
00000060: 12e0 03b7 2428 9e37 148c 2ab7 fd8b 9b35
00000070: e749 2037 22ed fab7 1019 b937 f76c 9ab6
00000080: 4d18 bb37 366e 7837 602e 52b7 2444 a037
00000090: c176 53b8 9557 aeb7 af12 b636 6a4f a337
000000a0: b8d1 f837 eae8 9238 b9f5 07b7 51fe bfb7
000000b0: 2cbb a7b5 957d 6f37 024e 8636 fea5 f5b7
000000c0: 480f b735 1572 1d38 1803 eeb4 caf0 38b6
000000d0: 00b7 e937 3151 9037 72e4 d637 6bdb 0bb8
000000e0: 29a2 0637 2ae4 4eb8 f17f 3f37 767e 6cb5
000000f0: bc2a e636 a28c 3ab6 bd0e 83b7 8873 81b7
00000100: 904a 0339 850f 1735 d27b 84b7 8770 05b7
00000110: 184c 98b7 d0af 6db7 07fa 80b7 7a8b 8436
00000120: 66fd 55b8 b508 a236 3350 9a36 15f2 15b7
00000130: ed3a fdb7 6f65 21b9 ad8f b8b5 6a31 0b37
00000140: d5e2 6136 015e 8937 177c a538 ff11 3835
00000150: 7cd3 5f36 530c a4b6 8efb bdb6 77ca c036
00000160: 8185 e3b7 8c8f 2eb8 9e81 3e38 8995 0cb7
00000170: 7d44 54b8 3301 c936 245a 4937 e43d 07b8
00000180: 3223 bbb8 c2c8 5e36 7588 9eb5 f614 8238
00000190: 32f3 3eb7 b8a8 dd37 144d 66b7 4124 bc37
000001a0: b488 c8b7 3c79 acb6 2d11 9f37 f517 c935
000001b0: b2e3 c3b7 9638 f036 9774 70b7 4085 7db6
000001c0: a1fb ceb7 19e2 8ab7 baad 5a37 0e65 7bb6
000001d0: 46fd 17b6 f480 93b5 bb2d 9b37 1915 ac36
000001e0: 02d5 0438 8499 10b8 0e7c 94b6 bfe4 14b8
000001f0: 3302 6036 88f7 3737 5405 abb5 1d79 0737
1.1417334e-07 -4.13514e-06 1.5395854e-05 -6.494515e-05 -2.5294357e-05 5.6121655e-07 -5.8005673e-05 -4.5355082e-05
-2.0558364e-05 -8.172458e-06 -1.0223499e-05 -3.3761063e-07 2.7680335e-05 0.000104151186 -7.7557775e-07 7.756867e-06
-2.0215624e-05 5.268412e-06 9.5131996e-05 -5.3354415e-05 -4.1288595e-06 5.424455e-05 -3.975959e-06 -2.2761076e-05
-7.860379e-06 1.885376e-05 -1.0165404e-05 1.1589142e-06 9.55395e-06 -2.9912746e-05 2.206539e-05 -4.602243e-06
2.2303453e-05 1.4807612e-05 -1.2527773e-05 1.9105217e-05 -5.041692e-05 -2.07832e-05 5.4261977e-06 1.9468094e-05
2.9661562e-05 7.005206e-05 -8.103839e-06 -2.28874e-05 -1.2496944e-06 1.4274749e-05 4.0025925e-06 -2.9283572e-05
1.363901e-06 3.7537964e-05 -4.4333206e-07 -2.7558294e-06 2.786098e-05 1.7203945e-05 2.5617166e-05 -3.334453e-05
8.024778e-06 -4.932672e-05 1.1414276e-05 -8.8100876e-07 6.859509e-06 -2.779802e-06 -1.562328e-05 -1.5431797e-05
0.0001252091 5.627447e-07 -1.5793285e-05 -7.953618e-06 -1.8155246e-05 -1.4167235e-05 -1.5375217e-05 3.9501438e-06
-5.1019153e-05 4.82899e-06 4.598894e-06 -8.937456e-06 -3.018739e-05 -0.00015391943 -1.3750883e-06 8.296551e-06
3.3659646e-06 1.6375447e-05 7.890927e-05 6.857153e-07 3.335269e-06 -4.8890156e-06 -5.6619238e-06 5.745616e-06
-2.7122676e-05 -4.161852e-05 4.5420245e-05 -8.379467e-06 -5.0608523e-05 5.9904064e-06 1.2001521e-05 -3.224415e-05
-8.9234105e-05 3.3197434e-06 -1.1811632e-06 6.202787e-05 -1.1381506e-05 2.6423819e-05 -1.3727014e-05 2.2428228e-05
-2.3905515e-05 -5.140113e-06 1.8962275e-05 1.4982639e-06 -2.335184e-05 7.159145e-06 -1.433226e-05 -3.77775e-06
-2.4674287e-05 -1.6556167e-05 1.3034261e-05 -3.7460736e-06 -2.2648178e-06 -1.0989884e-06 1.8498735e-05 5.1284555e-06
3.166963e-05 -3.4475248e-05 -4.4251856e-06 -3.5498986e-05 3.3379881e-06 1.0965283e-05 -1.2742044e-06 8.074826e-06

dnn.1.weight f4 [128]
00000000: df0f 653f f498 653f ffec 653f b208 673f
00000010: ba9a 6d3f a685 633f 6ac6 6a3f eae5 643f
00000020: 3752 6a3f 1ba6 603f 3e90 653f 6ff2 693f
00000030: 9c6f 673f 153f 693f 5342 693f 4e46 633f
00000040: a1e4 633f 2942 5e3f ddc4 6a3f be69 683f
00000050: 6e66 673f 5714 693f 10e8 623f a56a 683f
00000060: 1d42 683f 88d9 673f af1b 673f d86b 683f
00000070: ad1e 6b3f b43d 683f 1720 663f 7489 673f
00000080: be21 6a3f 10f7 673f 561b 693f 1ab1 653f
00000090: 21cf 643f b8d5 663f 1c41 623f a949 633f
000000a0: 2189 673f 8359 633f 13d4 693f ba62 643f
000000b0: 4c9e 683f b899 663f 578a 693f c576 723f
000000c0: 4f41 663f a6aa 6c3f 4462 653f 7595 693f
000000d0: d1ed 623f 8bd4 6a3f 1faa 693f ee17 683f
000000e0: 1ca9 623f 18e3 683f 8eaf 633f b23b 663f
000000f0: 4871 653f 5080 643f 6fef 653f 8c0a 643f
00000100: 785b 653f 5743 683f cb4f 673f 3ee2 6d3f
00000110: aae7 653f caca 693f cbb6 663f 1d05 663f
00000120: b8bd 673f db92 693f 2d4b 663f 2427 653f
00000130: 3cbf 643f a803 6a3f 3090 653f 34e0 653f
00000140: 4d8d 683f ff9e 693f 5913 653f 38ff 673f
00000150: 4544 603f 67dc 6a3f 772e 693f be2e 643f
00000160: ac65 6b3f 37b0 683f f25d 6e3f 759a 633f
00000170: fc25 683f a4f0 6d3f b917 653f 3b6a 643f
00000180: cc07 5e3f bbc9 683f 5439 643f 4f0b 673f
00000190: fe74 673f edf9 633f af54 663f 1c17 673f
000001a0: 0848 6a3f 8a5d 633f b3f3 673f 9581 663f
000001b0: 980f 6b3f 07bd 613f 862d 663f 8972 6c3f
000001c0: d8fa 653f 1373 673f f35b 6b3f 32c3 6a3f
000001d0: e0b3 653f bd52 653f 1ab0 673f 2388 683f
000001e0: 9b5e 683f 4223 663f bd42 693f 48b6 6a3f
000001f0: fdd2 673f 86e1 613f 0170 693f a30b 6c3f
0.8947734 0.8968651 0.8981475 0.90247643 0.9281422 0.88875806 0.91709006 0.8941332
0.915317 0.87753457 0.8967322 0.9138555 0.9040468 0.9111188 0.9111683 0.8877915
0.89020735 0.868197 0.9170664 0.9078635 0.9039067 0.9104666 0.8863535 0.90787727
0.9072588 0.905663 0.90276617 0.90789557 0.9184368 0.9071915 0.89892715 0.9044411
0.91457736 0.9061136 0.91057336 0.8972336 0.89378554 0.9016986 0.883806 0.8878427
0.9044362 0.8880846 0.91339225 0.89213145 0.9086654 0.90078306 0.91226715 0.9471248
0.89943403 0.9244789 0.89603066 0.9124368 0.8864413 0.91730565 0.9127521 0.90661514
0.8853929 0.9097152 0.8893975 0.8993484 0.8962598 0.8925829 0.8981847 0.89078593
0.89592695 0.9072775 0.9035613 0.92923343 0.89806616 0.91325057 0.9012267 0.8985155
0.9052386 0.9123971 0.8995846 0.8951285 0.893543 0.9141183 0.8967314 0.8979523
0.9084061 0.91258234 0.8948265 0.9062381 0.8760417 0.9174256 0.91086525 0.8913382
0.91952014 0.9089388 0.931121 0.8890756 0.9068296 0.92945313 0.8948932 0.89224595
0.8673065 0.90932816 0.89149976 0.9025163 0.9041289 0.8905323 0.89972967 0.9026964
0.9151616 0.88814604 0.9060623 0.90041476 0.9182067 0.8817906 0.89913213 0.92362267
0.8983588 0.90409964 0.9193718 0.91704094 0.8972759 0.89579374 0.90503085 0.9083273
0.90769356 0.8989755 0.9111746 0.9168439 0.9055632 0.88234746 0.9118653 0.92205256

dnn.1.bias f4 [128]
00000000: c23d 403b 28b8 30bc 27a9 78bb a297 283b
00000010: 4c40 213c 0cc8 3dbc 5c5c c43c 042b bfbc
00000020: b544 28bc 63fa 9ebc 8cfa 3fbc bcfc d0bb
00000030: 43e8 e53b 6d18 57bb 570b 9c3b 8d04 6fbc
00000040: afa0 a9bc 8c8d a2bc badd f3ba a964 493b
00000050: e6f4 31bc 87f6 c33b c0a4 edbb a382 2b3c
00000060: 53b1 f0bb 7051 463b 810d cabb 8c9c 33bc
00000070: 19de e63b 0db1 2aba 7be1 223c 5d1e 5a3b
00000080: ee5e 61bc a7d8 47bb fbe2 89bb 6e90 93bc
00000090: 484c 27bc 829d 75bc 3315 a1bc 58c5 033b
000000a0: 7a54 d6bb c1e6 a8bb 0126 8fbc 7225 8bba
000000b0: fb6f 49bb 1a07 cdbb 8185 03b9 8d82 7d3c
000000c0: a1d9 a0bb 5bbb 70bb 490c 1a3c 5bf4 9ebc
000000d0: a737 53bc 682d e8bb 142f e2bb 2165 0ebb
000000e0: a7fe cbba a349 58bc 88df 9fba 7b6d 0bbc
000000f0: b7b0 d7bc e07f b4ba b429 3a3b 290b 14bc
00000100: c10c 1f3c ae06 863a ca1e 4bbc 00be 97bc
00000110: a8e1 083c 1ccb ff3b 3f12 06bc 773b 37b9
00000120: ea77 ba3a 82ac 6f3c 6013 82bc ad45 fdbb
00000130: 5402 39bc dd3d 8c3c 4606 c6bc 1f6b de3b
00000140: 8ff5 d6bb 570c edbb d792 b83b 2bfb 2fbc
00000150: 40eb 2fbc 46e7 17bb 84b5 44bc 2b01 06bc
00000160: 5d76 793a a232 3f3b e927 f8bb ac20 7cbc
00000170: 14b2 063c 21fe bb3c bec6 6ebc f83b c3bb
00000180: ebf9 5cbc 49ae 59bc f12b f6ba 811a 923b
00000190: 2119 b2ba 8f55 23bc 1ff4 4cbc 8ebe 4fbc
000001a0: 8918 2bba ddad b2bb c14b 32bc 626b 5d3a
000001b0: 77b7 40bb 4072 a7bb 89a1 03b9 e682 34bc
000001c0: bc0d 093c b85f e339 5fc3 9d3c 3d5b bbbc
000001d0: 3d7c f6bb 3971 c6ba 3ad2 bcbb 08b9 8dbc
000001e0: f466 7ebc 8676 34bc 2ff2 b139 d2a7 943a
000001f0: 1fb9 353b a0dd 223a aac7 84b7 1134 09bc
0.0029333686 -0.010786094 -0.003794262 0.0025725146 0.00984199 -0.011583339 0.023969822 -0.023335941
-0.010270287 -0.019406503 -0.01171745 -0.0063777845 0.007016213 -0.0032820955 0.004762094 -0.014588487
-0.020706503 -0.019842885 -0.0018605508 0.0030730164 -0.010861611 0.005980316 -0.0072523057 0.010468158
-0.0073453574 0.0030260943 -0.0061661606 -0.010962617 0.007045519 -0.0006511368 0.009941454 0.0033282258
-0.013755543 -0.0030494125 -0.0042079664 -0.018013205 -0.010211058 -0.014991166 -0.019663429 0.002010664
-0.006540832 -0.005154461 -0.017474176 -0.0010616018 -0.0030736912 -0.00625695 -0.00012542868 0.01547302
-0.004908756 -0.0036732766 0.009402343 -0.019403627 -0.0128916865 -0.007085491 -0.006902585 -0.0021727758
-0.0015563563 -0.01320115 -0.0012197355 -0.008509989 -0.026329381 -0.001377102 0.0028406205 -0.009035864
0.009707631 0.0010225379 -0.012397477 -0.018523216 0.008354582 0.007806195 -0.008183061 -0.00017474392
0.0014226411 0.014628531 -0.01587838 -0.0077292533 -0.011292059 0.017119342 -0.024172913 0.006787672
-0.0065600346 -0.007234137 0.005632739 -0.010741035 -0.01073724 -0.0023178621 -0.012006167 -0.008178989
0.00095162337 0.0029174467 -0.007573117 -0.015388649 0.008221168 0.022948327 -0.014573751 -0.0059580766
-0.013487319 -0.013286182 -0.0018781406 0.004458726 -0.0013587811 -0.009969129 -0.012509375 -0.012679709
-0.00065267883 -0.005452855 -0.010882319 0.0008446482 -0.0029406229 -0.005110055 -0.0001255331 -0.011017537
0.008365091 0.0004336813 0.0192582 -0.022870654 -0.0075221346 -0.0015139944 -0.0057623656 -0.017300144
-0.015527476 -0.011014586 0.00033940512 0.0011341518 0.002772875 0.0006212834 -1.5828602e-05 -0.00837423

dnn.1.running_mean f4 [128]
00000000: ece1 4044 c1fe ca46 2fc8 2dc4 ec27 8146
00000010: 63fb e746 eedd d246 956a ab46 cd2c d3c5
00000020: 996f 3347 2f59 c5c6 80aa e945 9ee8 4b47
00000030: 0b18 8445 cdd5 afc6 2b68 34c7 39fa fbc6
00000040: 339a 8ec7 4d98 13c7 2547 1bc7 5a44 73c7
00000050: 9355 cb46 86ff 7746 7975 f1c5 e0ce 8447
00000060: f851 f2c6 8f8b e145 09ce 6547 b084 3747
00000070: 4aae 03c7 07b4 6dc7 6dbf 3047 8982 8e47
00000080: efa7 1f47 7a09 3ec6 a631 8347 a64e 9346
00000090: c05f 57c7 954c 56c6 41c9 28c6 7216 76c7
000000a0: f460 44c7 95b7 8b47 9190 7a46 15df 1147
000000b0: 13f5 adc6 3044 3046 c4c7 7cc5 09b6 7846
000000c0: f831 9844 d8a8 aac6 0598 2744 2759 32c7
000000d0: d797 4347 aaec 4fc7 0220 16c7 3ac9 be46
000000e0: 8949 98c6 35ef 28c7 9ea3 de46 c045 0146
000000f0: 26bc 11c7 fd5e 67c7 651f 0dc6 0f22 6547
00000100: 09a9 c9c6 93b5 3fc4 3b0f d4c6 d1c3 7647
00000110: da50 66c7 23f3 da46 e335 e646 f7cb b4c5
00000120: 0af5 71c7 674a 0447 4728 9447 d0e7 1f47
00000130: 2617 f845 cd3d 2b47 956b 1247 8394 f546
00000140: cf09 a746 c5ce 8547 5bf3 0246 3111 93c6
00000150: f6f1 d3c5 e01d e7c5 cebf 9247 1a05 48c7
00000160: aebb 6d47 619f 25c7 ebf0 8547 7273 80c7
00000170: 9c75 f246 9600 59c7 cdd5 9246 3324 85c6
00000180: a5a2 db46 5a7f 8947 5367 8ec5 a391 94c7
00000190: a073 59c6 292b 4dc7 a8f7 7647 9b5e a5c6
000001a0: 9a45 73c7 0933 3ac7 642a 8d47 9c2c 5747
000001b0: d82c b346 7459 0cc7 9e48 58c7 7325 8247
000001c0: a25e 8747 6777 83c4 cb01 66c7 ff40 21c7
000001d0: 916a 1bc6 4c60 b6c5 23be 3546 7375 65c7
000001e0: f3b1 4947 3b43 3ec7 6a08 6b45 012b e4c6
000001f0: 80bc 60c6 2e46 43c5 1415 43c6 bee8 14c7
771.53 25983.377 -695.12787 16531.96 29693.693 26990.965 21941.291 -6757.6
45935.598 -25260.592 7477.3125 52200.617 4227.0054 -22506.9 -46184.168 -32253.111
-73012.4 -37784.3 -39751.145 -62276.35 26026.787 15871.881 -7726.684 67997.75
-31016.984 7217.445 58830.035 46980.688 -33710.29 -60852.027 45247.426 72965.07
40871.934 -12162.369 67171.3 18855.324 -55135.75 -13715.1455 -10802.313 -62998.445
-50272.953 71535.164 16036.142 37343.082 -22266.537 11281.047 -4044.4854 15917.509
1217.5615 -21844.422 670.3753 -45657.152 50071.84 -53228.664 -38432.008 24420.613
-19492.768 -43247.207 28497.809 8273.4375 -37308.15 -59230.99 -9031.849 58658.06
-25812.518 -766.8371 -27143.615 63171.816 -58960.85 28025.568 29466.943 -5785.4956
-61941.04 33866.402 75856.555 40935.812 7938.8936 43837.8 37483.582 31434.256
21380.904 68509.54 8380.839 -18824.596 -6782.245 -7395.7344 75135.61 -51205.1
60859.68 -42399.38 68577.836 -65766.89 31034.805 -55552.586 18794.9 -17042.1
28113.322 70398.7 -4556.9155 -76067.27 -13916.906 -52523.16 63223.656 -21167.303
-62277.6 -47667.035 72276.78 55084.61 22934.422 -35929.453 -55368.617 66634.9
69309.266 -1051.7313 -58881.793 -41280.996 -9946.642 -5836.037 11631.534 -58741.45
51633.95 -48707.23 3760.526 -29205.502 -14383.125 -3124.3862 -12485.27 -38120.742

dnn.1.running_var f4 [128]
00000000: f815 1b49 ada6 2749 ea57 bc48 d66c 5246
00000010: 3932 9248 eb08 e248 98e6 a147 98c2 8948
00000020: dad1 bf48 b179 4e49 93a2 0249 8547 2449
00000030: 7f3d f247 2297 c747 fec4 7849 a0a2 4549
00000040: e71b e248 0182 5749 10c2 1348 d8e5 1848
00000050: e774 9148 0e85 6e47 9523 6949 ddac 7148
00000060: be98 2b48 f465 0749 33a0 7d49 2fb2 5c49
00000070: e2ac c847 5f30 d848 f646 9547 118e 3c49
00000080: 2798 3c48 b9d6 0d49 f42d be48 ab52 0849
00000090: 9b81 1f48 edad e347 84b7 9d48 9853 7c49
000000a0: 32e9 8f48 f580 8248 e05a 6449 8d6f 8a49
000000b0: 490b 2c49 9603 da47 f063 2449 5044 3c46
000000c0: 5eba 2348 7124 1d47 a153 b847 b6cc 8f49
000000d0: f728 1d48 3001 7e48 a757 2548 4493 3b48
000000e0: f568 2448 32a2 9448 943e 9b47 b631 a347
000000f0: 88c0 6949 b23d 6e48 62f7 0c48 a671 d948
00000100: 2b5d 0a48 d841 1646 0e43 9147 f842 5448
00000110: c955 4c48 3e29 3347 3ca3 7847 2953 8947
00000120: 872c 9048 2b49 c748 884d 6d49 30a1 6649
00000130: cdd5 1749 cb6e 9547 588c 4a49 32b0 fc48
00000140: 6e32 9a48 6db6 4448 20ec 0c48 c658 c048
00000150: c0b7 0649 b3df 8947 67f6 a448 db43 6d49
00000160: 2d40 2148 5271 a447 38cf 2f48 0b01 1b49
00000170: 09f3 f647 89fa 3a48 8aea 8e49 d8a8 5549
00000180: add2 7a49 5c06 a248 749c d148 9b1b 7d48
00000190: e949 7648 97c0 6c49 e1d8 ea48 390f 2d47
000001a0: 416e 1649 de63 f048 404e f848 02db 5349
000001b0: aab2 7e47 9804 a448 663a 9249 65f2 b048
000001c0: 24ee 0549 13a2 7e47 ddaa 3948 a076 2549
000001d0: ef52 9748 f5a8 c047 3a3e b847 3dbe 2449
000001e0: 642a 3b48 5c91 0e48 d8d0 0649 7e8b 3048
000001f0: 6383 ba48 05d3 a647 40c5 1349 f832 b048
635231.5 686698.8 385727.3 13467.209 299409.78 462919.34 82893.19 282132.75
392846.8 845723.06 535081.2 672888.3 124026.99 102190.266 1.0189599e+06 809514.0
463071.22 882720.06 151304.25 156567.38 297895.22 61061.055 954937.3 247475.45
175714.97 554591.25 1.0388512e+06 903970.94 102745.766 442754.97 76429.92 772321.06
193120.61 580971.56 389487.62 558378.7 163334.42 116571.85 323004.12 1.0335295e+06
294729.56 267271.66 935342.0 1.1340656e+06 704692.56 111623.17 673343.0 12049.078
167657.47 40228.44 94375.26 1.1780068e+06 160931.86 260100.75 169310.61 192077.06
168355.83 304401.56 79485.16 83555.42 957448.5 243958.78 144349.53 445325.2
141684.67 9616.461 74374.11 217355.88 209239.14 45865.242 63651.234 70310.32
295268.22 408137.34 971992.5 944659.0 621916.8 76509.586 829637.5 517505.56
315795.44 201433.7 144304.5 393926.2 551804.0 70591.4 337843.22 971837.7
165120.7 84194.64 180028.88 634896.7 126438.07 191466.14 1.1707692e+06 875149.5
1.0273708e+06 331826.88 429283.62 259182.42 252199.64 969737.44 480967.03 44303.223
616164.06 492318.94 508530.0 867760.1 65202.664 335908.75 1.1979008e+06 362387.16
548578.25 65186.074 190123.45 677738.0 309911.47 98641.914 94332.45 674787.8
191657.56 145989.44 552205.5 180781.97 381979.1 85414.04 605268.0 360855.75

dnn.4.weight f4 [256, 128]
00000000: 683a 5abd d366 09bb 58c7 753d c7d3 aabc
00000010: 45c6 3f3d 55a6 36bd 4c20 2c3d 9836 36bd
00000020: ae15 d1bb 13f2 84bc 07cc 0bbd efd1 923c
00000030: a481 6cbd 62f5 073d 7e0d 8c3c c51c 0b3b
00000040: e10e 6abd dd74 f638 1e68 9dbc 1fbf b73b
00000050: 7946 3ebc 80c7 54bd cd73 29bc e5cf bc3c
00000060: e2c3 7dbb 1ed4 0abd 9654 853d 7acf 1c3d
00000070: 420d 9bbd c8ae 853d 7c49 a6bb c0ef 803d
00000080: 7e02 f5bc 64d3 94bc a82e 7c3d de36 31bd
00000090: 41da a93c 493c 92bb a743 33bd 826a 4abd
000000a0: aace ed3c b6d9 7d3a f007 dd3c 2b92 173d
000000b0: c76f e73c ff23 45bc 1916 dd3c c5a1 92bd
000000c0: c80f 1dbd 0ea8 7e3d 5a0c 8ebd 12ed 893d
000000d0: 3d00 643d d429 87bb 5a46 3c3d d5a8 343d
000000e0: 91cf 0f3d a3dc 133d 43e9 343d 2cd7 763d
000000f0: eef5 493d 4780 4d3d 284e 84bc 18ac 8bbc
00000100: 52b4 22bc 7e91 3dbd c22a 66bd 7bbc 8fbd
00000110: 43b1 653c 7bb2 5ebd 9b8f bf3c cbe5 64bd
00000120: 6540 4a3d a4d0 96bc 0bb0 eeba 6fa9 a43c
00000130: a96d f73c 158b 953c bbe4 78bc 79df 683c
00000140: 87fe d1bc 5a26 7c3c 2945 ed3c 5e44 43bd
00000150: 3f11 1a3d 584b a3bc 80d9 753d d306 033d
00000160: f2aa 6dbd 4cd7 83bd aaff 41bd 42f0 6abd
00000170: 7d3e 9f3b 2637 853c f15d a73c 7f24 243d
00000180: 5e04 dabb 142e 613d 5cb3 5bbb 3b29 df3c
00000190: 4484 bebc 7777 20bd ac14 553c cfd4 5abd
000001a0: 11ce 593c 66b5 32bb 2be5 173d 455a b3bc
000001b0: 31e5 443d 4734 4fbd a4d5 8abd 8860 493d
000001c0: cbe4 33bd 8929 2f3d 1813 253d f819 ab3c
000001d0: 9d8c f03b 43c8 243d 39f4 f5bc 39db c3bc
000001e0: 3ceb 8d3c 96b3 343d 80aa 193c 118a 6cbd
000001f0: c331 f0bc b93c 45bd 9ab0 303c 9357 dc3c
00000200: ee54 233d 9c4d 4cbd 47e0 78bd 1302 91bd
00000210: 8a45 60bd fe59 4cbd 2ad2 803c 8d8f 59bd
00000220: b7e9 54bd dd01 8cbc c59f 273d bc7f 33bd
00000230: 521e 5cbd 0eb6 863d 30f7 a0bb 9845 a13d
00000240: 951d 293d 00f9 013c 665b d2bc a33c 8dbd
00000250: 4ada 94bd 1dab 11bd ce04 6d3d 94b0 953d
00000260: d22c 173d 5c03 49bd 5dc3 033d e5b4 95bd
00000270: cc9c 25bd 7805 e93c 27a7 393d d9cf 993c
00000280: 8665 8e3d 3494 9abd 90db a23d 0b22 8bbd
00000290: 8557 15bc 588b 8abd 563f 85bd ea1a 89bd
000002a0: a436 07bd 15de 233c 1dcd 5b3d 8e8d 9e3d
000002b0: 6195 793c 4d5f 2f3d 281f d4bc 987f 923d
000002c0: 4a9e 3d3d 42d2 bbbc dd6f 5f3d a5bd 9ebd
000002d0: 0163 febc 714e 113d 65ae 76bd 8201 8a3d
000002e0: ea1b 183d 98c3 e3bb fc5a 32bd b2f5 89bd
000002f0: 2f3d 3b3b 8dd1 bebc 25c4 fabb fca1 853d
00000300: 390d 81bd 6d5b 2a3d ed30 a63b 5b11 353d
00000310: af42 7d3b cbf7 013d ad05 573d edc8 14bd
00000320: 431f 5fbd 729e 96bd 2228 0abd ff0c 0fbd
00000330: 721f 293d 0c20 eebc 91eb e2bc 85dd f53c
00000340: 0201 6b3d ca64 893d f757 a2bd bcfa 5bbd
00000350: 86b5 94bd da10 9fbd b5fc 373d 3497 c9bc
00000360: f771 02bd 4c11 8ebd 82da ccbc e925 703d
00000370: 9ed7 a33d 9949 d53c 8d72 e5bb bc7b 903a
00000380: 99f0 11bd d321 dbbc 7622 3bbd 623b d938
00000390: f4e5 ffbc ecc2 22bd 9fe6 123d 7b6f 94bd
000003a0: 6a3c 2fbd cbc6 72bd fd59 a6bc 9a18 8abb
000003b0: d866 983d d22b 42bd 2f0a 9d3d 707b 24bc
000003c0: 7b06 75bd 4fc5 13bd 2ce7 003c 029a c13c
000003d0: 0430 9ebd 7a82 4b3d 4399 99bb 2770 9fbc
000003e0: 58c5 533d e965 6dbc 57c4 9ebd 5196 42bd
000003f0: 0d32 083d d2a9 893b 1af0 9eba d3fc 073d
-0.053278357 -0.002096583 0.060004562 -0.020852936 0.046819944 -0.04459222 0.04202299 -0.04448566
-0.0063807582 -0.016228711 -0.034130123 0.01792237 -0.057740822 0.033193 0.017096277 0.0021226865
-0.057143096 0.000117519616 -0.019214686 0.0056075 -0.011613482 -0.05194807 -0.01034255 0.02304835
-0.0038721492 -0.033893697 0.06510274 0.038283803 -0.07570888 0.065274775 -0.005074678 0.06295729
-0.029908415 -0.018167205 0.061567932 -0.043265216 0.020733954 -0.004462753 -0.04376569 -0.04941798
0.02902921 0.00096836255 0.026981324 0.03700463 0.028251542 -0.012032508 0.026988076 -0.07159761
-0.03834513 0.06217199 -0.069359496 0.06734671 0.05566429 -0.0041248593 0.04596553 0.044106323
0.03511006 0.036099087 0.04416777 0.060263798 0.049306802 0.050171163 -0.016150549 -0.017049834
-0.009930687 -0.04628133 -0.05619312 -0.07018372 0.014019313 -0.05436943 0.023383906 -0.05588321
0.049377818 -0.018410034 -0.0018210424 0.020100323 0.030203657 0.018254796 -0.015191252 0.014213436
-0.025634063 0.015390003 0.028963642 -0.047672622 0.037614103 -0.019933388 0.060021877 0.03198893
-0.058024354 -0.06437549 -0.04736296 -0.057358034 0.004859744 0.016261648 0.020430537 0.040073868
-0.0066533526 0.054975584 -0.0033523655 0.02724134 -0.023256429 -0.03917643 0.013005417 -0.053425606
0.013293759 -0.0027268766 0.037083786 -0.02189363 0.048070136 -0.050586965 -0.0677903 0.049164325
-0.043919366 0.04276422 0.040301412 0.020886406 0.007340981 0.040230047 -0.030023681 -0.023908244
0.017324083 0.04411658 0.009379029 -0.057748858 -0.029320603 -0.048153613 0.010784293 0.026897227
0.039875917 -0.0498787 -0.060760763 -0.07080474 -0.054753818 -0.04989051 0.015725214 -0.053115416
-0.0519807 -0.017090732 0.040923852 -0.04382299 -0.053739853 0.06577693 -0.0049122795 0.07874602
0.041287977 0.007932901 -0.025678348 -0.06896331 -0.07268198 -0.035563577 0.05786591 0.0730907
0.03690798 -0.04907547 0.032168735 -0.073098935 -0.040432736 0.02844499 0.045325425 0.018775867
0.06952958 -0.07547799 0.079520345 -0.067936026 -0.009115105 -0.06764859 -0.06506221 -0.066945866
-0.033011094 0.010001679 0.05366241 0.07741843 0.015233369 0.042815495 -0.025893763 0.07153243
0.046293534 -0.022927407 0.05455004 -0.077510156 -0.031053068 0.0354752 -0.06022491 0.06738569
0.037135996 -0.006950807 -0.0435438 -0.06736316 0.0028570404 -0.023293281 -0.007652777 0.06525037
-0.0630135 0.041591097 0.0050717504 0.044206005 0.0038644483 0.031730454 0.052495647 -0.03632443
-0.054473173 -0.0735444 -0.03372968 -0.034924503 0.041289754 -0.029068016 -0.027700217 0.030012855
0.057374008 0.06708677 -0.07926934 -0.053705916 -0.07261185 -0.07766886 0.044918735 -0.024608232
-0.031846967 -0.06936893 -0.025006536 0.058629904 0.0800011 0.02603607 -0.007002181 0.0011023204
-0.035629842 -0.026749527 -0.04568716 0.00010358427 -0.03123758 -0.039736673 0.03586447 -0.07247826
-0.042782225 -0.059271615 -0.020306582 -0.0042143585 0.07441491 -0.04740507 0.07667958 -0.010039195
-0.059820633 -0.03607684 0.007867616 0.023633007 -0.07724002 0.04968498 -0.0046874597 -0.019462658
0.051701874 -0.014489629 -0.077522926 -0.047506634 0.033250857 0.0042011524 -0.0012125999 0.033200096

dnn.4.bias f4 [256]
00000000: 1c57 d735 b6cd 1036 4f89 4ab5 2eee 2fb4
00000010: a899 06b4 2231 8db5 03b2 e134 f3ae 2eb5
00000020: c526 9535 3b4b 26b6 a68b 31b5 e240 8035
00000030: c72c 30b5 f77d 9434 7bdc 0236 2054 cc34
00000040: a8b9 3c34 5677 1b36 a0db 7034 ad2f 97b7
00000050: d3c5 df36 9cc9 8935 04cb b6b4 d4d7 ce36
00000060: fa5d 42b5 caac fb35 3929 3f37 d47e 9b34
00000070: 048b 32b4 ba72 f6b5 ef05 cb34 4581 29b7
00000080: 9ca2 b3b6 060c 02b5 50c7 8035 e10d 4e36
00000090: 2af0 0a34 0c5a 0335 3ed7 9835 06f9 52b5
000000a0: 2bbd 1236 46c9 6835 8649 a1b5 a72d a635
000000b0: af91 0b35 6abc 6735 185d 2036 c862 ba34
000000c0: 864a 0936 3531 8bb6 5282 a534 bee7 6fb4
000000d0: 8171 e035 ab41 1ab5 949f 55b5 1268 d035
000000e0: e028 8c35 bf16 4035 04ea ebb4 9a1d 84b4
000000f0: 42b1 2ab6 e69f 5235 4072 03b4 3c7e 89b5
00000100: e0ea 04b5 6dc8 6934 ccf4 1cb5 a056 ad33
00000110: 8ec2 ffb5 a05f 9635 5269 78b5 34b1 01b6
00000120: 8b7c eeb5 008a ab33 d2b2 ef35 c27e 18b6
00000130: eee8 3db5 5f07 6ab6 f069 bf36 1cae 4db5
00000140: 0303 95b6 0c7a d3b4 b1c0 f3b5 3faa 6eb6
00000150: 0fd1 1636 eaa1 2db4 6c3e 6f36 5c21 98b5
00000160: 008f 0fb3 cc98 b634 c9f1 0c36 c014 7b35
00000170: 6ce2 0a35 9b14 9134 b107 02b5 2786 1c35
00000180: 7e95 c234 e60d 41b7 04d5 2034 8475 5735
00000190: 6368 66b6 5c53 4536 290c c234 f2ca 60b5
000001a0: 9be4 bcb5 c1f3 3835 e852 0833 14ca ce36
000001b0: eb33 71b5 9c1c 8ab6 6cba 12b4 afe3 beb5
000001c0: 7559 4034 fa39 fa35 8c2e ee33 8e55 0f36
000001d0: c227 cbb6 8651 b333 88ec 5736 0a0e 0734
000001e0: 119b 32b5 001f edb2 1e18 23b4 1185 d9b5
000001f0: 7309 a735 ce68 c935 140d 4235 c873 4f34
00000200: 80d0 a0b5 a267 9135 2a06 25b6 cc94 8eb5
00000210: 581a 4db4 00f8 3235 d08c 3835 20f0 5f36
00000220: 84a9 5335 4563 8136 66bf 27b5 fe8d 8235
00000230: 323a b636 a61b e2b5 0624 3335 0c4a 7836
00000240: 11e2 9db5 dc6a ec35 9854 9eb3 4041 8fb3
00000250: 58d9 1e36 f818 bdb3 dde1 68b6 80da 19b2
00000260: 48a0 7435 90e5 1ab6 e204 e435 028b 02b6
00000270: d8cf a135 0323 3335 e0da 3136 411d 67b6
00000280: 159a 66b6 083d e733 875a 45b6 9df9 8f36
00000290: 81ae 0f35 a338 6c36 a07e c6b4 e486 2336
000002a0: 7cd8 81b6 ef89 ddb4 9bec 6bb6 16ca b8b5
000002b0: b8c0 eab2 f213 44b6 6ad2 b4b5 08a1 f235
000002c0: 54ea 0034 2279 6834 44aa 9db6 2214 ba36
000002d0: 36b9 e234 74fa ddb5 c4cc 6635 30a8 a6b4
000002e0: af63 18b5 1649 c636 833a 1735 b273 2636
000002f0: c87f 2a33 5e59 a1b4 04eb 9eb5 d6ec d0b6
00000300: 1039 1bb4 65a1 8535 106f da33 e842 8a35
00000310: 24c2 0fb6 6a73 ccb4 2adc beb5 a305 1236
00000320: d4d5 3036 bdbb 2135 5c77 3734 45aa ae34
00000330: 3276 3ab5 4bb0 abb3 e001 deb5 fe87 fab3
00000340: 8058 b2b1 6844 b334 0080 5832 207a 8d32
00000350: e92d a2b5 06ea 9c34 80ec b932 0eb6 09b3
00000360: ee5a 3735 143f 3736 d64d d0b5 7b09 1035
00000370: 5220 9836 652f 8035 7bcf 10b5 409f 2a34
00000380: a56d f0b5 a6c3 edb5 818f a935 8a5b acb5
00000390: 15c3 3735 e80b ca34 7dc9 2836 af67 4a35
000003a0: a1ad 89b5 ab22 fd35 26f4 9933 76d9 c9b6
000003b0: 96a0 8ab4 afd8 4db6 34f2 ac35 228d b434
000003c0: 8801 57b6 dac4 1735 da18 2cb6 afa2 a436
000003d0: 03d7 0cb6 eaee 26b4 4f68 f1b4 c253 1136
000003e0: 90f4 87b3 2a07 8736 e790 2d35 fda0 48b5
000003f0: 90ed b6b3 096e 85b6 009c cb31 42c4 03b6
1.60441e-06 2.1577412e-06 -7.5450674e-07 -1.6384794e-07 -1.2535622e-07 -1.0519618e-06 4.2039036e-07 -6.5074636e-07
1.1112649e-06 -2.4779717e-06 -6.6140854e-07 9.555627e-07 -6.563027e-07 2.76588e-07 1.9499846e-06 3.805917e-07
1.7576406e-07 2.3166263e-06 2.2431641e-07 -1.8022803e-05 6.6689477e-06 1.0265971e-06 -3.4047855e-07 6.164404e-06
-7.2407386e-07 1.8751246e-06 1.1394085e-05 2.896328e-07 -1.6628115e-07 -1.8361818e-06 3.7816014e-07 -1.0103283e-05
-5.353546e-06 -4.844627e-07 9.594751e-07 3.070447e-06 1.2939623e-07 4.893234e-07 1.1387526e-06 -7.8593473e-07
2.1865806e-06 8.6719626e-07 -1.2016833e-06 1.238125e-06 5.199353e-07 8.6328384e-07 2.3896046e-06 3.4717073e-07
2.045797e-06 -4.1482513e-06 3.0828465e-07 -2.2342917e-07 1.6722335e-06 -5.746503e-07 -7.95809e-07 1.5527496e-06
1.0442709e-06 7.1558674e-07 -4.394243e-07 -2.4608454e-07 -2.5435152e-06 7.846378e-07 -1.224189e-07 -1.0244034e-06
-4.951562e-07 2.177273e-07 -5.8470755e-07 8.071697e-08 -1.9055603e-06 1.1203701e-06 -9.254046e-07 -1.9325644e-06
-1.7768629e-06 7.98791e-08 1.7858931e-06 -2.2723548e-06 -7.0746944e-07 -3.4873008e-06 5.7045763e-06 -7.6621814e-07
-4.4408966e-06 -3.9390613e-07 -1.8160991e-06 -3.556386e-06 2.247343e-06 -1.6170785e-07 3.565011e-06 -1.1334591e-06
-3.342484e-08 3.4011316e-07 2.1002363e-06 9.353498e-07 5.1738493e-07 2.7023347e-07 -4.8439966e-07 5.8309746e-07
3.6244086e-07 -1.1506932e-05 1.4978656e-07 8.026475e-07 -3.4333432e-06 2.940381e-06 3.6144164e-07 -8.3741827e-07
-1.4073624e-06 6.890005e-07 3.174037e-08 6.1628034e-06 -8.9855047e-07 -4.116051e-06 -1.366513e-07 -1.4222368e-06
1.7913938e-07 1.8643325e-06 1.10912055e-07 2.135846e-06 -6.0545e-06 8.350166e-08 3.2175176e-06 1.2577962e-07
-6.653582e-07 -2.7604528e-08 -1.5189332e-07 -1.6206487e-06 1.244522e-06 1.5006169e-06 7.2289663e-07 1.9320498e-07
-1.198161e-06 1.0833503e-06 -2.4590504e-06 -1.062313e-06 -1.9101697e-07 6.6671055e-07 6.875025e-07 3.336936e-06
7.8850303e-07 3.856056e-06 -6.249087e-07 9.72708e-07 5.4307975e-06 -1.6846359e-06 6.673512e-07 3.699798e-06
-1.1763206e-06 1.761447e-06 -7.372836e-08 -6.670825e-08 2.3670345e-06 -8.80554e-08 -3.4702164e-06 -8.955453e-09
9.1130323e-07 -2.3081411e-06 1.6988745e-06 -1.9452423e-06 1.2055925e-06 6.6733645e-07 2.6502457e-06 -3.443871e-06
-3.4362358e-06 1.0767877e-07 -2.9407981e-06 4.290791e-06 5.352559e-07 3.5199707e-06 -3.6972506e-07 2.436741e-06
-3.8697017e-06 -4.1264818e-07 -3.5155451e-06 -1.3767883e-06 -2.7328824e-08 -2.9217886e-06 -1.3472284e-06 1.8077271e-06
1.2006177e-07 2.1650752e-07 -4.698786e-06 5.5455757e-06 4.223054e-07 -1.6538675e-06 8.597965e-07 -3.1042282e-07
-5.676947e-07 5.909368e-06 5.633703e-07 2.480327e-06 3.9697426e-08 -3.005361e-07 -1.1840316e-06 -6.2264544e-06
-1.4456259e-07 9.956244e-07 1.0171618e-07 1.0301274e-06 -2.1421665e-06 -3.8081936e-07 -1.4220179e-06 2.1758976e-06
2.6350508e-06 6.025037e-07 1.7086626e-07 3.2533913e-07 -6.9462396e-07 -7.9948755e-08 -1.6540835e-06 -1.1666269e-07
-5.190543e-09 3.339112e-07 1.2601959e-08 1.6470096e-08 -1.2083302e-06 2.922754e-07 2.1644382e-08 -3.2063376e-08
6.830513e-07 2.7305841e-06 -1.5519861e-06 5.3657976e-07 4.5337156e-06 9.550537e-07 -5.3946104e-07 1.5890419e-07
-1.7913304e-06 -1.7714817e-06 1.2633246e-06 -1.284164e-06 6.8456694e-07 3.7634095e-07 2.5151232e-06 7.5401744e-07
-1.0257828e-06 1.8860059e-06 7.169028e-08 -6.0155826e-06 -2.5821345e-07 -3.0673507e-06 1.2885489e-06 3.36303e-07
-3.2038388e-06 5.653834e-07 -2.5644463e-06 4.9065197e-06 -2.098678e-06 -1.5546871e-07 -4.4965643e-07 2.1655437e-06
-6.330913e-08 4.0241475e-06 6.465838e-07 -7.4740075e-07 -8.518248e-08 -3.9765187e-06 5.9258127e-09 -1.9634758e-06

dnn.5.weight f4 [256]
00000000: e5da 443f 4b22 5d3f ca03 6f3f c7df 6b3f
00000010: 19a4 5f3f e405 6e3f f4ab 713f b5f0 6d3f
00000020: 6dcb 413f 700a 593f bed5 0a3f 3e7d 0f3f
00000030: 212b 293f f2b6 653f 86c1 723f 3fd7 5f3f
00000040: 89ea 683f 072d 513f 8a1b 583f 9e00 663f
00000050: e2c9 623f 4602 703f a3ed 633f 2fa8 733f
00000060: 328a 6b3f ad22 5d3f 23e0 653f 0f24 733f
00000070: 7a25 383f fe0a 5e3f 4b98 0f3f 45fd 693f
00000080: 5136 703f 14c4 603f 8414 423f a864 703f
00000090: 78c2 4f3f 4153 643f 1e74 6b3f e440 0a3f
000000a0: 1ef4 2d3f f0ac f33e 41d6 5c3f 1190 583f
000000b0: 84ab 493f 31a4 5b3f d1af 453f 73c7 573f
000000c0: 2423 533f 1f5d 733f d9d9 673f 634b 4e3f
000000d0: d74e 6c3f 0ef6 4d3f b6bb 5d3f e702 663f
000000e0: 7a45 523f 017a 3e3f ec02 5e3f 800a 693f
000000f0: 3a35 5e3f 636e 493f 2946 323f 742a 603f
00000100: 45fe 543e e7bb df3e d170 443f 7693 723f
00000110: 22dc 523f 85cd 723f 3f5c 6e3f b017 6f3f
00000120: 1071 203f 82cb 243f a92a 723f 2a1f 713f
00000130: 35ef 6a3f e0d2 6b3f 7d55 623f 2272 303f
00000140: e846 573f 3575 673f 0a46 703f 77b6 4d3f
00000150: 7eba 643f 5dc8 693f 8e03 4a3f 58af 6d3f
00000160: 1846 243f 9138 493f c6c0 4e3f f551 6c3f
00000170: 21d3 703f 762c 203f 7115 503f 9abf 563f
00000180: c961 433f d7da 673f e230 513f 5aa5 603f
00000190: 7230 733f 2bad 633f f7a2 493f 169d 5d3f
000001a0: e576 563f 8274 673f ec35 473f c2e8 4a3f
000001b0: 0059 523f 88b1 563f 85af 5c3f 7dcb 5f3f
000001c0: c990 513f 1832 6b3f 2e85 213f ffbe 6f3f
000001d0: fb7b 6d3f 1073 683f 8104 663f 2bf2 6e3f
000001e0: c285 683f 0bc8 643f 5d3d 0e3f 3b3b 643f
000001f0: 39e5 303f e1aa 713f 46cd 6a3f ed6a 3e3f
00000200: 5ac0 423f a48d 5d3f e852 5c3f fcc7 1d3f
00000210: 25c7 703f b887 183f 4115 423f 798c 683f
00000220: e4c3 643f e35f 6c3f 73e9 4d3f 4399 4b3f
00000230: 77b1 5f3f f7b3 2a3f 6935 6e3f bf5c 543f
00000240: 5943 b33e e237 623f 089b 5b3f da3e 173f
00000250: d606 653f ba7c e83e 1d62 6e3f bc12 383f
00000260: 1e1e 713f 63fe 5c3f 068f 643f 0e7e 553f
00000270: ddf8 3a3f 71fa 613f 6e26 5c3f e24f 723f
00000280: b9a4 713f b49a 713f 3766 713f 30d7 5e3f
00000290: 39e0 713f ad2e 713f 0133 0d3f 68e2 713f
000002a0: 61e5 713f ce01 083f 8cf7 653f edb8 203f
000002b0: 62b2 233f 2a79 663f 71c2 703f 64d7 603f
000002c0: a2f0 683f 3c78 f33e 82a5 633f 9615 723f
000002d0: 6caa 3d3f cba0 583f 9736 373f e19d 0e3f
000002e0: f3d7 483f e3e4 703f c0af 253f 0f5f 6c3f
000002f0: 3d1b 633f 38b2 373f 47e0 693f 9733 6b3f
00000300: 0f21 393f af9f 453f 7134 493f 5d27 1c3f
00000310: 74ca 6f3f 7799 713f 3312 113f d2cb 543f
00000320: 51cd 643f 4f49 513f dbe9 633f a3a4 643f
00000330: 7964 093f 0209 623f d501 293f 0213 7c3e
00000340: 4588 523f cdfa 6b3f 250b 6d3f 77f3 133f
00000350: 89f9 6e3f 30e9 5d3f 307e 2e3f 43b1 6e3f
00000360: 47cd 6e3f 84db 5a3f f59a 5c3f a32e 533f
00000370: d2f0 713f aaef fc3e c9c1 9f3e d244 383f
00000380: cc28 303f 3ec5 343f 92d9 db3e e4fa 6f3f
00000390: d3f6 633f b8c5 6b3f df57 663f 3a95 073f
000003a0: 563f 1e3f 2dc5 713f 5148 6a3e 57b0 6e3f
000003b0: 3611 693f bff3 483f 8813 5e3f e9a0 243f
000003c0: faa4 663f e314 563f efc9 703f b87c 643f
000003d0: d634 313f 4014 583f 8aef 553f a9a5 683f
000003e0: 33fa 623f c145 743f 901a 433f 2328 4e3f
000003f0: 1f7d 373f 7f23 613f bda3 5d3f 4e5e 633f
0.76896507 0.8638045 0.93365157 0.9213833 0.8735977 0.9297774 0.94403005 0.92945415
0.7570103 0.8478155 0.54232395 0.5605048 0.66081434 0.8973228 0.94826543 0.87437814
0.9098287 0.8170933 0.8441702 0.8984469 0.885893 0.9375347 0.8903448 0.951785
0.92007744 0.86381036 0.8979513 0.94976896 0.71932185 0.8673552 0.56091756 0.91402084
0.9383288 0.8779919 0.75812554 0.9390359 0.8115611 0.89189535 0.91974056 0.54005265
0.6795062 0.47592878 0.86264426 0.8459483 0.7877734 0.8579741 0.772214 0.8428871
0.82475495 0.95063967 0.90566784 0.8058378 0.923078 0.80453575 0.8661455 0.8984818
0.8213726 0.74404913 0.8672321 0.91031647 0.8679997 0.7868406 0.69638306 0.8756478
0.20800121 0.43698046 0.76734644 0.9475626 0.82367146 0.9484485 0.93109506 0.9339552
0.6267252 0.6437303 0.94596344 0.9418818 0.9177125 0.92118645 0.88411695 0.6892415
0.8409257 0.9041322 0.9385687 0.80356544 0.89347064 0.91321355 0.78911674 0.9284568
0.64169455 0.7860194 0.807629 0.92312557 0.9407216 0.6256784 0.81282717 0.8388611
0.76321083 0.905683 0.81715214 0.87752306 0.94995797 0.8893611 0.7876429 0.8656782
0.8377517 0.9041215 0.77816653 0.7926141 0.82167053 0.8386464 0.8620532 0.87419873
0.8186155 0.9187331 0.6309384 0.9365081 0.92767304 0.9080057 0.8985062 0.9333827
0.908291 0.8936774 0.5556238 0.8915288 0.69099766 0.94401366 0.9171947 0.74381906
0.76074755 0.8654425 0.86064005 0.61633277 0.9405387 0.5958209 0.7581368 0.90839344
0.89361405 0.9233381 0.8043434 0.79530734 0.87380165 0.66680855 0.9305025 0.8295402
0.3501232 0.8836652 0.85783434 0.5908028 0.89463556 0.4540766 0.9311846 0.71903586
0.9418658 0.86325663 0.89280736 0.8339547 0.73035985 0.8827277 0.8599614 0.9465314
0.9439197 0.94376683 0.9429659 0.870471 0.9448276 0.94211847 0.5515595 0.94486094
0.9449063 0.53127754 0.8983085 0.62782174 0.63944066 0.9002863 0.94046694 0.8782866
0.90992177 0.4755267 0.8892442 0.9456419 0.7408817 0.8462035 0.7156767 0.55709654
0.7845451 0.94099253 0.647213 0.9233255 0.8871344 0.71756315 0.91357845 0.91875595
0.7231607 0.7719678 0.78595644 0.60997564 0.93668294 0.94374794 0.56668395 0.83123505
0.8937579 0.81752485 0.8902871 0.89313716 0.53668934 0.88294995 0.6601842 0.24616626
0.8223918 0.92179567 0.9259513 0.5779337 0.9334951 0.8668394 0.68161297 0.9323923
0.9328198 0.85491204 0.86173946 0.82493037 0.9450809 0.494016 0.31202534 0.7198001
0.6881225 0.7061347 0.4293943 0.93742204 0.890485 0.9209857 0.8997783 0.52962077
0.6181539 0.9444149 0.22879149 0.93237823 0.91041887 0.7849693 0.8674855 0.6430803
0.90095484 0.8362562 0.94058126 0.89252806 0.69221246 0.844059 0.8356863 0.9087778
0.88663024 0.95418936 0.76212406 0.80529994 0.71675295 0.8794479 0.8657797 0.8881577

dnn.5.bias f4 [256]
00000000: 3fcb d43c 7592 68bd 2c4c 363c fd37 b13c
00000010: 2312 dfbc baa9 243d 4649 4a3a 70f0 ba3c
00000020: 3f27 a43c c724 4abd acc4 d8bc 04bb c13c
00000030: 77fa 213d 18ed 1b3d 34b4 b33c 0b44 b83c
00000040: 3234 bcba f0c4 ba3c 752b 4ebc fa12 cebc
00000050: 787b 5abd ebdf e9bb 0c9d b1bc e9c5 d53b
00000060: a096 0bbc b923 a4bc 96bc 2dbd 81c8 3c3b
00000070: 86a5 cf3a b407 09bd 70b8 003d f193 85bc
00000080: eb61 06bc 46c7 8e3c fb33 9a3d e607 b03c
00000090: 4858 f2bb 98dd fcbc cd70 5a3c 3616 2f3c
000000a0: 9370 043d f0ca 03bc 48e6 5c3d 18c3 f63b
000000b0: 5990 443d 8829 b6bc c621 66bc 3ae5 fb3c
000000c0: 1c1b 6c3c e059 3f3d 8473 c03c b3a4 25bc
000000d0: 83df 413c 7810 0c3d eb94 063d 87c5 84bd
000000e0: 60ba df3c da0f 043c d3e3 5e3c 4eb4 ed3c
000000f0: 88b6 9f38 bad2 893c 4e03 4a3c d86b 533c
00000100: 1a75 9b3c 658f 763c 2a63 403d 3eac 943c
00000110: dccb 49bc f074 303c 1f92 893c 598c 813c
00000120: bd50 b53b ff39 943c ee54 023c af4c eb3a
00000130: 90a5 ec3c 3066 9a3b 7685 f23c b448 75bb
00000140: ce69 75bc 79af 703a d01c c83c 9654 b93c
00000150: 3a81 90bc 30bc 3e3c 617a 82bb d461 163d
00000160: a4f9 e4bc 879e e2bb 99c4 4fbd dcf6 423c
00000170: 790e f2bb 757c 9b3c 6df2 103d 0009 c1bc
00000180: 436b 5fbc 767b d4bc 9b36 c4bc 80eb 87bd
00000190: a88f 2b3c ae46 413d 097c 3cbd 1361 413d
000001a0: a274 12bd 1670 763c 7dfb 3a3b 9f87 2d3c
000001b0: ddd3 083d 2c6c cfbc 2d8e 09bd d0df 083c
000001c0: d565 1b3d 2610 2b3d c627 9a3c c251 c93c
000001d0: 11e4 d43c 6902 da3c 1608 ed3c b3c0 a83c
000001e0: 9cfe 05bd f8ba 9fbc e4a4 33bc 6218 593c
000001f0: 5966 1ebd c1e2 553d 5f65 2e3d 53f9 c7bc
00000200: 7b42 903c 3245 f6bc a88f 91bc 3da8 bb3b
00000210: bc25 533d 5651 b1bc 344e 3dbc bfd9 03ba
00000220: 513a 543d 4844 bd39 949a fa3c f436 803c
00000230: dc4d 53bb fd3a 6a3c 4d34 ce3b 9229 f0bc
00000240: 0509 be3b 1869 243c 99c8 763c ad75 1b3d
00000250: afd5 46bb 2b5d 513c 516e c13c d3e9 3ebd
00000260: 805b 243d fa4a ae3c 89f2 02bd 65ec 33bc
00000270: 3e2a a4bc 6daa bcbc afa8 76bd 65d6 3ebb
00000280: 8ba2 963c 5628 49bb 2a00 2d3b 3581 c8bc
00000290: 26b1 d93b 1141 9c3c 9b27 bcbc d042 ea3c
000002a0: e439 133c 163a 04ba edb3 0c3d 7daf 83bc
000002b0: ec3c 5abd a9ca 183d 8c43 36ba 69ba 103c
000002c0: 5d52 a03c f838 093c 6eb5 89bc faf9 833c
000002d0: 70db 723d 500c 1f3c d073 9c3c ceae b0bc
000002e0: 131c 22bc 41f1 0b3d 1633 7dbc c932 3b3c
000002f0: a6ae 303c 1689 8abc 1cd0 ee3b 8e60 6d3d
00000300: 0379 303c 53d3 463d ffb3 b73c 93ec ffbc
00000310: e551 c23c faf4 a73c d2e7 9e3b 258e f03c
00000320: fee8 3c3c b684 73bd 1ae5 303c e4fe 90bc
00000330: 6151 5dbb 318f b8bc 3539 693c be01 153c
00000340: bd25 7f3c 870f 523c c7c6 db3c a725 bc3b
00000350: 36bc 433d 4586 1c3d 2d30 83bc 66da 4c3c
00000360: 000e 853c 53f7 40bd 26b8 48bd 9d43 43bd
00000370: 47e6 373c 9c9e acbc 85fb ae3c 25a9 38bd
00000380: 85e8 243d 17cf d23c 647b 8bbc 5ffc 143d
00000390: ec9a 01bd 1391 ca3c 65a0 0b3c 055d d2bc
000003a0: a99c 603b 9eb2 0b3d 4879 503c 1a99 303c
000003b0: 1da9 b63c d182 22bc 300d 05bd 3083 cebc
000003c0: 5fb3 34bd 4f07 d33c fa0b 163d 0b9a 9fbc
000003d0: 4c6b 183d b05d 193c 4fb7 b33c 1e92 6e3d
000003e0: 6238 673c d3da 7c3c 4401 623c 8314 18bd
000003f0: cc9c d33c 1812 a0bc b279 483d 974e 0dbc
0.025975822 -0.056780297 0.011126559 0.021633143 -0.027230328 0.040200926 0.0007716607 0.022819728
0.020038245 -0.04935148 -0.026460968 0.023648746 0.039545503 0.038067907 0.021936513 0.022493383
-0.0014358817 0.022798985 -0.012583603 -0.025155533 -0.053340405 -0.007137289 -0.021681331 0.006523837
-0.0085197985 -0.020036565 -0.042416178 0.0028806033 0.0015842177 -0.033454612 0.031425893 -0.016305896
-0.008202056 0.017429005 0.07529446 0.021488141 -0.007395778 -0.030867383 0.013332558 0.010686448
0.03233392 -0.00804399 0.05393055 0.007530581 0.047989223 -0.0222366 -0.014046138 0.030748952
0.01441076 0.04671657 0.023492582 -0.010110068 0.0118330745 0.034195393 0.032856863 -0.06482988
0.02731055 0.00806042 0.013604122 0.02901664 7.61571e-05 0.016824115 0.012329889 0.01290413
0.018976737 0.015048836 0.04696957 0.018148538 -0.01231667 0.010770068 0.016793309 0.015813993
0.0055333064 0.018094061 0.007954819 0.0017951931 0.02888754 0.0047118887 0.029604655 -0.0037427368
-0.014978839 0.0009181421 0.024427801 0.022623342 -0.017639745 0.011641547 -0.003981874 0.03671439
-0.02795107 -0.0069158706 -0.0507246 0.011899676 -0.007386979 0.018980244 0.035387445 -0.023563862
-0.013636413 -0.025937777 -0.02395182 -0.06636715 0.010471262 0.047186546 -0.046016727 0.047211718
-0.03575576 0.015041372 0.0028531246 0.010591417 0.033405174 -0.025320135 -0.033582855 0.008354142
0.03793891 0.041763447 0.018817794 0.024575118 0.025987657 0.026612477 0.02893452 0.020599699
-0.032713518 -0.019498333 -0.010964606 0.013250442 -0.038671825 0.052218203 0.042577144 -0.02441088
0.017609825 -0.030062292 -0.017768696 0.0057268427 0.05154966 -0.02164523 -0.01155429 -0.00050297
0.051813427 0.00036099763 0.030591287 0.015651204 -0.0032242453 0.01429629 0.006292856 -0.029316697
0.005799415 0.010034822 0.015062475 0.03795402 -0.0030339768 0.012778561 0.023612173 -0.04660971
0.040126324 0.021275986 -0.03196958 -0.010981654 -0.020039674 -0.023030484 -0.060219463 -0.0029119488
0.018388053 -0.0030694208 0.0026397803 -0.024475673 0.006643432 0.019073995 -0.022968104 0.028596312
0.00898597 -0.0005044056 0.034351278 -0.01607489 -0.053280756 0.037302647 -0.00069528143 0.008833506
0.019570524 0.008375399 -0.016810145 0.016110409 0.059291303 0.009707525 0.019098192 -0.021567728
-0.009894389 0.034165625 -0.015454074 0.011425682 0.010783827 -0.01691107 0.007287992 0.05795341
0.010771039 0.04854138 0.022424696 -0.031240737 0.023720691 0.020502556 0.0048494125 0.029364655
0.011530159 -0.059452735 0.01079681 -0.017699666 -0.003377043 -0.022529216 0.014234831 0.009094654
0.015572962 0.012821085 0.026828183 0.005741793 0.047786914 0.038213987 -0.016014183 0.012503242
0.016242027 -0.047110867 -0.049003743 -0.047671903 0.011224336 -0.021071725 0.021360168 -0.045083184
0.04026081 0.025733514 -0.01702661 0.036373492 -0.031641886 0.02472738 0.008522128 -0.02567912
0.0034273064 0.03410589 0.012724228 0.01077869 0.022297436 -0.009918884 -0.03248328 -0.02520904
-0.044116374 0.025760321 0.036632515 -0.019482633 0.0372117 0.009360716 0.021937994 0.058244817
0.014112564 0.015433031 0.013794247 -0.037128936 0.025831603 -0.019539878 0.048944183 -0.008624694
