TPnet/models/merged/CrazyOverfit/Linear-15_10-16_29.pth (torch, 188277 bytes, 13 tensors)

dnn.0.weight f4 [128, 86]
000000 70 ff 79 3d 79 9d 75 3d 66 32 b4 bd 29 65 27 bd
       0.06103462 0.05996463 -0.08798675 -0.04086796
000010 e1 9e a0 3d b7 fe d0 3d f3 27 c7 bd a3 ad 13 3d
       0.07842804 0.10204833 -0.097244166 0.036054265
000020 32 86 90 3d 64 f0 ab 3d c6 2a 9d bc 2e 38 69 bd
       0.07056846 0.0839546 -0.019185435 -0.056938343
000030 f0 13 8d bd 78 6e 86 3d 5f 9e 7c 3d d4 80 a2 bd
       -0.068885684 0.06564039 0.061674472 -0.07934728
000040 88 47 c9 bd 17 e4 d0 3d 59 0a e1 bc 27 d2 7f bd
       -0.09828097 0.10199755 -0.027470754 -0.062456276
000050 da 55 81 bd 91 c7 e1 3c 74 7e 78 3c b2 71 5c 3d
       -0.06315203 0.027560981 0.0151668675 0.053819366
000060 52 16 96 3d 2d db d0 bd 82 fd 96 bb 26 7c 25 bd
       0.07328476 -0.101980545 -0.004607857 -0.0404016
000070 4f 28 40 3c a4 ec 41 3d 83 0c 1c 3d f4 fc b7 bd
       0.01172836 0.04734482 0.03809787 -0.08983794
000080 f5 53 38 bc 7c 83 1a 3d a4 76 79 bd 9e 62 4b 3d
       -0.011250486 0.03772305 -0.06090416 0.049654596
000090 f8 2d 26 bd 68 a7 8a bd 2b f0 88 bd 5d 1a 07 3d
       -0.040571183 -0.067702115 -0.066864334 0.032984126
0000a0 2f 5e bc bd f7 c5 bb 3d f5 41 96 3d 96 8d 82 bd
       -0.091976516 0.09168618 0.07336799 -0.063746616
0000b0 31 cb d3 3d a7 d3 48 3d ad e8 41 bd 7a 74 8d bd
       0.1034149 0.049029972 -0.047341038 -0.06906982
0000c0 20 7e d6 bd 73 e4 d8 3c 35 4c 7c bd 7a 35 0b bd
       -0.10473275 0.02647612 -0.061596114 -0.033986546
0000d0 00 17 8c 3d 7c 30 b3 bd 37 ad 65 bd 81 6a 8e bd
       0.068403244 -0.08749482 -0.056073394 -0.06953908
0000e0 f3 a7 0b be fd 11 45 bd ef 0f b6 bd 51 1d 2e bd
       -0.13638286 -0.048112858 -0.08889758 -0.042508427
0000f0 f3 24 28 3d 60 c6 90 bc 80 dd 4e bd 37 78 9b 3d
       0.041050863 -0.017672718 -0.050504208 0.075912885
000100 f5 0c c6 bd b9 cc 02 be b7 14 73 bd 9e 5a b8 bc
       -0.0967044 -0.12773408 -0.059345927 -0.022504147
000110 c1 56 b4 bc d9 98 ee bb 97 0e 54 3d 29 50 bc bd
       -0.022014024 -0.0072814045 0.051771726 -0.09194977
000120 ed d7 90 3c 8b b2 86 bc 2f ec 69 bd 21 83 0d 3d
       0.017681086 -0.016442558 -0.057110008 0.034548882
000130 01 26 d0 bd 58 33 43 3d 16 76 06 bd d4 75 bb 3d
       -0.10163499 0.047656387 -0.03282746 0.09153333
000140 35 7c b6 3d ce d6 53 bd 9c d5 dc bc 0f 0c 7d 3d
       0.08910409 -0.051718526 -0.026957326 0.061779078
000150 08 79 92 3d bd 8c ba bd 9b 0f 96 bd fa 9c 69 3d
       0.07151991 -0.09108875 -0.07327195 0.05703447
000160 79 a6 81 bd 0c ee 31 bb 09 c8 95 bd 86 81 07 3d
       -0.0633058 -0.0027149944 -0.07313544 0.033082508
000170 b2 56 11 3d 55 1d 56 bd 0d 94 34 3d 55 52 a9 bd
       0.03548307 -0.052274067 0.044086505 -0.08267657
000180 b2 66 97 bd d6 a7 e9 3b 57 72 48 3b ad 7a 1d 3d
       -0.073926345 0.0071306033 0.003058573 0.03844707
000190 b3 76 6d 3c 78 45 74 3d a3 e7 b4 3d ff 27 92 3d
       0.014493632 0.059636563 0.08833244 0.07136535
0001a0 cb cf bc 3d 02 35 0f 3d 5d d0 a2 3d c3 44 95 bc
       0.09219321 0.03496266 0.079498984 -0.018221265
0001b0 5e fe 03 3d 7f 00 9d 3d c2 c6 8d 3d b8 fd 69 bd
       0.032225005 0.0766611 0.06922676 -0.05712673
0001c0 f0 a1 6f 3d a1 18 b8 bb 5a 6a b3 bd fa 63 db bd
       0.058504045 -0.0056181704 -0.08760519 -0.107124284
0001d0 fb ae 0a bd f7 d3 68 bd b6 64 02 3c b5 a0 89 3d
       -0.03385828 -0.05684277 0.007958582 0.067201056
0001e0 cb 26 bf 3c 27 65 02 3d 4c b7 d9 3c 1c a3 73 3d
       0.023333928 0.031834748 0.02657666 0.059481725
0001f0 88 b1 bf 3b 5a 3b 38 bd 71 5c aa 3d b2 19 a3 bc
       0.005850021 -0.044978477 0.08318413 -0.019909713
000200 fc 46 b7 3d 98 8e c9 3d 34 44 b7 bb 92 0c 92 3d
       0.08949086 0.09841651 -0.0055928472 0.07131304
000210 8a 74 97 bd 4f 46 b6 3d 4a 8a 9e bc 89 90 9c 3c
       -0.07395275 0.08900129 -0.01935305 0.019111888
000220 f9 ca 47 3d c8 8b 82 bc 05 b8 b5 3d c3 78 b0 3c
       0.048777554 -0.015935794 0.088729896 0.021541959
000230 60 df f6 3d 83 87 b9 3d 15 09 ca bb 4f db 5f bd
       0.12054324 0.0905905 -0.0061656334 -0.05465251
000240 46 a8 eb 3c 95 29 0b 3d 21 3f e5 bc ee f7 8d bd
       0.028766762 0.033975203 -0.027984204 -0.069320545
000250 45 0b d0 3d fb bc 28 3d 6e bf b4 bc a5 ee 58 bb
       0.101583995 0.04119585 -0.022063937 -0.0033101228
000260 f9 49 f9 3d 96 c8 50 3d 8c b6 08 3d 67 03 48 bb
       0.12172312 0.050972544 0.033377215 -0.0030519606
000270 ae 5f 7e 3d 76 ae 38 bc 79 60 c9 3c a8 6a bf 3d
       0.062102966 -0.0112720635 0.024582135 0.09346515
000280 86 c1 4b bd 49 cd 7f bd ad f1 c3 bd f0 3a 86 3d
       -0.049745105 -0.062451635 -0.0956758 0.0655421
000290 b6 65 69 bd 1b 6b 8e bd 1e fb 99 bd 2e 23 44 bd
       -0.056981765 -0.069540225 -0.075186 -0.047885112
0002a0 da 95 82 bd ed 13 83 bd e3 98 18 3d a3 3f 82 3d
       -0.06376238 -0.06400285 0.03725518 0.06359794
0002b0 99 b2 3e bd d3 6f 6c bd d7 44 c3 bd 43 3a 73 3d
       -0.046557043 -0.05772383 -0.095346145 0.059381735
0002c0 5e 57 b4 3d cb bb b2 3d 49 52 28 3d 01 9d a8 3d
       0.088057265 0.08727225 0.0410941 0.08233071
0002d0 4e 30 b0 3d 0a a1 e1 3c 54 1f 8c bd 78 a6 cf 3d
       0.086029634 0.02754261 -0.06841913 0.10139173
0002e0 43 ec 88 bc ff 64 2d bd dd ee 8d bc 50 eb da bd
       -0.01671422 -0.042332646 -0.017325813 -0.106894135
0002f0 17 21 ae bd e9 e4 83 bd 4d ed 15 3d 1a e5 e3 3c
       -0.08502405 -0.064401455 0.03660326 0.027819205
000300 8d 06 fe 3c 66 bc 77 3c bd c2 aa 3d a2 20 8a bd
       0.031008983 0.015120601 0.08337925 -0.067445055
000310 d2 8d c1 3d b9 ad 88 3d 78 2f ad 3c f1 31 35 3d
       0.09450878 0.0667376 0.021140799 0.04423708
000320 3d 61 6a 3d 46 0d 4c bd 98 ee ee 3d e3 b2 02 ba
       0.05722164 -0.049817346 0.11666602 -0.00049857626
000330 89 9e c4 3c 37 8e 89 3d 64 f5 dd 39 e4 4f a2 3b
       0.024001377 0.067165785 0.00042335235 0.0049533714
000340 93 8e 27 3c fd f0 9b 3a d6 49 a0 3c 1a c9 cf 3d
       0.010226863 0.0011897382 0.019566458 0.10145779
000350 09 27 a7 3b 00 27 82 3c 57 94 3f bd df d0 14 3c
       0.005101089 0.015887737 -0.046772327 0.009083002
000360 ef e5 89 3d f3 14 a1 3d d1 35 e0 3c bd cb fe bc
       0.067333095 0.07865324 0.027369412 -0.03110301
000370 fd 8c b6 bd 3a 4b 82 3d d2 48 93 bd 47 59 8a bd
       -0.0891361 0.063620046 -0.07191624 -0.067553096
000380 c3 78 53 bc 6b 83 0e bd 1b 17 84 3d 71 7c 19 3c
       -0.01290721 -0.0347933 0.064497195 0.009368048
000390 61 1f 1e bd 6f 11 06 bd 0d 7d bd 3d 0a 7f 90 bd
       -0.038604144 -0.03273147 0.09252367 -0.07055481
0003a0 fe 15 f1 bc 5f 22 36 bd 23 02 26 bc 75 bd fa bc
       -0.029429432 -0.044466373 -0.010132345 -0.030607918
0003b0 ed 05 dd 3d 6b a5 b1 bd d7 79 eb 3c 4e 00 be bd
       0.10792146 -0.08674129 0.028744621 -0.09277402
0003c0 1b 90 11 bc 74 52 c5 3a 55 40 83 bd 97 73 78 bc
       -0.008884455 0.001505448 -0.06408755 -0.0151642775
0003d0 fd 07 a9 3d 8e ae c1 3d 10 12 b3 bc ae 4d e2 3d
       0.08253477 0.09457122 -0.021859199 0.110499725
0003e0 c8 32 cc bd 35 56 48 bb 5c 8e 0a bd e5 2c f0 3c
       -0.09970623 -0.0030568962 -0.03382717 0.029318282
0003f0 4f 77 a2 bd 06 7c 83 3b b7 67 5d bc 2c 23 af 3c
       -0.079329126 0.0040125875 -0.013513497 0.021379076

dnn.0.bias f4 [128]
000000 6d a6 18 bb 11 a4 7c ba fd a1 a0 b9 e8 8f e6 ba
       -0.0023292557 -0.0009637485 -0.0003063827 -0.0017590495
000010 f1 43 9c b7 e5 4c a7 bc 00 77 0e ba 19 bb 25 bc
       -1.8628287e-05 -0.020422408 -0.00054346025 -0.010115408
000020 39 12 0b 3b d7 65 c8 b9 7e 93 2b 39 8d b5 2e b9
       0.0021220578 -0.0003822285 0.00016362776 -0.00016661566
000030 20 e2 bc 38 27 e6 8d b9 1e 74 6e b9 df 9a 0e 3a
       9.006658e-05 -0.00027065093 -0.00022740706 0.00054399477
000040 63 98 9b 3a 6c a4 0d b9 77 bb d4 ba 7f 4c 73 bc
       0.0011870976 -0.0001350806 -0.0016230185 -0.014849781
000050 04 c7 74 ba 84 9a b3 38 9f 62 fb 38 87 4f 50 ba
       -0.0009337517 8.564166e-05 0.00011986982 -0.0007946421
000060 90 91 14 b9 44 3c a7 b8 9f 6c b4 3a 76 a1 fc b9
       -0.00014168606 -7.974406e-05 0.0013765282 -0.00048185483
000070 1f b6 16 39 79 f5 15 38 60 79 9c 39 52 87 73 ba
       0.0001437296 3.5752983e-05 0.0002984507 -0.00092898787
000080 e9 93 22 3a f1 dc de bb b4 0e 9e b9 7e 95 48 b9
       0.000620185 -0.0068012406 -0.00030147063 -0.00019129177
000090 50 1f 3b 38 bd 65 a0 ba d6 ab 56 3a 0f d8 44 39
       4.4613436e-05 -0.0012237352 0.00081890577 0.00018772505
0000a0 5c 14 5b b8 4d b1 08 3a bc f8 7f b9 d7 1b 64 3a
       -5.223263e-05 0.0005214408 -0.00024411356 0.0008701658
0000b0 83 37 a1 bb d5 40 10 ba 31 95 b2 37 f6 84 9f b9
       -0.0049199476 -0.0005502825 2.1288726e-05 -0.00030425907
0000c0 f8 69 06 b8 20 51 f9 3b e3 0f 99 38 bd fd c2 39
       -3.204678e-05 0.007608548 7.298568e-05 0.00037191613
0000d0 7f a4 d4 3a 1c 1b 3d b9 91 ec d6 b8 4b 4e 37 3b
       0.001622334 -0.00018034544 -0.00010248379 0.002797025
0000e0 73 3d 8c ba 40 c7 1d bb 84 1e ea b7 24 db bb 39
       -0.0010699466 -0.002407506 -2.7909184e-05 0.00035830692
0000f0 c7 5d b5 37 10 a2 70 39 74 e3 58 3a 9a 16 4f b9
       2.162055e-05 0.00022948557 0.0008273639 -0.00019749478
000100 ba ac 01 ba 6c 62 37 b9 e3 e4 f7 b8 a9 69 f5 39
       -0.0004946698 -0.00017488905 -0.00011820511 0.00046808764
000110 9c f1 4d 3c c2 26 c5 38 c5 cd 52 3a ba f4 91 39
       0.012569811 9.400911e-05 0.00080415263 0.0002783889
000120 bd 53 23 3a fb 5d 7f 3a 27 f7 54 3a 94 2b 96 b8
       0.00062304345 0.0009741482 0.0008123987 -7.1606744e-05
000130 0e 8a cd 3a f9 4b 6b 39 00 57 b2 39 05 e8 1f bd
       0.0015681402 0.00022439648 0.00034015626 -0.03903963
000140 fb 88 61 ba fb cc 25 37 5f 42 a3 39 38 f8 45 37
       -0.00086034805 9.882492e-06 0.00031139233 1.1799908e-05
000150 92 0e c3 ba 60 54 93 3a c2 5b 0a ba 92 7a eb 39
       -0.0014881662 0.0011240356 -0.0005277955 0.00044914015
000160 cf 91 7c 3a 41 a4 0a bc ce 3f 23 39 3c dd 4d 3a
       0.0009634764 -0.008462013 0.0001556866 0.0007853096
000170 e1 1f ff 37 d3 fb 76 b8 84 ac 65 ba 40 0c de b9
       3.0413214e-05 -5.88855e-05 -0.00087613636 -0.00042352267
000180 7f 75 f5 39 29 f9 26 ba 24 05 ae 39 a1 88 1c 3c
       0.00046817583 -0.0006369525 0.00033191696 0.009554059
000190 c1 40 15 b9 71 cf 75 ba cd b3 3c ba 98 d9 97 b8
       -0.0001423387 -0.00093769195 -0.0007198423 -7.240771e-05
0001a0 e7 c0 91 b8 c2 9c 52 3a d8 c6 5b 3a 45 9b 2c 3a
       -6.95007e-05 0.0008034223 0.0008383817 0.0006584416
0001b0 17 79 48 ba 37 83 9b 3a 22 f7 de 39 e9 90 ed ba
       -0.00076474383 0.0011864667 0.00042527268 -0.0018124852
0001c0 80 0e 9f b9 a2 39 20 bc 3a a8 26 ba 0a 40 d8 b9
       -0.00030337647 -0.009779366 -0.0006357465 -0.00041246443
0001d0 88 4b 97 b7 e1 9b f1 39 f0 16 7a bc 7d f0 e5 39
       -1.8035775e-05 0.0004608324 -0.015264258 0.0004385746
0001e0 a5 85 91 3a 84 71 4a ba 49 b5 89 bc af 3a 21 3a
       0.0011102451 -0.00077226036 -0.016810076 0.0006150407
0001f0 57 47 fb 39 d5 4a af 39 a2 42 65 ba cb ec 8b ba
       0.00047927603 0.00033434355 -0.0008745586 -0.0010675428

dnn.1.weight f4 [128]
000000 85 39 81 3f 8f 80 80 3f e5 c6 7f 3f bf 66 7e 3f
       1.0095679 1.0039233 0.99912864 0.9937553
000010 8f a5 82 3f 49 5e 81 3f f9 ed 7c 3f 59 c4 7e 3f
       1.0206774 1.0106899 0.9880062 0.9951835
000020 eb a1 7e 3f 8c 95 81 3f 7f a9 7e 3f 94 5a 7b 3f
       0.9946582 1.0123763 0.9947738 0.98185086
000030 cd f5 7c 3f f2 ec 7f 3f 5e 4d 80 3f 53 c3 81 3f
       0.9881256 0.99970925 1.002361 1.0137733
000040 5e f0 80 3f a9 1c 7e 3f 14 e9 81 3f da 5a 7f 3f
       1.0073354 0.9926248 1.0149255 0.99748003
000050 e9 10 7e 3f 6f a1 7e 3f 21 60 80 3f 67 ac 7e 3f
       0.9924455 0.9946508 1.0029336 0.99481815
000060 21 3f 80 3f a8 f2 7f 3f 7d 17 7e 3f 65 bb 80 3f
       1.0019265 0.9997964 0.9925459 1.0057188
000070 63 bc 7c 3f 35 b7 7f 3f 56 01 80 3f 78 2b 7f 3f
       0.98724955 0.99888927 1.0000408 0.99675703
000080 f3 96 80 3f 48 4a 81 3f 80 b4 7f 3f 94 81 7c 3f
       1.0046066 1.0100794 0.99884796 0.9863522
000090 b9 c7 7e 3f b1 e9 7f 3f 8f 1b 7e 3f 2a 35 7d 3f
       0.995235 0.9996596 0.992608 0.98909247
0000a0 13 c6 7d 3f df 47 80 3f 13 32 82 3f 5f fb 7f 3f
       0.9913036 1.0021933 1.0171531 0.99992937
0000b0 48 32 7f 3f d4 14 7e 3f 7c 7c 7e 3f d1 ec 7f 3f
       0.996861 0.9925053 0.994087 0.9997073
0000c0 c7 04 81 3f d4 36 7e 3f 36 65 80 3f 98 a3 7f 3f
       1.0079583 0.9930241 1.0030887 0.99859
0000d0 37 1a 7c 3f 08 8e 7c 3f fd 2a 7f 3f 85 31 80 3f
       0.984775 0.9865422 0.9967497 1.0015112
0000e0 20 4d 7d 3f 31 b8 80 3f 82 48 7d 3f cd d6 80 3f
       0.9894581 1.0056211 0.98938763 1.0065552
0000f0 d9 12 81 3f af cd 80 3f 94 78 81 3f 9f 68 7e 3f
       1.0083877 1.006277 1.0114923 0.9937839
000100 86 6e 80 3f ba 64 7f 3f e5 a9 81 3f 8e 99 7e 3f
       1.0033729 0.9976307 1.0129973 0.99453056
000110 ac 25 7f 3f 9f 01 80 3f b7 46 81 3f f6 ed 81 3f
       0.9966686 1.0000495 1.0099705 1.0150745
000120 1b ae 7f 3f 0f b7 7d 3f a1 1c 7d 3f dd 16 80 3f
       0.9987504 0.9910745 0.9887181 1.0006977
000130 77 18 7f 3f 2f 87 7e 3f ca e3 7f 3f 21 f1 7e 3f
       0.99646705 0.99425024 0.99956954 0.99586684
000140 74 a5 81 3f 0d a6 7b 3f dd 9c 7d 3f 04 19 7e 3f
       1.0128617 0.9830025 0.9906748 0.9925692
000150 ee bc 80 3f 8f 64 80 3f 4a e1 7f 3f 44 90 7f 3f
       1.0057657 1.0030688 0.9995314 0.99829507
000160 d8 d3 7c 3f c6 ce 80 3f 60 07 7f 3f 6d e9 7e 3f
       0.9876075 1.0063102 0.9962063 0.9957493
000170 ff 88 80 3f 47 96 7f 3f c3 64 7f 3f bd bb 7e 3f
       1.0041808 0.9983868 0.99763125 0.99505216
000180 10 22 80 3f fe 89 82 3f 7b 8c 81 3f 66 68 81 3f
       1.0010395 1.0198362 1.0120996 1.0109985
000190 0b f3 7f 3f f1 d4 81 3f e8 a0 7e 3f 11 b1 7f 3f
       0.9998023 1.014311 0.99464273 0.99879557
0001a0 26 71 80 3f 3d e2 80 3f cf 90 7d 3f 34 ed 7f 3f
       1.003453 1.0069042 0.99049085 0.9997132
0001b0 d9 9c 80 3f 92 20 7f 3f 36 c8 80 3f d9 d6 7d 3f
       1.0047866 0.99659073 1.00611 0.99155957
0001c0 9b 8c 7e 3f d9 58 7c 3f 1e df 80 3f 64 1a 7f 3f
       0.99433297 0.9857307 1.006809 0.99649644
0001d0 dd e5 7e 3f 07 f5 82 3f ff 0c 7f 3f ca 92 82 3f
       0.99569494 1.0231026 0.99629205 1.0201046
0001e0 1a 54 7f 3f 30 34 7d 3f dd b0 80 3f ab ba 83 3f
       0.99737704 0.98907757 1.0053974 1.0291342
0001f0 5d e0 7f 3f 20 46 82 3f bf 5e 7f 3f fd 4d 7b 3f
       0.99951726 1.017765 0.99753946 0.98165876

dnn.1.bias f4 [128]
000000 fa 09 43 bc 29 7e a4 bb 51 df 92 bb b7 ca 9f bc
       -0.011904234 -0.0050199223 -0.004482188 -0.019505842
000010 bb b4 80 3c 1b df 59 3b b1 81 56 bc 35 58 88 bb
       0.015711179 0.0033244553 -0.013092444 -0.0041609057
000020 5e c4 d2 ba e8 c2 31 3b ac 4f 2f bc 72 38 59 bc
       -0.001608025 0.002712423 -0.010700148 -0.0132580865
000030 e3 63 9c bc 88 aa 6e bc 68 89 82 bb 61 b2 36 3c
       -0.019090598 -0.014567025 -0.0039836653 0.011150927
000040 38 db 3d bc de bc ff bb 69 fe 0d 3c 14 cc 7d 3b
       -0.01158791 -0.007804497 0.008666613 0.0038726376
000050 bf c4 3c bc 9f 4d 60 bc b3 34 03 bc 7f b3 81 bc
       -0.011521517 -0.013690381 -0.00800817 -0.01583266
000060 6c 70 55 ba f9 4e bb 3b 60 0f 08 bc 8e f4 32 3b
       -0.00081420573 0.0057162014 -0.008304447 0.002730641
000070 74 1a 25 bb 9b a2 1c bc 31 c8 ad bc 8b a7 2f bb
       -0.002519277 -0.009560253 -0.021213623 -0.0026802744
000080 c5 c4 ba 3b 22 5c 9a 3b f6 0a 99 bc af bc 72 bc
       0.0056997263 0.00471069 -0.018681984 -0.0148154935
000090 3b 42 a1 bb d0 cc 3f bb b0 18 8f bb c9 d8 a4 bb
       -0.0049212254 -0.0029266365 -0.0043669567 -0.0050307256
0000a0 6b 39 4e b9 0b cc 02 bb 5d 03 9d 3b ec 6a 1e bc
       -0.00019667081 -0.0019958045 0.0047916607 -0.009669047
0000b0 17 82 a0 bb 9e 42 27 bc 8c 84 00 bc 47 72 04 bb
       -0.0048983204 -0.010208754 -0.007844102 -0.0020209716
0000c0 3d 81 72 3c 81 bb ff 39 4f 55 aa bb 9f bb 50 3b
       0.014801321 0.0004877709 -0.005198158 0.0031850112
0000d0 ab 75 55 bc e1 a9 97 bc f2 b2 38 bc d8 54 bc bb
       -0.0130285425 -0.018513622 -0.011273133 -0.005747419
0000e0 37 32 86 bc 05 1d f5 3b 04 06 8f bb 16 67 66 3b
       -0.016381366 0.007480266 -0.004364731 0.003515666
0000f0 05 35 57 bb 27 db 0b 3b 49 11 98 bb 11 62 8d bc
       -0.0032837999 0.0021340342 -0.0046407324 -0.017258676
000100 0d 52 a4 bb bb 4a 0b bc 0a c8 48 3c 17 05 ed bb
       -0.005014664 -0.008501704 0.012254724 -0.007233273
000110 80 59 ea bb a4 5f 7a 39 35 44 ea ba 49 d3 b7 3b
       -0.0071517825 0.00023877487 -0.001787311 0.005609904
000120 3e 4d ed ba d9 8d 4f bc d0 6a 8f bc fb b0 aa bb
       -0.0018104685 -0.012668096 -0.017506987 -0.005209086
000130 16 39 23 bc 80 be 59 bc 19 b5 a9 3b b9 f1 fc bb
       -0.009962341 -0.013290048 0.005179059 -0.0077192453
000140 38 b5 cf 3b a8 b8 fe bb 34 24 02 bd 7e 3a b0 bb
       0.0063387416 -0.0077734776 -0.031772807 -0.0053780666
000150 4b da 34 ba 7c 42 ce bb 7c ad b7 3b ef 4f a7 3a
       -0.0006898983 -0.0062945466 0.0056053977 0.0012764911
000160 9c ab 4c ba 6e 43 3f bc be 11 e2 39 36 91 45 bc
       -0.0007807554 -0.011673791 0.00043119298 -0.012058547
000170 7c 07 01 bc 07 b4 de bb e9 38 26 bc 68 ca a4 ba
       -0.00787532 -0.0067963633 -0.010145404 -0.0012572529
000180 05 d8 81 bb 31 53 6f 3c b9 37 9d 3b a9 24 25 3b
       -0.003962519 0.014607237 0.0047979024 0.0025198853
000190 3b c0 26 39 e4 b0 7b 3c 73 4b 01 bb dd 2a 06 bc
       0.00015902605 0.015361998 -0.001972881 -0.00818893
0001a0 74 69 7c 3b ec eb 11 bc 85 27 21 bc 79 8b 4e 3c
       0.0038515003 -0.008906346 -0.009836082 0.012606495
0001b0 e2 1e 17 3c 46 db 14 bc 6b e1 4c 3c f1 30 3f bb
       0.009223672 -0.009085482 0.012504916 -0.0029173458
0001c0 ad e8 b7 3b f7 4b 86 bc 49 a3 56 ba 9e ff 16 bc
       0.005612454 -0.016393645 -0.00081877835 -0.009216217
0001d0 2b 1c cb bb 64 f2 c7 3b b8 61 74 bc 29 22 35 3c
       -0.0061984262 0.0061018933 -0.014915876 0.011055508
0001e0 03 a4 55 3a 63 8b 85 ba b6 1a 7f bb 77 27 18 bc
       0.0008149745 -0.0010188635 -0.0038925833 -0.009286753
0001f0 6c 0a 39 3a 47 d7 b8 ba 1c e1 76 bc d0 83 93 bb
       0.0007058743 -0.0014102244 -0.015068319 -0.0045017973

dnn.1.running_mean f4 [128]
000000 76 9a da 46 b7 8c 01 c7 07 fa a0 c6 4b 52 3b c7
       27981.23 -33164.715 -20605.014 -47954.293
000010 dc fc 6c c5 67 33 e9 c6 37 1b ac 46 dd 2b 24 c7
       -3791.8037 -29849.701 22029.607 -42027.863
000020 dc be 20 47 64 01 0b 47 3c 93 47 44 7d df d6 44
       41150.86 35585.39 798.30054 1718.984
000030 e3 b5 bf c5 84 98 1a 47 f0 6a 4f c6 43 43 11 46
       -6134.736 39576.516 -13274.734 9296.815
000040 70 de 2d 46 7f 68 5d 46 37 25 1a c7 f4 15 30 c7
       11127.609 14170.124 -39461.215 -45077.953
000050 33 51 cf 46 87 fc 1d c7 21 da bd c6 c2 62 25 47
       26536.6 -40444.527 -24301.064 42338.758
000060 9e 9c 8d 46 ca a3 17 46 ff 8a 10 c7 0c 0a 37 c7
       18126.309 9704.947 -37002.996 -46858.047
000070 1a 9c 2f c5 de 10 d0 c4 ae e9 aa c5 05 c0 24 47
       -2809.7563 -1664.5271 -5469.21 42176.02
000080 20 e5 1b 47 0b 20 e0 c6 68 20 b4 45 2e d8 f2 46
       39909.125 -28688.021 5764.051 31084.09
000090 93 25 62 c5 f0 d6 26 c7 08 e3 09 c7 d0 c1 e5 46
       -3618.3484 -42710.938 -35299.03 29408.906
0000a0 5a 4d 56 c6 e3 26 0d 47 5d 84 8b 45 47 6b 40 47
       -13715.338 36134.887 4464.5454 49259.277
0000b0 d4 4d a7 c6 d5 6c 0d c7 e0 54 27 c7 70 82 44 46
       -21414.914 -36204.832 -42836.875 12576.609
0000c0 bd f2 a5 c5 de 7a 99 c6 0f df 9e 45 3d 73 fb 46
       -5310.3423 -19645.434 5083.8823 32185.62
0000d0 dd cd 6d 46 cc 54 ec c5 90 c1 f5 45 62 9a 1e c7
       15219.466 -7562.5996 7864.1953 -40602.383
0000e0 ad 3f f9 46 7b ff 25 47 7f 91 c0 c6 ca fe 28 c7
       31903.838 42495.48 -24648.748 -43262.79
0000f0 31 ad 99 c5 17 be 9e 45 67 ab 29 46 74 09 03 c7
       -4917.649 5079.761 10858.851 -33545.453
000100 01 f3 fc c4 a4 f2 cf 46 8b f3 2c 47 bb ed 44 c6
       -2023.5939 26617.32 44275.543 -12603.433
000110 13 c5 71 c6 89 d0 a0 45 dd bb 25 47 d1 8a df 43
       -15473.269 5146.067 42427.863 447.0845
000120 ba cc b0 c6 31 62 3c 47 30 c0 05 c7 6f b0 1d 45
       -22630.363 48226.19 -34240.188 2523.027
000130 9b 3a 31 47 62 81 d3 c5 7d bd 64 c6 99 59 ac 46
       45370.605 -6768.173 -14639.372 22060.799
000140 82 c6 1b 47 28 2d 5e c4 4d 68 f2 c4 a0 dd 2b c7
       39878.508 -888.70557 -1939.2594 -43997.625
000150 94 c7 62 c6 5a 60 34 c6 79 68 3b 46 08 f2 8e c5
       -14513.895 -11544.088 11994.118 -4574.254
000160 15 d0 0b c7 02 2d 15 c7 2a 23 a8 43 76 e4 c1 c6
       -35792.082 -38189.008 336.27472 -24818.23
000170 0f af 60 c5 5d 4b fc c4 18 b6 1d c7 15 a3 ba c6
       -3594.9412 -2018.3551 -40374.094 -23889.541
000180 1a 27 d9 45 91 f7 ec c6 74 ee 0c c5 61 e4 2c 47
       6948.8877 -30331.783 -2254.9033 44260.38
000190 0f ea 20 c7 dc 20 99 46 09 0c c7 46 18 c5 d3 c6
       -41194.06 19600.43 25478.018 -27106.547
0001a0 28 a2 eb 45 93 b1 cb 46 63 26 2a c6 0f 94 24 c6
       7540.2695 26072.787 -10889.597 -10533.015
0001b0 e7 e0 fb 45 e3 c2 29 47 3b a1 04 47 c8 c8 ca 46
       8060.113 43458.887 33953.23 25956.39
0001c0 c4 a6 ac c5 a9 7b 08 47 dc 29 26 46 c4 f2 ed c6
       -5524.8457 34939.66 10634.465 -30457.383
0001d0 49 5e eb 45 6b f3 12 c4 25 fe 1e 47 eb 85 26 47
       7531.7856 -587.8034 40702.145 42629.918
0001e0 1c 69 08 47 15 de 87 c6 eb 44 04 46 bd cd f5 46
       34921.11 -17391.041 8465.2295 31462.87
0001f0 c5 3c e8 46 2c be 08 47 04 2e dc c6 40 32 bf c6
       29726.385 35006.17 -28183.008 -24473.125

dnn.1.running_var f4 [128]
000000 16 10 1f 47 24 f4 5b 47 89 9b 36 48 86 11 e4 47
       40720.086 56308.14 186990.14 116771.05
000010 c8 59 35 47 ec 06 56 47 5c ba dc 46 2d c7 77 47
       46425.78 54790.92 28253.18 63431.176
000020 96 e3 71 48 98 c3 2f 48 5e 3c 10 48 3a 8a b6 48
       247694.34 179982.38 147697.47 373841.8
000030 4e 7c b3 47 10 d3 bd 47 16 65 61 48 8e f3 ad 47
       91896.61 97190.125 230804.34 89063.11
000040 ac 54 b0 46 4a 0d a6 48 d5 d0 b6 47 da a3 19 48
       22570.336 340074.3 93601.664 157327.4
000050 87 18 99 48 b0 a0 24 48 d5 dd 5c 48 d6 68 ba 47
       313540.22 168578.75 226167.33 95441.67
000060 f0 fb 17 48 1f 31 3e 48 ce 73 33 48 b6 cd de 47
       155631.75 194756.48 183759.22 114075.42
000070 51 60 cd 46 bd b4 49 48 8e 53 11 47 fe 10 fb 47
       26288.158 206546.95 37203.555 128545.984
000080 a4 85 b7 48 bc b1 e0 47 f7 eb 7c 48 8d 10 0d 48
       375853.12 115043.47 258991.86 144450.2
000090 cd 5c f2 48 cd 50 06 48 d4 f0 c3 48 c3 e0 8e 48
       496358.4 137539.2 401286.62 292614.1
0000a0 ed 1c bd 47 e2 9b 0d 48 74 b0 40 48 d3 9b 07 48
       96825.85 145007.53 197313.81 138863.3
0000b0 5a 55 44 48 c2 cf a6 47 6c 0c 28 48 d7 d6 81 48
       201045.4 85407.516 172081.69 265910.72
0000c0 52 69 a2 47 01 ac b1 46 ac 2e ba 47 55 c8 55 48
       83154.64 22742.002 95325.34 218913.33
0000d0 e4 fa a6 47 5c ea 35 48 f0 f0 51 46 88 11 f8 47
       85493.78 186281.44 13436.234 127011.06
0000e0 3d 94 89 48 df 5c ae 47 71 b7 af 48 5c 6d 38 48
       281761.9 89273.74 359867.53 188853.44
0000f0 cb 6d ce 46 ae 26 93 47 58 9a 84 47 bc d3 e1 48
       26422.896 75341.36 67892.69 462493.88
000100 06 ab 68 48 9a 86 29 48 95 4b 8a 47 c2 db 69 47
       238252.1 173594.4 70807.164 59867.758
000110 c7 43 03 48 39 e2 0d 48 19 cc 0a 48 20 17 ce 47
       134415.11 145288.89 142128.39 105518.25
000120 2b 39 e7 47 db 6c 35 48 5f 6c 25 48 de fe 21 48
       118386.336 185779.42 169393.48 165883.47
000130 39 f2 60 48 4b 6c 31 47 92 14 92 48 1b a9 aa 47
       230344.89 45420.293 299172.56 87378.21
000140 52 f3 66 47 52 a1 5f 48 51 b2 37 47 27 12 a0 48
       59123.32 228997.28 47026.316 327825.22
000150 16 e2 2c 47 bb 0b 5c 48 bb fe d3 47 f8 76 0f 47
       44258.086 225326.92 108541.46 36726.97
000160 6f ca 1b 48 5b 74 6d 47 81 64 01 46 7c 67 70 47
       159529.73 60788.355 8281.126 61543.484
000170 40 3e 87 47 4c 93 2f 47 e0 f5 af 47 78 d1 03 47
       69244.5 44947.297 90091.75 33745.47
000180 92 b3 70 47 11 bd 56 47 54 3d 77 46 5c 01 8e 47
       61619.57 54973.066 15823.332 72706.72
000190 af 58 ac 48 42 35 56 46 d5 a0 86 48 9f e2 56 48
       352965.47 13709.314 275718.66 220042.48
0001a0 b4 5f f3 47 69 ad b6 47 83 74 e9 47 81 70 5c 48
       124607.41 93530.82 119529.02 225730.02
0001b0 36 d0 16 48 cf b4 42 48 aa 18 5c 47 be d4 b2 47
       154432.84 199379.23 56344.664 91561.484
0001c0 80 c6 1f 48 00 89 e8 48 9f 52 9a 48 12 ad 3d 48
       163610.0 476232.0 316052.97 194228.28
0001d0 ee c0 b3 48 9a 71 a3 46 ce fe b5 47 51 dc 09 48
       368135.44 20920.8 93181.61 141169.27
0001e0 e0 76 f3 48 1f 68 f2 46 19 ad 8e 47 f2 88 8e 47
       498615.0 31028.06 73050.195 72977.89
0001f0 aa a7 e3 48 92 0b 55 47 1c a4 a0 48 1e 84 5a 48
       466237.3 54539.57 328992.88 223760.47

dnn.4.weight f4 [256, 128]
000000 8d cb b1 3c af e4 e1 3c 07 f8 a3 bd 88 a6 5a bc
       0.021703506 0.027574865 -0.08006292 -0.013345368
000010 9e 7e f7 3c ea 9a 1a 3d 1b b6 09 3d cc 25 8f 3a
       0.030211743 0.037745394 0.033620935 0.0010921299
000020 8f fa f7 3c 1d ec ee 3c 28 92 64 bd 01 56 40 bd
       0.030270843 0.029165322 -0.055803448 -0.04695702
000030 9c 4b 85 bd 2e 68 54 3d 2e ba 0d bd 07 24 a2 bd
       -0.06508562 0.051857166 -0.034601383 -0.07917028
000040 12 4e ab ba 59 aa f9 3c 77 aa af 3d 98 58 37 3d
       -0.0013069531 0.030476736 0.085774355 0.044762224
000050 07 9c 8a bd 46 85 80 bc fb a4 c4 3c fa 32 aa bd
       -0.06768041 -0.01568855 0.02400445 -0.08310504
000060 77 ff cc 3a 05 d8 15 3d fa 9f b9 3d 85 a7 53 3d
       0.0015640099 0.036582965 0.09063716 0.05167343
000070 63 b0 44 3d 76 0c 6e bb ce 46 12 bd 4a 8c 1c 3d
       0.048019778 -0.0036323345 -0.035712056 0.038219728
000080 ad ea bd 3d 36 38 8e 3c 85 9a 69 bd ba 77 87 3d
       0.092732765 0.017360788 -0.057032127 0.06614633
000090 01 4b 3e bd e4 73 c5 3d 6b 0d 2b 3c c6 88 6a 3d
       -0.046458248 0.09641245 0.010440211 0.057259344
0000a0 19 54 78 bd c3 f6 bf 3c 01 6a d9 bc db 0a b1 bd
       -0.060627077 0.023433095 -0.026539804 -0.08644649
0000b0 2c 3e 87 bd 8f cf 48 3d 0a e5 8c 3c 7b af 66 bd
       -0.06603655 0.04902607 0.017199058 -0.056319695
0000c0 8c fc 66 3d ac 09 24 bd 8b 76 ad bd 85 04 97 3d
       0.05639319 -0.040048286 -0.08469876 0.07373909
0000d0 1e 5b f0 bc dd ea fa 3c 3b f9 4e 3d 49 d8 b2 bd
       -0.029340323 0.03062957 0.050530653 -0.08732659
0000e0 46 bd 38 3c 0a 1d 51 3d d2 00 a1 bd 52 27 85 3d
       0.011275595 0.051053084 -0.078614846 0.065016404
0000f0 05 3a f4 3c f1 78 38 3d 94 ee 2d bd 65 4f d6 bc
       0.029812822 0.045037214 -0.042463854 -0.026160905
000100 17 87 93 bd 00 1b 94 bd 73 9a 18 bd 12 25 a1 3d
       -0.07203501 -0.07231712 -0.03725667 0.07868399
000110 10 7d 8e bc 1b 43 04 bd 41 cb 96 3d ba a4 ab 3c
       -0.017393619 -0.03229056 0.07362986 0.020952571
000120 ea 73 60 bd 66 cf 84 3c 06 b8 83 3d 64 90 98 3c
       -0.054798044 0.016212177 0.06431584 0.018623538
000130 26 7c 15 3d 66 93 79 3d f6 9f dc bc 98 21 82 bd
       0.03649535 0.060931586 -0.026931744 -0.06354064
000140 7c 18 84 3b b6 93 8d bd 9c 89 1e 3c c7 04 da ba
       0.004031239 -0.06912939 0.009676363 -0.0016633504
000150 eb 72 8d 3c 2f a8 2c 3c 29 45 b2 ba 1d c1 91 bd
       0.017266711 0.010538145 -0.0013600934 -0.071169116
000160 fe 41 91 3d a3 0d b1 bd 41 2d e3 3c bb ad 80 3d
       0.07092665 -0.08645179 0.02773154 0.062831365
000170 dd 1f a0 bc f1 97 8b 3c 60 c6 ae bd e0 c1 9c bd
       -0.019546444 0.017040225 -0.08533931 -0.07654166
000180 ee 8d 74 3c da 45 37 3d 5e de 2b bc a9 1e 15 bd
       0.014926417 0.04474435 -0.010490028 -0.036406193
000190 00 4e a5 bc c9 86 a7 3c 6a d8 7c 3d cf a4 46 3d
       -0.020178795 0.020450013 0.061729826 0.048497017
0001a0 26 a9 ae bd 59 50 a7 3d 14 7e 68 3d 40 8d 8d bd
       -0.08528356 0.08169622 0.056760862 -0.06911707
0001b0 57 28 df bc ab 07 33 3d 96 b0 a5 3d 17 5f 15 3d
       -0.027240915 0.043708485 0.08090322 0.036467638
0001c0 68 f7 26 bd a3 74 3f 3d b8 f0 48 bd d9 8b 84 bb
       -0.04076329 0.046742093 -0.049057692 -0.0040449915
0001d0 dd a4 26 3b c3 48 8d 3d 65 c7 69 bd db 16 cf 3c
       0.0025427856 0.06898644 -0.057074923 0.025279453
0001e0 86 1f a0 bd eb b7 92 3b fe 23 ad bd ca 53 07 bd
       -0.078185126 0.004477491 -0.084541306 -0.03303889
0001f0 90 51 a1 3d 39 93 9a 3c 68 18 50 3d 7b 64 96 bd
       0.07876885 0.01886903 0.050804526 -0.07343384
000200 67 f3 89 3c 12 5f c2 bd 0b 52 e0 3b 85 d4 19 ba
       0.016839696 -0.094907895 0.006845718 -0.00058681547
000210 62 14 0d bd a3 2c ce bd 13 7b 42 bd 72 5c d0 3c
       -0.034443267 -0.100671075 -0.047480654 0.025434706
000220 72 32 86 bd 2f 44 6f bd cd 99 8b 3c 6b fb aa bd
       -0.065525904 -0.058414634 0.017041111 -0.083487354
000230 6c f0 34 3d 89 bd 9e bd 54 ae 30 3d 0c 41 dd bd
       0.044174597 -0.07750995 0.043135002 -0.10803422
000240 a3 9b 8e 3d e6 8d ab 3b 4f bc 96 bd 3c 2c 47 bd
       0.06963279 0.0052354215 -0.07360136 -0.04862617
000250 e8 e2 46 3d ed ec 77 bd c6 cc 05 bd 93 a0 88 bc
       0.04855624 -0.060528684 -0.03266599 -0.01667813
000260 e9 e4 87 3b b4 e0 61 bb 0d 00 b6 bc c5 ca a8 3d
       0.0041471613 -0.003446621 -0.022216821 0.082418
000270 3a a9 98 3b a3 8e 04 bc f4 2f a1 bd a6 3c 80 bc
       0.0046588453 -0.008090648 -0.078704745 -0.01565392
000280 47 53 2d 3c 61 9a 89 3d 45 b5 64 bd 32 13 8a 3d
       0.010578937 0.067188986 -0.055836935 0.067419425
000290 84 44 23 bd 10 6c 6e bd 14 96 9c bd 9e 22 e8 bc
       -0.039860263 -0.058208525 -0.07645813 -0.02833682
0002a0 78 ac f3 bc 11 2c b6 bd 15 86 ab 3d 44 f1 1d 3d
       -0.029745325 -0.08895124 0.083751835 0.038560167
0002b0 b3 b6 40 3c 6a 23 97 3d a5 95 48 bd 15 b8 38 3d
       0.011762309 0.073798016 -0.048970837 0.04509743
0002c0 eb 36 86 3d a1 db b0 bd 55 3a 00 3d 05 44 0c bc
       0.065534435 -0.08635641 0.03130563 -0.008561139
0002d0 44 a8 2d 3c 86 58 ee 3c 71 87 a1 bd 18 ec de ba
       0.0105992 0.029094946 -0.078871615 -0.0017007617
0002e0 72 da a2 3d b3 64 8a 3c c1 3d f7 bb 02 e6 49 3d
       0.079518214 0.01689372 -0.0075452034 0.04929162
0002f0 23 e9 66 bd d0 1c 9b bd 2a 87 44 3d 09 49 48 bd
       -0.05637468 -0.07573855 0.047980465 -0.048897777
000300 88 ac 39 3d f5 44 91 bd 34 23 85 3d 77 06 99 3c
       0.045330554 -0.07093231 0.06500855 0.01867984
000310 7f 33 e3 bc b5 11 2a 3d c1 67 7f 3d f7 29 76 bd
       -0.027734516 0.041520793 0.062354807 -0.060098615
000320 bf ab 2a 3d f5 6f 51 3c bf 0e 86 bd d0 ab 10 bd
       0.041667696 0.01278304 -0.06545781 -0.035320103
000330 27 3e 4f 3d 62 dd 98 bc d0 c4 98 bc 6b 3a 7d bd
       0.050596382 -0.018660251 -0.018648535 -0.06182329
000340 04 22 68 bc 7a e3 2f bc 92 3a 19 3d 2b de a3 3d
       -0.014168266 -0.010735387 0.037409373 0.080013596
000350 6f bc 51 3d 85 bc 76 3b 7f 80 7e bd 59 68 a4 3d
       0.051205095 0.0037648987 -0.062134262 0.08027715
000360 f1 a6 8a 3d 69 48 fe 3c 59 d5 bf bc e5 f3 45 3d
       0.06770123 0.031040387 -0.023417162 0.0483283
000370 dd 3f 0d 3b 4d b0 16 3d db fc ec bc 40 17 0a bc
       0.0021552958 0.036789227 -0.028929165 -0.008428395
000380 1c c8 30 bc 5b 38 51 3c 0c ec 7d bd 2a 42 59 3d
       -0.010789897 0.012769784 -0.06199269 0.053041615
000390 07 8d 8a 3d d1 0b a2 bd 74 bf aa bd 6a cd 1b bb
       0.0676518 -0.0791241 -0.08337298 -0.002377356
0003a0 b9 65 96 bd 0c fa 59 bd 4c 4d 46 3d 31 ab 0b 3d
       -0.07343621 -0.05321698 0.04841356 0.034098808
0003b0 ec 76 b1 3c dd 83 03 3d c1 ea 52 3d be 99 48 3c
       0.021663152 0.032108176 0.05149341 0.012243686
0003c0 44 f2 5b bc 59 10 6b bd d5 c1 98 3d a6 33 94 3d
       -0.01342446 -0.057388637 0.074588455 0.07236414
0003d0 cd 0b 1d bd 27 28 19 bd cd f5 8b bd 3a 7e 7f 3c
       -0.038341332 -0.037391808 -0.06833992 0.01559406
0003e0 d2 65 b9 3c c3 8c 80 bd 46 83 1a 3d 92 d4 7d 3b
       0.02263156 -0.06276848 0.03772285 0.0038731438
0003f0 8f 4c cf bc 20 69 54 3d e3 9d 7d 3d 26 4a f1 3c
       -0.02530506 0.051858068 0.06191815 0.029454302

dnn.4.bias f4 [256]
000000 ca dc f6 b7 59 18 05 b9 98 2a 88 37 54 0b 5f b8
       -2.9428298e-05 -0.00012692939 1.6232298e-05 -5.3177893e-05
000010 85 69 22 b7 52 b3 8f b8 07 f3 98 b6 c5 f9 aa 38
       -9.680521e-06 -6.8521724e-05 -4.558245e-06 8.152755e-05
000020 ca 14 d2 b8 70 6d 71 b9 0e bd 66 b6 f4 eb ba b7
       -0.000100174526 -0.0002302432 -3.4382715e-06 -2.2282802e-05
000030 de f0 4a b7 2c 0e 88 36 11 60 1a 38 66 fb 2e b8
       -1.20962195e-05 4.0547657e-06 3.680593e-05 -4.1718966e-05
000040 81 84 be 38 24 c6 7e 38 57 eb 2b b8 b1 af 6b b8
       9.084587e-05 6.0742852e-05 -4.0988754e-05 -5.619199e-05
000050 c1 86 53 b8 ab cc ef 38 ae 05 34 b8 84 8f 0e 39
       -5.043182e-05 0.000114345305 -4.2920634e-05 0.00013595639
000060 a9 29 c8 38 c4 7b 6f b8 df d7 34 b8 9d 6b 06 b9
       9.544503e-05 -5.7097306e-05 -4.311639e-05 -0.00012819325
000070 15 20 53 b8 31 f2 8b 39 88 54 a1 b6 4e bb 8a b6
       -5.03362e-05 0.00026692593 -4.8080146e-06 -4.1345256e-06
000080 f5 24 a5 37 5e 6f 92 b6 b0 c2 a8 37 63 46 18 39
       1.9686742e-05 -4.364104e-06 2.0117819e-05 0.0001452207
000090 93 92 8b b7 19 56 b6 38 aa a5 16 38 02 c2 e3 38
       -1.6638345e-05 8.694473e-05 3.5917074e-05 0.0001086034
0000a0 ef dc 5e b9 79 f5 da b8 98 43 18 b5 02 cb 0d 38
       -0.00021253874 -0.00010440773 -5.6722774e-07 3.3806085e-05
0000b0 a2 6b 61 b8 b5 4f 4b b9 32 b2 94 37 5f 93 99 38
       -5.374442e-05 -0.00019389282 1.7725954e-05 7.3230585e-05
0000c0 1d 36 aa 38 a1 ae a3 b8 19 7a 2b 36 0b b1 d1 b5
       8.116311e-05 -7.804973e-05 2.5552056e-06 -1.562324e-06
0000d0 76 1a 61 39 ff 26 65 b7 23 89 a0 b7 d7 34 6a b8
       0.0002146753 -1.3658543e-05 -1.9137346e-05 -5.583916e-05
0000e0 c9 57 4e 37 e6 de 09 39 48 ed 56 b8 1c 50 8d 39
       1.2298996e-05 0.00013148374 -5.124256e-05 0.00026953302
0000f0 ff a4 99 36 25 50 17 b7 05 87 d5 35 59 bf 7c 38
       4.5789634e-06 -9.0189615e-06 1.5909033e-06 6.025969e-05
000100 1a f5 0c 39 3d b8 95 b8 34 fc 85 b9 0b 41 c4 b5
       0.00013442748 -7.139191e-05 -0.00025555643 -1.4622068e-06
000110 4d 26 6b 38 8b 7c fd 37 a2 a8 1d b7 12 ca 3e b9
       5.6064036e-05 3.0217945e-05 -9.397192e-06 -0.00018195089
000120 59 93 f9 b8 82 b8 8a b8 d9 e5 01 36 97 63 08 39
       -0.00011900691 -6.61472e-05 1.9356287e-06 0.00013007071
000130 30 3f 3b 39 02 58 ef 38 ca 49 52 37 28 7e c6 b7
       0.00017857249 0.00011412801 1.2534156e-05 -2.3662185e-05
000140 06 a7 08 39 7e 44 92 38 fd b3 3b 39 a3 f3 d9 b8
       0.00013032192 6.97458e-05 0.0001790076 -0.00010392747
000150 71 d1 e6 37 d0 8c 48 b8 33 da ed 38 96 95 7b 38
       2.7515665e-05 -4.7814858e-05 0.000113416834 5.9982376e-05
000160 5b 1a dc 36 c2 8f 59 38 c5 8c 25 37 44 56 76 37
       6.559579e-06 5.1870717e-05 9.867542e-06 1.4682828e-05
000170 60 66 e8 b7 4c fe b3 b7 07 55 81 b8 aa 08 5f 38
       -2.7704227e-05 -2.1456879e-05 -6.167037e-05 5.3175412e-05
000180 0f e2 9f b8 05 00 0c b9 16 7d 27 b7 9c ea 8d 37
       -7.6238175e-05 -0.00013351448 -9.9830995e-06 1.6917758e-05
000190 a5 a3 1b 37 ac 04 7d b7 a4 8f a8 b7 d6 d7 ab b7
       9.276821e-06 -1.5081063e-05 -2.0094049e-05 -2.0485295e-05
0001a0 48 a9 94 b8 64 4e ed 38 42 b0 25 37 62 15 e7 b8
       -7.088721e-05 0.00011315642 9.875805e-06 -0.00011018921
0001b0 34 7b f3 37 14 41 6b 38 6e 14 e4 37 db 98 0b b6
       2.9025228e-05 5.6088975e-05 2.7189231e-05 -2.0801588e-06
0001c0 e6 f7 fc 38 3b e8 e0 b7 ed 5b 3b b9 8c 3f e5 b7
       0.00012062471 -2.6811022e-05 -0.00017867955 -2.7328519e-05
0001d0 16 a7 c2 b8 1a f2 34 b7 d1 06 c3 b8 ef 6c 92 b8
       -9.281763e-05 -1.0785205e-05 -9.299594e-05 -6.982113e-05
0001e0 24 21 a1 b7 0f 92 85 b8 2c 4c 1b b8 e3 69 68 b6
       -1.9208128e-05 -6.36914e-05 -3.702582e-05 -3.4632328e-06
0001f0 ed e4 07 37 dd 03 3c 36 7d 53 76 b8 0a 34 96 38
       8.099928e-06 2.8016432e-06 -5.8728725e-05 7.1622504e-05
000200 7e a4 bc 37 83 6f cb b7 5e 6d 15 38 e7 4c 48 b7
       2.2487944e-05 -2.4251412e-05 3.5626224e-05 -1.1938834e-05
000210 03 ef c0 b8 76 3b b8 b7 b2 70 17 b9 75 4a 0f b9
       -9.199793e-05 -2.1962198e-05 -0.00014442464 -0.0001366528
000220 c8 ed 01 b8 61 83 e8 38 de 15 70 b8 f1 4c 9e 37
       -3.0977448e-05 0.00011087093 -5.7240824e-05 1.8870896e-05
000230 cc ae 40 38 61 63 34 38 40 e2 46 38 f5 68 8f b7
       4.593916e-05 4.3007898e-05 4.741759e-05 -1.7095803e-05
000240 4f cf 1e 38 31 da 55 b9 49 c7 1d b9 64 2a dd 38
       3.7863207e-05 -0.00020394546 -0.00015046926 0.00010545997
000250 b0 e2 fa b7 6e 2a 91 b5 df bd 95 b8 63 ba f3 b8
       -2.9907882e-05 -1.081569e-06 -7.14024e-05 -0.0001162186
000260 cb 33 da 38 d9 24 ca b7 b0 38 09 b7 de 76 d2 38
       0.00010404697 -2.4097435e-05 -8.179035e-06 0.00010035721
000270 fd 3d 80 b8 b3 51 6d b9 67 07 c8 37 e9 f7 37 37
       -6.115062e-05 -0.00022632517 2.3845305e-05 1.0965371e-05
000280 7a 8a c1 36 eb 24 99 b8 e7 35 7c 37 b0 e1 3a b9
       5.767969e-06 -7.302485e-05 1.5032921e-05 -0.00017822417
000290 48 d1 04 b6 03 80 19 b7 30 68 8e 38 69 90 70 37
       -1.979135e-06 -9.149316e-06 6.790494e-05 1.4338738e-05
0002a0 af dc c1 37 54 ce e7 38 82 4a e0 b8 ba 89 19 b7
       2.3110157e-05 0.0001105337 -0.000106950305 -9.151578e-06
0002b0 cd da 72 b8 7a 3c 4b b7 d4 10 0c 39 7a fb 22 b8
       -5.790107e-05 -1.2113824e-05 0.0001335771 -3.8858016e-05
0002c0 93 1f 00 38 9e c6 c1 38 9b f7 da 38 a2 e6 b2 b7
       3.0546984e-05 9.2399525e-05 0.0001044117 -2.132665e-05
0002d0 5c 26 35 38 61 d6 44 38 a9 a1 b1 b8 40 03 88 b8
       4.3189488e-05 4.6929697e-05 -8.470129e-05 -6.485591e-05
0002e0 64 5f 02 b8 98 ef 72 b7 0b 83 67 38 11 55 0a 38
       -3.1083255e-05 -1.4480109e-05 5.5196735e-05 3.2980988e-05
0002f0 77 e5 65 37 1a 98 96 b7 c1 07 63 b8 b8 81 2b 37
       1.370289e-05 -1.7952221e-05 -5.412824e-05 1.0222597e-05
000300 b0 60 66 38 24 1a 6f 39 ec 93 1a b8 02 12 0b b7
       5.492632e-05 0.00022802554 -3.6854224e-05 -8.289238e-06
000310 9d 2b 86 38 36 b9 1b b7 98 9b 41 b9 da f6 7a b8
       6.3977415e-05 -9.281843e-06 -0.00018463877 -5.9834543e-05
000320 71 8b e4 b8 00 9e 1d b8 e4 29 2e 36 02 20 ae 37
       -0.0001089786 -3.7578866e-05 2.5952404e-06 2.0757321e-05
000330 e8 20 f1 38 ad a2 c1 37 df af e7 38 15 a2 a7 b8
       0.00011497905 2.3083145e-05 0.00011047697 -7.993371e-05
000340 2d a9 1a b9 8a ba 00 b8 09 96 a3 b8 57 2d f0 b7
       -0.00014749607 -3.0691306e-05 -7.800392e-05 -2.8631343e-05
000350 15 3a 84 37 41 26 e2 38 3a 6a d9 37 68 9e 74 38
       1.5762673e-05 0.00010783645 2.5917881e-05 5.832166e-05
000360 86 46 9d b8 77 f8 ac b7 cc fb 8d 37 85 99 f5 37
       -7.4994794e-05 -2.0619698e-05 1.6925762e-05 2.9277764e-05
000370 ff e4 36 b8 33 7c 83 b7 80 43 cb b8 7e 6c 92 38
       -4.360545e-05 -1.5674252e-05 -9.692367e-05 6.982031e-05
000380 1d 68 53 b8 f0 fa 75 38 e2 e2 27 b8 b6 0a 45 37
       -5.0403283e-05 5.8646256e-05 -4.0027204e-05 1.1744609e-05
000390 7b 35 12 b9 c9 dd ca 37 4b 0b 73 39 7c 66 50 39
       -0.00013943568 2.4183553e-05 0.00023178493 0.00019874604
0003a0 d0 43 bf b8 83 83 bb b8 aa d8 26 b7 0f 62 05 36
       -9.120221e-05 -8.941351e-05 -9.944817e-06 1.9875622e-06
0003b0 a4 54 14 39 8b c1 6c b8 c4 a6 a4 38 08 8e 32 b8
       0.00014145911 -5.6447036e-05 7.851192e-05 -4.2570784e-05
0003c0 0b 6e 8d 38 17 5d 02 b9 65 46 0f b7 16 1f 48 38
       6.743901e-05 -0.00012432445 -8.539854e-06 4.7712667e-05
0003d0 9c 0e 73 37 c8 ee 47 b8 d7 ec 38 37 bc d8 06 b7
       1.448733e-05 -4.766768e-05 1.1022398e-05 -8.037485e-06
0003e0 64 b9 bf b8 62 0c 96 b5 2b 73 1a b9 46 a3 a8 38
       -9.1421214e-05 -1.1179475e-06 -0.00014729488 8.041276e-05
0003f0 62 58 d0 b8 e2 4a a1 38 40 d5 86 37 e9 31 a3 36
       -9.9346755e-05 7.691026e-05 1.6073347e-05 4.863589e-06

dnn.5.weight f4 [256]
000000 da 12 80 3f e2 4a 80 3f 82 1a 80 3f f8 69 7e 3f
       1.0005753 1.0022852 1.000809 0.99380445
000010 a4 f8 80 3f 2d e7 7d 3f 96 7d 80 3f e0 3a 80 3f
       1.0075879 0.9918087 1.0038326 1.0017967
000020 54 5b 80 3f 74 1e 80 3f 13 a6 80 3f 9d 69 81 3f
       1.0027871 1.0009294 1.0050682 1.0110356
000030 28 12 82 3f 2b e5 80 3f 64 ea 7d 3f 34 3e 81 3f
       1.0161791 1.0069937 0.99185777 1.0097108
000040 0e 9a 80 3f 66 c8 7c 3f dc 0d 80 3f 4a 24 80 3f
       1.0047014 0.98743284 1.000423 1.0011075
000050 4a 09 80 3f a2 a7 7e 3f 1f 43 81 3f 5b 33 7f 3f
       1.0002835 0.9947454 1.0098609 0.9968774
000060 74 a5 7c 3f c6 b5 7f 3f 6d 55 7d 3f e6 3d 81 3f
       0.9868996 0.9988674 0.98958474 1.0097015
000070 92 58 7d 3f d3 54 7d 3f 4f 80 7f 3f 99 20 7f 3f
       0.9896327 0.98957556 0.9980516 0.99659115
000080 f7 22 7c 3f fe ac 7f 3f 33 a9 81 3f 7b 6a 7d 3f
       0.9849085 0.9987334 1.012976 0.989906
000090 c7 bc 80 3f 25 60 7e 3f b8 33 7b 3f 96 96 81 3f
       1.005761 0.99365455 0.9812579 1.012408
0000a0 0f 54 7e 3f 54 a9 80 3f 90 cc 80 3f 44 5c 81 3f
       0.99347013 1.0051675 1.0062428 1.0106282
0000b0 7e 6d 80 3f 66 05 81 3f 43 ca 80 3f ee 09 7b 3f
       1.0033414 1.0079772 1.0061725 0.98062027
0000c0 6f 17 7c 3f 21 0b 81 3f 76 00 82 3f e0 43 81 3f
       0.98473257 1.0081521 1.0156391 1.0098839
0000d0 9a 4e 7f 3f 75 8c 81 3f c6 00 7c 3f 0d e8 7c 3f
       0.9972931 1.0120989 0.9843868 0.9879158
0000e0 bb af 82 3f 49 7b 7f 3f 2f 42 7e 3f af 47 80 3f
       1.0209879 0.99797493 0.9931974 1.0021876
0000f0 13 09 80 3f 7c 61 81 3f c2 e2 81 3f 3d c1 80 3f
       1.0002769 1.0107875 1.0147326 1.0058972
000100 22 39 80 3f a5 90 7d 3f aa 1f 80 3f 57 61 7e 3f
       1.0017436 0.99048835 1.0009663 0.9936728
000110 7c 1a 80 3f 97 ec 7c 3f b4 e3 81 3f b9 9a 7d 3f
       1.0008082 0.9879851 1.0147614 0.99064213
000120 c3 00 7e 3f 69 dd 80 3f a6 79 81 3f cf 0f 80 3f
       0.9921991 1.0067569 1.0115249 1.0004824
000130 2c 1c 80 3f 34 a4 80 3f 29 f1 7d 3f 7c c3 81 3f
       1.0008597 1.0050111 0.99196106 1.0137782
000140 d1 df 7f 3f 2b 6d 7c 3f ba a9 80 3f 44 b6 80 3f
       0.9995089 0.9860408 1.0051796 1.0055623
000150 7e 58 80 3f 61 3d 81 3f 18 fb 7c 3f 6d 1c 81 3f
       1.0027006 1.0096856 0.9882064 1.00868
000160 ab f1 7d 3f d8 13 7b 3f 85 0d 82 3f a2 35 81 3f
       0.9919688 0.98077154 1.0160376 1.0094492
000170 c1 55 7f 3f 86 18 7d 3f e6 64 81 3f aa ce 7d 3f
       0.99740225 0.98865545 1.0108917 0.9914347
000180 9c 1b 81 3f 61 db 7d 3f 4d f0 7e 3f a2 d1 7f 3f
       1.0086551 0.9916287 0.9958542 0.9992925
000190 d9 cc 7e 3f 65 f4 81 3f 96 b6 7f 3f 6a 67 81 3f
       0.9953132 1.0152708 0.9988798 1.0109684
0001a0 4c b3 81 3f 20 0b 81 3f 8f 1c 82 3f cd 08 80 3f
       1.0132842 1.008152 1.0164965 1.0002686
0001b0 20 7c 7e 3f 41 20 80 3f b1 85 81 3f e6 dc 7e 3f
       0.9940815 1.0009843 1.0118924 0.99555814
0001c0 62 b4 7e 3f 41 bb 80 3f f4 d5 7e 3f 44 fe 81 3f
       0.9949399 1.0057145 0.99545217 1.0155721
0001d0 7e 09 81 3f ac b2 7b 3f a2 c0 7f 3f 3b 09 80 3f
       1.0081022 0.98319507 0.9990331 1.0002817
0001e0 5a c4 80 3f b0 6e 7f 3f 11 54 7d 3f 1c d4 7b 3f
       1.0059922 0.9977827 0.989564 0.9837053
0001f0 6f 93 80 3f e6 4e 7f 3f 75 ed 7c 3f e7 db 80 3f
       1.0044993 0.99729764 0.9879983 1.0067109
000200 5f 5a 7c 3f 3c 25 7e 3f e2 4a 81 3f cf 2b 81 3f
       0.98575395 0.99275565 1.0100977 1.0091494
000210 6b e7 81 3f b0 8e 7f 3f a5 8c 7e 3f b7 fe 81 3f
       1.0148748 0.998271 0.99433357 1.0155858
000220 da ba 80 3f 70 16 80 3f 14 8c 7c 3f af 1a 80 3f
       1.0057023 1.0006847 0.9865124 1.0008143
000230 f5 e1 80 3f 49 3a 82 3f eb 1c 7f 3f 79 c8 7d 3f
       1.0068957 1.0174037 0.996535 0.9913402
000240 11 9d 7b 3f c6 61 7e 3f 73 e4 7b 3f eb 1c 7f 3f
       0.9828654 0.9936794 0.9839546 0.996535
000250 9e be 7e 3f 70 f4 81 3f 90 98 7f 3f 17 37 81 3f
       0.9950961 1.0152721 0.99842167 1.0094937
000260 c0 d9 7f 3f 49 42 82 3f f5 5b 80 3f 2d dd 7c 3f
       0.99941635 1.0176479 1.0028063 0.9877499
000270 12 c1 80 3f 86 98 7e 3f 12 d6 80 3f 47 2e 7d 3f
       1.005892 0.9945148 1.0065329 0.9889874
000280 81 9c 82 3f 5f f0 80 3f 1f d3 7f 3f d6 5d 80 3f
       1.0204011 1.0073355 0.9993152 1.0028636
000290 d6 9f 80 3f 94 00 81 3f 7a d0 80 3f 77 83 81 3f
       1.0048778 1.0078301 1.0063622 1.0118245
0002a0 8d c8 7e 3f 58 ad 80 3f c2 f2 81 3f 89 4e 80 3f
       0.99524766 1.00529 1.0152209 1.0023967
0002b0 f6 74 81 3f 46 12 80 3f 3d b0 7e 3f b8 86 7a 3f
       1.0113819 1.0005577 0.9948767 0.97861814
0002c0 c9 31 81 3f c3 24 7c 3f de 2d 80 3f c4 11 7f 3f
       1.0093318 0.98493594 1.0013998 0.99636483
0002d0 25 cf 80 3f 28 1a 81 3f 31 4f 7e 3f ff 27 7f 3f
       1.0063215 1.0086107 0.99339586 0.99670404
0002e0 34 21 80 3f 77 2f 81 3f a2 2a 82 3f db 4a 81 3f
       1.0010133 1.009261 1.016926 1.0100969
0002f0 d8 a5 7b 3f 2a f3 7d 3f a5 ca 81 3f 1e 0e 7d 3f
       0.9829993 0.99199164 1.0139967 0.98849666
000300 19 63 82 3f a0 20 7c 3f 2e e8 7c 3f 0e 7e 81 3f
       1.0186492 0.9848728 0.9879178 1.0116594
000310 f3 07 7e 3f 61 63 7c 3f b7 a9 7b 3f 8f 42 80 3f
       0.9923088 0.9858914 0.9830584 1.0020312
000320 34 de 7d 3f 7d 9c 7d 3f a3 09 81 3f b8 b0 80 3f
       0.9916718 0.9906691 1.0081066 1.005393
000330 1a db 81 3f b9 f3 81 3f 79 72 7f 3f da 88 7f 3f
       1.014499 1.0152503 0.99784046 0.99818194
000340 c3 0c 81 3f b4 b7 80 3f 8c 16 80 3f 61 3e 7d 3f
       1.008202 1.0056062 1.0006881 0.9892331
000350 4e 53 80 3f 35 9a 7f 3f 36 82 7b 3f c9 7e 7b 3f
       1.0025423 0.99844676 0.9824556 0.98240334
000360 f9 bb 7c 3f 46 de 7e 3f b3 0c 82 3f 24 4c 81 3f
       0.98724324 0.9955791 1.0160125 1.0101361
000370 fd 60 7b 3f 26 32 7d 3f 56 4c 81 3f bc 99 7c 3f
       0.9819487 0.98904645 1.0101421 0.9867208
000380 d7 b9 81 3f d0 ce 7e 3f 3e 96 7c 3f bc 9f 7c 3f
       1.0134839 0.9953432 0.9866675 0.98681235
000390 ef ae 7f 3f df e3 7e 3f ff 60 80 3f 28 42 80 3f
       0.998763 0.99566454 1.0029601 1.0020189
0003a0 07 ff 80 3f c9 37 80 3f 46 13 7d 3f 2b 29 80 3f
       1.0077828 1.0017024 0.98857534 1.0012563
0003b0 39 d9 7b 3f 7c bd 7d 3f 11 c5 81 3f d9 6c 81 3f
       0.9837833 0.99117255 1.0138265 1.0111343
0003c0 74 82 7e 3f 88 38 80 3f 8b b6 80 3f fc 40 81 3f
       0.99417806 1.0017252 1.0055708 1.0097957
0003d0 d1 5c 82 3f 4b 65 81 3f 53 01 81 3f c5 ae 81 3f
       1.0184575 1.0109037 1.0078529 1.013146
0003e0 93 35 81 3f 46 77 7e 3f b4 1d 81 3f ea 92 82 3f
       1.0094475 0.99400747 1.008719 1.0201085
0003f0 c2 9a 80 3f c6 c1 7c 3f 03 b8 80 3f da a8 80 3f
       1.0047228 0.98733175 1.0056156 1.005153
